model/model_FD002.onnx (onnx, 5356 bytes, 5 tensors)

linear_layers.0.weight f4 [1, 28]
1.6236497 1.3482277 1.6030909 1.4811541 1.5753742 1.3747636 1.451633 1.5196161
1.4113895 1.5698544 1.5787119 1.4419638 1.4561795 1.5806046 1.376026 1.6393827
1.5472012 1.5089401 1.5762969 1.4863502 1.4236097 1.5289496 1.4335282 1.6483611
1.5873154 1.6174698 1.4880145 1.533518
00000000: c1d3 cf3f ba92 ac3f 1532 cd3f 7596 bd3f
00000010: dda5 c93f 41f8 af3f 1ccf b93f c882 c23f
00000020: 69a8 b43f fdf0 c83f 3b13 ca3f 4592 b83f
00000030: 1764 ba3f 4051 ca3f 9f21 b03f 4bd7 d13f
00000040: b00a c63f f324 c13f 19c4 c93f b940 be3f
00000050: d838 b63f 9fb4 c33f da7d b73f 7ffd d23f
00000060: 272d cb3f 4009 cf3f 4277 be3f 514a c43f

31 f4 [8, 1, 4, 21]
0.09762399 0.14003499 -0.30118588 -0.062671855 -0.011801544 -0.0479164 -0.0907247 0.24805774
0.10815565 0.15410139 -0.13312624 0.001012687 0.49505588 -0.26765442 -0.38699886 -0.08277068
-0.25423536 0.30723298 0.44846794 -0.07067761 0.15325315 0.31787807 0.12238837 -0.018352676
-0.22019191 -0.04545323 -0.112910844 -0.048258934 0.030796472 0.032891456 0.22265252 -0.4814221
0.09689941 0.03502732 -0.12293687 -0.5009808 -0.068863764 -0.0036452257 -0.008976322 -0.12743568
-0.045425568 -0.1308116 0.15798758 0.26567498 -0.042133596 -0.17921764 0.060976613 -0.13244757
0.013358905 -0.079448804 -0.019366687 0.14469787 -0.26660052 -0.029916653 0.070294626 -0.0933768
-0.32270604 -0.027660124 -0.23135711 -0.03708882 -0.003936328 0.0034213706 0.06562339 0.35612455
-0.09229098 -0.23134264 -0.3848117 0.0082865525 0.01569339 0.047491305 0.23934811 0.024561789
0.18046774 -0.28323767 -0.0044803177 -0.12694332 -0.10431851 -0.38070294 -0.07601713 -0.12863372
0.17844658 0.05517354 0.14193359 -0.08263478 0.06512677 -0.040292755 -0.10340402 -0.07671747
0.0055757402 -0.017482009 0.06719239 -0.046878155 -0.089116655 0.061992053 -0.03099911 -0.020817364
-0.022707222 -0.15305124 -0.018373836 0.0852035 -0.06543512 0.03064309 -0.068062626 0.03139554
0.060347773 -0.091710225 -0.0028753672 -0.04889549 -0.015314621 -0.013423127 -0.05074408 0.052536987
0.06631846 -0.09343342 0.05821916 0.012263548 0.05863636 0.23249093 -0.10569273 -0.15716894
0.055148177 -0.0779068 0.027638813 0.23012425 -0.022865692 -0.03763799 0.05604177 -0.059096623
-0.004149156 0.021327667 -0.031818315 -0.029777244 -0.023397569 0.12473663 -0.084674485 0.04210672
-0.09510077 -0.06592486 0.17128024 0.015873142 -0.11778426 0.033019297 -0.0763938 0.14135987
0.12700143 -0.025188647 -0.06695752 0.03801061 0.022424348 -0.06560416 -0.049421746 -0.04753162
-0.05227584 0.03306553 0.07494641 0.054825645 0.13239175 -0.0979525 -0.025510326 0.016371956
-0.025316386 -0.093320265 0.058869984 -0.01929316 0.060387917 0.044674043 0.020030007 0.031365916
-1.2707841 -0.07373897 0.12664948 0.7663839 0.12452221 0.12174652 0.4557976 -0.64054906
-0.22986734 -0.17849754 0.9565474 -0.40028554 -0.2117204 0.14342397 1.5292472 -0.16210762
0.5958076 -0.2413515 0.68866134 -0.030066947 0.76750165 -0.89345455 -1.2448611 0.6337707
1.100478 0.66576797 -0.47646448 0.3667924 -0.38253456 0.18225765 -0.043420978 1.5009928
-0.88110244 0.0712031 -0.22726691 1.3191054 0.18066333 0.120029524 0.12718214 -0.11619661
-0.146426 0.4216945 -0.930103 -1.5533055 1.2093122 1.4739399 0.49593782 0.35449538
0.47554988 -1.1574475 -0.97723454 -0.14288571 1.9859277 0.014984495 1.5203146 -1.1986718
1.5524148 0.09268081 0.27311185 -0.6107029 0.7553977 -0.2941241 0.15746662 -1.2666862
-0.71026444 0.60452104 1.4392322 0.47038674 -0.30702302 0.53775257 -1.0743 -1.2760487
-0.09641163 1.9497434 -0.06467445 0.7871804 -0.5608367 2.069627 0.14842063 1.4849757
-1.1523476 1.0456477 0.42637217 -0.27934086 -0.21116754 -0.048592843 0.112079605 0.1304837
00000000: 16ef c73d 5565 0f3e 0935 9abe 1a5a 80bd
00000010: 435b 41bc fd43 44bd dfcd b9bd d902 7e3e
00000020: b680 dd3d c1cc 1d3e 3f52 08be 23bc 843a
00000030: f777 fd3e 000a 89be b724 c6be ad83 a9bd
00000040: 232b 82be a44d 9d3e 979d e53e 6cbf 90bd
00000050: 65ee 1c3e eac0 a23e c1a6 fa3d 5a58 96bc
00000060: fd79 61be 2b2d 3abd cd3d e7bd 29ab 45bd
00000070: e248 fc3c 31b9 063d 06ff 633e f57c f6be
00000080: 3373 c63d cf78 0f3d 53c6 fbbd 4740 00bf
00000090: 7208 8dbd bde4 6ebb 6c11 13bc 807e 02be
000000a0: 2910 3abd 7af3 05be 7fc7 213e 8d06 883e
000000b0: 4794 2cbd d484 37be 9dc2 793d 56a0 07be
000000c0: 4fdf 5a3c 0eb6 a2bd e3a6 9ebc ae2b 143e
000000d0: dd7f 88be c513 f5bc a1f6 8f3d 563c bfbd
000000e0: ba39 a5be 7c97 e2bc e1e8 6cbe 72ea 17bd
000000f0: 50fc 80bb 1339 603b 8e65 863d f555 b63e
00000100: 0e03 bdbd 16e5 6cbe 0a06 c5be 52c4 073c
00000110: 6d8f 803c 3e86 423d ac17 753e ce35 c93c
00000120: 89cc 383e 8704 91be a1cf 92bb 6efd 01be
00000130: f1a4 d5bd 7feb c2be deae 9bbd 8fb8 03be
00000140: b3ba 363e a6fd 613d 0a57 113e 6c3c a9bd
00000150: 2f61 853d 040a 25bd 7dc5 d3bd 0d1e 9dbd
00000160: b3b4 b63b 6e36 8fbc 2a9c 893d 4f03 40bd
00000170: cb82 b6bd 61eb 7d3d d8f1 fdbc 2d89 aabc
00000180: 7f04 babc 77b9 1cbe ba84 96bc 2c7f ae3d
00000190: d902 86bd 3807 fb3c 6b64 8bbd 9c98 003d
000001a0: 3a2f 773d 92d2 bbbd a870 3cbb a346 48bd
000001b0: 2dea 7abc adec 5bbc 06d9 4fbd 0631 573d
000001c0: f9d1 873d 055a bfbd 3777 6e3d 0ced 483c
000001d0: ae2c 703d 1a12 6e3e 6e75 d8bd e5f0 20be
000001e0: 0ee3 613d 9a8d 9fbd cb6a e23c b1a5 6b3e
000001f0: d550 bbbc 4b2a 1abd 0e8c 653d 4d0f 72bd
00000200: a5f5 87bb 5cb7 ae3c ec53 02bd 68ef f3bc
00000210: 42ac bfbc eb75 ff3d d169 adbd 1978 2c3d
00000220: 31c4 c2bd 9d03 87bd 1664 2f3e 6408 823c
00000230: e038 f1bd 3e3f 073d 5a74 9cbd a4c0 103e
00000240: aa0c 023e 6c58 cebc 0621 89bd 03b1 1b3d
00000250: 44b3 b73c 795b 86bd 756e 4abd 84b0 42bd
00000260: 311f 56bd b96f 073d 817d 993d db90 603d
00000270: b491 073e 529b c8bd 08fb d0bc 7b1e 863c
00000280: 4f64 cfbc b21e bfbd a721 713d b00c 9ebc
00000290: 5259 773d 21fc 363d f815 a43c 8c79 003d
000002a0: 0ea9 a2bf 7504 97bd 67b0 013e bc31 443f
000002b0: 8005 ff3d 3d56 f93d 4e5e e93e 06fb 23bf
000002c0: 5862 6bbe 0fc8 36be 4ae0 743f 3af2 ccbe
000002d0: 3ccd 58be bcdd 123e 5fbe c33f 8aff 25be
000002e0: d986 183f d924 77be 1c4c 303f f54e f6bc
000002f0: fd7a 443f 70b9 64bf 9c57 9fbf cc3e 223f
00000300: 77dc 8c3f c56f 2a3f 27f3 f3be 37cc bb3e
00000310: 92db c3be c0a1 3a3e 32da 31bd 8820 c03f
00000320: ee8f 61bf eed2 913d a8b8 68be 72d8 a83f
00000330: cfff 383e 0ad2 f53d 093c 023e 7df8 edbd
00000340: b3f0 15be 57e8 d73e 3b1b 6ebf b7d2 c6bf
00000350: beca 9a3f 10aa bc3f 90eb fd3e 6b80 b53e
00000360: 467b f33e 3d27 94bf 0b2c 7abf a250 12be
00000370: e132 fe3f 8781 753c ab99 c23f 146e 99bf
00000380: 87b5 c63f 70cf bd3d 51d5 8b3e 0657 1cbf
00000390: be61 413f 6f97 96be ee3e 213e c622 a2bf
000003a0: e4d3 35bf e4c1 1a3f c338 b83f 88d6 f03e
000003b0: 1f32 9dbe 27aa 093f aa82 89bf 9055 a3bf
000003c0: 7673 c5bd 3191 f93f 0a74 84bd a884 493f
000003d0: fe92 0fbf c574 0440 94fb 173e af13 be3f
000003e0: 2080 93bf c9d7 853f 744d da3e c405 8fbe
000003f0: 4e3c 58be 4a09 47bd fe89 e53d 859d 053e

32 f4 [8]
0.45661753 -0.5198809 -0.8191196 -0.10496924 -0.26648778 -0.45376015 -0.110900685 -0.2573047
00000000: c6c9 e93e ea16 05bf d2b1 51bf 1dfa d6bd
00000010: 1671 88be 4053 e8be e61f e3bd 71bd 83be

34 f4 [14, 8, 3, 1]
0.4939064 1.006746 1.6806082 -0.9064702 1.1816434 0.7182138 -1.4253348 -2.0371258
-2.315992 -0.57279605 -0.81237674 -1.3582157 0.2250088 0.4044084 0.51940376 0.34831962
1.2097105 1.5442673 -0.8993078 0.16684529 0.05576584 0.028494801 0.49901062 0.7368009
0.41107428 0.33621117 2.1370173 0.39406043 0.8494466 0.90310645 -2.1835804 -0.76353943
-3.0087497 -0.5332861 -0.22183779 -1.1346614 0.015193873 0.22892964 0.084639 0.5995716
1.0094227 1.4954708 0.0028044672 -0.58774394 0.17513287 -0.002568673 0.15412049 0.7658788
0.5436887 1.8196344 4.4667196 2.6383288 0.113597356 1.1615458 2.5960007 -0.96766144
-4.1005797 -0.24091107 -0.40845072 -2.128581 0.15620081 0.9982396 0.49756625 0.73617834
1.6284713 2.4074254 -0.8375209 0.8773282 2.5908408 0.5612526 0.6739283 2.0400653
0.9358036 1.6346966 4.1529255 0.85503936 2.018515 3.917167 0.028763171 -0.47707388
-2.0836034 -0.7226812 -0.68689823 -1.9890229 0.80899954 -0.37140867 1.0034617 0.14755674
1.4258108 2.394947 -0.057795424 0.050374325 0.36509988 0.80918884 0.9699135 1.5020461
-1.564701 0.67148674 3.6479154 -2.703304 -2.1567616 5.396192 1.130693 -1.1789254
-2.4530237 0.72246057 -0.10752481 -1.9619777 0.3924967 0.5256846 0.46837425 -0.23218672
1.6371086 2.8432574 0.28983146 1.0355104 4.076837 0.0399819 0.77461064 1.6155748
-0.20548557 0.08303936 2.9178753 -0.7923873 -0.4038424 0.88220817 -2.2855206 -0.2375943
-3.1399229 -0.4813935 -0.0017873677 -0.7831788 0.17576945 0.23679712 0.16982205 0.47813052
1.0699728 2.4381938 -0.9204977 -0.06962842 2.5853245 -0.27977437 0.14076409 1.3043213
-0.41545132 -0.2839952 4.1168175 0.8659993 0.16188364 2.079409 -0.8278182 -0.08101797
-4.2192507 -0.7762854 -0.78275096 -2.094224 0.26835203 -0.2656411 0.3794892 0.47169214
1.4265019 3.1434956 -0.0696374 -0.43404058 1.9087707 -0.024833245 0.30525497 1.3562524
-2.198461 -0.6394714 2.3252275 -1.9609567 0.40124258 6.431387 0.40387407 2.6171236
-3.4356349 0.22509462 -0.27057827 -5.2382703 0.3506343 1.0479139 1.6093446 -0.5878567
-0.5956427 5.430793 0.013111478 -1.1674135 2.0843592 -1.0735596 -0.71361864 -0.38424113
-0.45133433 -0.46332216 4.2466273 -1.1270994 3.63066 1.0418097 -1.5551596 3.892357
-5.9989133 0.21086441 0.17383794 -1.9081144 0.1990398 0.38781205 0.18758796 0.9421306
0.938607 3.669682 0.58731157 0.8077235 2.8291698 0.20760837 0.7149031 1.5691538
-2.0328295 -1.3027803 5.76994 9.699498 -1.3856571 1.1680001 1.5322185 4.60945
-7.852814 0.11139298 -0.5106797 -2.5996864 -0.2510173 1.2002096 0.44164884 -0.5964957
1.2533797 3.6025634 -2.6401255 -0.44510686 3.2775426 0.084772065 0.5244514 1.0041527
-3.2132154 -0.9622338 8.59718 -1.2937721 0.4504359 3.5511253 6.875225 1.1870979
-9.756727 0.6377434 -1.0484123 -4.2911587 0.66849583 1.7620717 1.9903603 -3.5257437
00000000: 4de1 fc3e 0edd 803f 2b1e d73f 6e0e 68bf
00000010: 1740 973f dcdc 373f 5f71 b6bf 4560 02c0
00000020: 3739 14c0 c3a2 12bf ecf7 4fbf 03da adbf
00000030: b568 663e 9e0e cf3e a5f7 043f f356 b23e
00000040: cbd7 9a3f 8daa c53f 0939 66bf 7ed9 2a3e
00000050: b96a 643d ee6d e93c 527e ff3e fc9e 3c3f
00000060: 5478 d23e df23 ac3e e4c4 0840 4ac2 c93e
00000070: 5575 593f fc31 673f c8bf 0bc0 5277 43bf
00000080: 5b8f 40c0 7085 08bf 7229 63be 963c 91bf
00000090: b9ef 783c 886c 6a3e 3657 ad3d 867d 193f
000000a0: c334 813f 966b bf3f 27cb 373b 6376 16bf
000000b0: 0856 333e 2f57 28bb c3d1 1d3e a210 443f
000000c0: 2f2f 0b3f c8e9 e83f 5eef 8e40 61da 2840
000000d0: bba5 e83d 88ad 943f e024 2640 a9b8 77bf
000000e0: f337 83c0 64b1 76be 7420 d1be ac3a 08c0
000000f0: 1bf3 1f3e a18c 7f3f 01c1 fe3e 2f76 3c3f
00000100: bf71 d03f 4213 1a40 c567 56bf 9598 603f
00000110: 56d0 2540 40ae 0f3f 9186 2c3f 6e90 0240
00000120: d390 6f3f bd3d d13f c4e4 8440 dce3 5a3f
00000130: 5a2f 0140 ddb2 7a40 bea0 eb3c 0743 f4be
00000140: c259 05c0 a301 39bf 90d8 2fbf 4d98 febf
00000150: 981a 4f3f 4729 bebe 6f71 803f 1d19 173e
00000160: f880 b63f d046 1940 e5ba 6cbd 4f55 4e3d
00000170: 5fee ba3e 0027 4f3f 404c 783f 0c43 c03f
00000180: 1f48 c8bf 8ee6 2b3f 7277 6940 ef02 2dc0
00000190: 6208 0ac0 9bad ac40 8cba 903f 07e7 96bf
000001a0: 57fe 1cc0 2df3 383f f835 dcbd 1622 fbbf
000001b0: 54f5 c83e 4493 063f c0ce ef3e 5bc2 6dbe
000001c0: c68c d13f eef7 3540 ca64 943e 9b8b 843f
000001d0: 7375 8240 10c4 233d e24c 463f 28cb ce3f
000001e0: cf6a 52be 8a10 aa3d 78be 3a40 e5d9 4abf
000001f0: 6ec4 cebe 65d8 613f f845 12c0 ec4b 73be
00000200: 7ff4 48c0 3579 f6be 1c46 eaba 687e 48bf
00000210: e8fc 333e f27a 723e d5e5 2d3e 86cd f43e
00000220: def4 883f 5e0b 1c40 bda5 6bbf 5899 8ebd
00000230: f575 2540 963e 8fbe 7624 103e 00f4 a63f
00000240: 09b6 d4be d267 91be f8bc 8340 21b2 5d3f
00000250: d3c4 253e 0915 0540 e5eb 53bf c0ec a5bd
00000260: 1a04 87c0 a4ba 46bf 5e62 48bf c407 06c0
00000270: 7065 893e 1c02 88be 694c c23e a281 f13e
00000280: 9d97 b63f 082f 4940 0e9e 8ebd 913a debe
00000290: 9952 f43f 176f cbbc 614a 9c3e ae99 ad3f
000002a0: 96b3 0cc0 66b4 23bf 87d0 1440 a100 fbbf
000002b0: ab6f cd3e eccd cd40 95c8 ce3e f47e 2740
000002c0: 71e1 5bc0 347f 663e 3c89 8abe e99f a7c0
000002d0: 5786 b33e 0b22 863f 01ff cd3f c77d 16bf
000002e0: 0a7c 18bf 0ec9 ad40 86d1 563c ce6d 95bf
000002f0: 2466 0540 676a 89bf b6af 36bf 41bb c4be
00000300: 4b15 e7be 9038 edbe 5fe4 8740 cb44 90bf
00000310: bc5c 6840 055a 853f 780f c7bf 611c 7940
00000320: 19f7 bfc0 d7ec 573e 9302 323e 183d f4bf
00000330: 17d1 4b3e 4d8f c63e 0f17 403e 792f 713f
00000340: 8c48 703f 12dc 6a40 0d5a 163f f8c6 4e3f
00000350: 1e11 3540 4a97 543e e403 373f 08da c83f
00000360: e119 02c0 81c1 a6bf 59a3 b840 2531 1b41
00000370: 365d b1bf 0781 953f bc1f c43f 9d80 9340
00000380: 414a fbc0 0122 e43d e8bb 02bf 4361 26c0
00000390: 5785 80be 78a0 993f cc1f e23e f1b3 18bf
000003a0: bf6e a03f 6690 6640 d1f7 28c0 0ce5 e3be
000003b0: 42c3 5140 fa9c ad3d 7242 063f 1388 803f
000003c0: 52a5 4dc0 f454 76bf 0d8e 0941 539a a5bf
000003d0: 899f e63e a345 6340 d801 dc40 d3f2 973f
000003e0: 8e1b 1cc1 2743 233f 6032 86bf 2c51 89c0
000003f0: 8b22 2b3f 918b e13f 20c4 fe3f c9a5 61c0

35 f4 [14]
-0.24486494 -0.16198277 -5.7104006 -5.329395 -2.869134 -0.7306652 -1.0870292 2.5039535
-3.1174526 -1.4672132 -3.1536837 -1.3621078 -1.8468705 -1.1958536
00000000: e0bd 7abe d0de 25be 9abb b6c0 678a aac0
00000010: e49f 37c0 e00c 3bbf c623 8bbf c640 2040
00000020: 5884 47c0 a4cd bbbf f4d5 49c0 8c59 aebf
00000030: 4166 ecbf bb11 99bf
