model/model_FD002.pth (torch, 25023 bytes, 14 tensors)

cnn_layers.0.weight f4 [8, 1, 4, 21]
0.053833168 0.113314986 -0.09520015 -0.0786018 0.002082282 -0.038942687 -0.077269815 0.21006636
-0.033738572 -0.05502214 0.01692583 0.06346049 0.041064814 -0.100127585 -0.052510418 0.13218063
-0.07146994 0.1324805 -0.03283919 -0.073293716 -0.008766874 0.19087729 -0.04056196 -0.30592987
-0.07030789 -0.22379003 -0.21635553 -0.24881047 -0.1433025 -0.05449608 0.45390365 -0.23093656
-0.18127862 -0.025836233 -0.081729695 -0.28116545 0.3866296 -0.13631207 -0.096909575 -0.15689282
-0.3155418 -0.21719094 0.15613943 -0.045876186 -0.045998327 -0.05463736 0.06085173 -0.0021292446
0.09127794 0.15010118 -0.0546949 0.022581767 -0.19085999 0.10155274 0.018773941 -0.06372918
-0.092807144 -0.069070935 -0.064497374 0.1271667 0.054361623 -0.04776479 0.12819245 0.10487156
0.13372286 -0.049691677 -0.18318 0.039796017 0.012993183 0.018697068 0.13110898 -0.03554227
0.09076789 -0.14203623 -0.0970516 0.001272136 -0.090810254 -0.22053507 -0.016844973 -0.14037313
0.027291872 -0.036571953 -0.06339855 0.020376835 0.027800398 -0.067903765 -0.0043731374 -0.057990853
-0.04170549 0.041258898 0.052252054 0.10763956 0.094435036 0.03993114 -0.17596878 -0.052362673
-0.10734538 0.015318977 -0.06842093 -0.038836878 -0.017089343 0.008374245 0.037402354 -0.0099500865
0.025820948 0.20190108 -0.07007247 0.0039278045 -0.07380492 -0.1037522 -0.074421 0.0741491
0.07864775 0.06076645 0.12086791 -0.19753066 -0.045351245 -0.091919586 -0.13532552 -0.1703909
-0.016563114 -0.039901238 0.10003937 0.049560796 -0.010546674 -0.019041581 0.13167961 0.022441834
0.019046042 -0.14550635 0.04860272 -0.016396169 -0.09230097 0.03866827 -0.0052462462 0.15980044
-0.15024315 -0.0250505 0.050602924 -0.092874356 -0.25607625 -0.07971133 -0.09096831 0.10414482
0.072849646 -0.026493376 0.014567259 0.089424156 0.041854408 -0.0059873983 -0.025734484 -0.13544182
0.039762355 0.010915052 0.0697885 0.027691701 0.14567089 -0.2664797 0.027363874 0.0009055668
-0.15336387 -0.23283148 -0.05032445 -0.010625444 0.09929357 -0.08933165 -0.031143948 -0.0693635
-0.061168224 0.06179231 -0.026668338 0.07534963 0.09792763 -0.064886816 -0.087246396 -0.062217347
-0.1140073 -0.073559955 0.15684775 0.066048354 0.043441765 0.17238176 0.18104744 -0.005229183
0.033901956 -0.11350859 0.028450526 0.027327403 0.06884689 -0.07919573 0.026701994 0.0149828065
0.015709404 -0.011078656 0.08330093 0.0034159245 0.027011547 -0.031965513 -0.13050453 0.10278003
-0.003188169 0.011325312 0.15008786 0.18431863 -0.0009937262 0.11116296 -0.1324439 -0.029583124
-0.06430509 0.06288182 -0.17113231 0.07991602 0.0138629535 0.10219865 -0.022222104 0.0013413135
0.14557835 -0.07392018 -0.02437205 -0.15299655 0.1266205 0.064957306 -0.07867582 0.1885275
0.22493559 0.03746724 0.14430606 -0.06587427 0.029106421 -0.04476963 -0.047625028 -0.030956892
-0.052796096 0.111702755 0.27929333 -0.0327781 0.028827963 -0.1079393 0.0077492306 -0.05444416
0.056557033 0.24396531 -0.052318685 -0.15438999 0.15334468 0.26752812 0.020365432 0.07404232
0.03645652 -0.1574962 -0.10814143 0.013604867 -0.11743746 -0.12247097 0.088367164 -0.02295859
00000000: 2b80 5c3d b011 e83d 4cf8 c2bd fbf9 a0bd
00000010: e576 083b 5e82 1fbd a33f 9ebd a31b 573e
00000020: 7531 0abd e55e 61bd 0aa8 8a3c 93f7 813d
00000030: 9433 283d b10f cdbd 2a15 57bd 5c5a 073e
00000040: d55e 92bd f8a8 073e 6382 06bd 041b 96bd
00000050: efa2 0fbc 5675 433e 4c24 26bd d7a2 9cbe
00000060: 95fd 8fbd 3729 65be 4e8c 5dbe 2cc8 7ebe
00000070: e4bd 12be 4837 5fbd 0f66 e83e a27a 6cbe
00000080: 1aa1 39be 82a6 d3bc e661 a7bd ebf4 8fbe
00000090: 51f4 c53e 6495 0bbe 8778 c6bd 83a8 20be
000000a0: b28e a1be 4d67 5ebe 04e3 1f3e abe8 3bbd
000000b0: be68 3cbd 6dcb 5fbd aa3f 793d cc8a 0bbb
000000c0: eeef ba3d 20b4 193e c207 60bd 66fd b83c
000000d0: cd70 43be e2fa cf3d cfcb 993c 7284 82bd
000000e0: ac11 bebd 1075 8dbd 3317 84bd fd37 023e
000000f0: 4baa 5e3d 03a5 43bd e244 033e e7c6 d63d
00000100: a5ee 083e 8089 4bbd 8a93 3bbe 2601 233d
00000110: 5ce1 543c 982a 993c 6f41 063e c594 11bd
00000120: 84e4 b93d f271 11be fdc2 c6bd cdbd a63a
00000130: bafa b9bd f2d3 61be 78fe 89bc f9bd 0fbe
00000140: 3493 df3c 79cc 15bd 19d7 81bd 52ed a63c
00000150: a9bd e33c 2111 8bbd 894c 8fbb d187 6dbd
00000160: 60d3 2abd 17ff 283d 4006 563d 2172 dc3d
00000170: 2867 c13d d68e 233d 2931 34be 3e7a 56bd
00000180: e5d7 dbbd 72fc 7a3c 4620 8cbd 6b13 1fbd
00000190: f3fe 8bbc 2134 093c 3633 193d b005 23bc
000001a0: 7486 d33c 28bf 4e3e 2882 8fbd d0b4 803b
000001b0: 0927 97bd 097c d4bd 0a6a 98bd 7cdb 973d
000001c0: 1212 a13d 3ee6 783d 9889 f73d 7a45 4abe
000001d0: 3ac2 39bd 5640 bcbd c692 0abe f47a 2ebe
000001e0: 5eaf 87bc 7b6f 23bd 71e1 cc3d 4300 4b3d
000001f0: f5cb 2cbc 17fd 9bbc 05d7 063e f0d7 b73c
00000200: 7206 9c3c 9eff 14be a513 473d 4251 86bc
00000210: 4a08 bdbd 9f62 1e3d b4e8 abbb baa2 233e
00000220: 57d9 19be b536 cdbc 0345 4f3d e934 bebd
00000230: 6d1c 83be b23f a3bd 984d babd e149 d53d
00000240: 3232 953d a308 d9bc 83ab 6e3c 0324 b73d
00000250: 876f 2b3d f031 c4bb 20d1 d2bc 43b1 0abe
00000260: dadd 223d 0cd5 323c 46ed 8e3d b5d9 e23c
00000270: c02a 153e 0770 88be 342a e03c 8f63 6d3a
00000280: 6b0b 1dbe 606b 6ebe 0321 4ebd 5816 2ebc
00000290: 6d5a cb3d 83f3 b6bd 9821 ffbc 730e 8ebd
000002a0: 888b 7abd ef19 7d3d 8f77 dabc e850 9a3d
000002b0: 488e c83d 61e3 84bd 3dae b2bd 9ed7 7ebd
000002c0: a97c e9bd 9aa6 96bd b29c 203e 5c44 873d
000002d0: feef 313d d884 303e 8064 393e 9159 abbb
000002e0: c7dc 0a3d 3177 e8bd 1411 e93c b8dd df3c
000002f0: 99ff 8c3d 5f31 a2bd 24be da3c 727a 753c
00000300: 02b1 803c 4083 35bc ae99 aa3d b4dd 5f3b
00000310: 5247 dd3c 45ee 02bd fba2 05be 567e d23d
00000320: 9af0 50bb cd8d 393c a2b0 193e 06be 3c3e
00000330: eb3f 82ba 68a9 e33d 609f 07be 4f58 f2bc
00000340: 63b2 83bd 2fc8 803d 4f3d 2fbe 03ab a33d
00000350: 7121 633c 874d d13d 210b b6bc 03cf af3a
00000360: 7e12 153e 7763 97bd e5a7 c7bc 21ab 1cbe
00000370: cea8 013e 5608 853d ca20 a1bd 5a0d 413e
00000380: 8455 663e 4077 193d f8c4 133e 17e9 86bd
00000390: 9770 ee3c 5c60 37bd 7612 43bd 4f99 fdbc
000003a0: b840 58bd 6ac4 e43d 89ff 8e3e 5442 06bd
000003b0: 9f28 ec3c 480f ddbd 42ed fd3b d700 5fbd
000003c0: 59a8 673d 0bd2 793e 1e4c 56bd 6918 1ebe
000003d0: 6306 1d3e 72f9 883e 68d5 a63c 80a3 973d
000003e0: 6f53 153d af46 21be 4179 ddbd f3e6 5e3c
000003f0: 0d83 f0bd 0fd2 fabd d8f9 b43d a713 bcbc

cnn_layers.0.bias f4 [8]
0.14373258 0.10525361 -0.15396242 0.05375426 0.17302918 -0.24909593 -0.26706165 0.10302906
00000000: a22e 133e 348f d73d 53a8 1dbe 6d2d 5c3d
00000010: 902e 313e 0113 7fbe 4ebc 88be e600 d33d

cnn_layers.1.weight f4 [8]
1.0673227 1.0941762 0.94750893 0.9774356 0.9599809 1.2480832 0.9708169 0.87744856
00000000: 089e 883f f70d 8c3f f28f 723f 3839 7a3f
00000010: 4fc1 753f 31c1 9f3f 7587 783f 78a0 603f

cnn_layers.1.bias f4 [8]
-0.1596787 0.07304913 -0.14739636 0.11001076 -0.4204651 0.023899358 0.019905156 -0.11064302
00000000: d082 23be c89a 953d 12ef 16be 524d e13d
00000010: 3447 d7be 96c8 c33c 2310 a33c cf98 e2bd

cnn_layers.1.running_mean f4 [8]
0.12282373 0.105916575 -0.14263892 0.043684356 0.16740687 -0.244757 -0.26170477 0.09143977
00000000: 028b fb3d caea d83d f00f 12be 5eee 323d
00000010: b56c 2b3e 94a1 7abe 2bfe 85be c644 bb3d

cnn_layers.1.running_var f4 [8]
2.0520902 0.05578034 0.054305047 0.34110752 0.01445906 1.9631999 0.4095989 0.4561413
00000000: 7255 0340 ed79 643d f86e 5e3d a5a5 ae3e
00000010: b1e5 6c3c 224a fb3f f2b6 d13e 5a8b e93e

cnn_layers.4.weight f4 [14, 8, 3, 1]
-0.33798644 -0.036659453 -0.35200453 0.31949127 0.25759012 0.43189633 0.19830018 0.10892684
0.17040248 0.24653015 -0.074012265 0.21241124 -0.08819532 -0.1525585 0.65550363 0.0921979
0.012790479 0.08673217 -0.085976176 -0.06874311 -0.24807666 -0.13260524 -0.10145071 0.0512082
0.17398867 -0.15324615 0.1293707 -0.036622964 0.2955503 0.19792464 -0.036643837 -0.004482719
-0.11493957 0.013866695 -0.19124831 -0.19835179 0.11192665 -0.17268714 -0.0678568 0.017903699
-0.29805103 -0.3522822 0.04622936 0.1708831 0.29942843 -0.25216982 0.24110729 0.010739766
0.3157073 0.4007565 0.2858581 0.13348566 0.048162542 0.25577426 -0.12273476 0.03633446
-0.19610846 0.062011633 -0.033071708 -0.19267541 0.09323164 -0.024130419 -0.079746425 0.1450859
-0.17671497 0.40856698 0.03504471 -0.15133019 -0.09862288 0.193789 -0.092797965 -0.13368064
0.02172973 0.15131241 0.28255782 -0.068972945 -0.03504828 0.054708816 0.19260235 0.0041024983
-0.20991199 -0.22768658 -0.16620137 -0.5367402 0.064102665 0.032156434 -0.1622451 0.009893944
0.20122209 -0.12778668 0.17060444 -0.117559865 0.14966662 0.10741929 -0.008777443 0.13505135
0.082046114 -0.11859436 -0.4223154 0.01978099 0.11678413 0.14742443 0.018824527 -0.038424097
0.2573289 -0.17784385 0.016031241 0.43608776 -0.21800026 -0.19838382 0.548147 0.16348839
0.10580714 -0.002630945 0.019129634 0.066589326 -0.31211713 0.035182353 0.0043622637 -0.13049674
-0.1281842 -0.19040067 0.26347828 0.046823308 0.06511079 0.006562014 -0.17366406 -0.16846986
-0.17472808 -0.03629165 0.028221961 0.088532776 0.2018156 0.0075718663 -0.32994106 -0.037758432
-0.25253612 -0.23333469 0.016380034 -0.08958077 0.16441788 0.08937188 -0.10674672 0.109767735
-0.08329285 -0.1263073 -0.28698227 -0.13575971 0.17683229 0.15951407 0.038363323 0.26222318
0.13220659 -0.07222397 -0.03962349 0.22410363 0.016119223 -0.18457173 0.47685206 0.055545732
0.05909697 0.12506083 0.11821326 0.089026764 -0.27578053 0.116059735 -0.112446874 -0.25807863
-0.34711382 0.20168836 0.19933593 -0.25124735 -0.41114277 0.1359837 -0.017065398 -0.026301643
-0.07434221 0.2544842 -0.06487257 -0.09361096 0.16641489 0.19511761 -0.46426764 -0.10160807
0.098605946 0.1151734 -0.11718362 0.164049 0.22994043 -0.105045035 0.03612899 0.21654579
-0.08493861 0.02641443 -0.27319926 -0.05334246 -0.48403737 -0.77857375 0.06262799 0.019725975
0.30532557 -0.1906809 -0.4171101 0.18490325 -0.03764871 -0.17824376 0.27757713 0.03877922
0.09047242 0.007663427 -0.017273843 0.025595704 -0.035127316 0.0054477146 -0.12637447 0.31129044
0.21470605 -0.30616775 0.069578975 -0.27096075 -0.17639837 -0.19613272 -0.16089047 -0.13923258
-0.14986454 -0.11257866 -0.1227951 0.26562268 -0.07725824 -0.0788464 -0.2356933 -0.0051840697
0.24066488 -0.4278839 -0.2799797 0.09616261 -0.075338334 -0.009487876 0.22126171 0.06341325
-0.119413756 -0.017189626 0.031776454 0.27891037 0.21472366 0.32596216 0.12243214 0.060698308
0.2552207 0.22154562 -0.052952543 0.16691709 -0.026905132 -0.1714795 0.6190455 -0.20773868
00000000: 8f0c adbe 3928 16bd f039 b4be 5c94 a33e
00000010: dae2 833e 8421 dd3e 340f 4b3e 0915 df3d
00000020: fd7d 2e3e 6672 7c3e be93 97bd 5582 593e
00000030: bf9f b4bd 4c38 1cbe 16cf 273f 41d2 bc3d
00000040: 288f 513c a3a0 b13d 4714 b0bd 30c9 8cbd
00000050: cf07 7ebe abc9 07be 64c5 cfbd b1bf 513d
00000060: 162a 323e 8fec 1cbe c179 043e f601 16bd
00000070: 5e52 973e c2ac 4a3e d917 16bd c6e3 92bb
00000080: 7065 ebbd 2231 633c 99d6 43be bb1c 4bbe
00000090: cd39 e53d e6d4 30be 82f8 8abd c7aa 923c
000000a0: 259a 98be 555e b4be ff5a 3d3d fbfb 2e3e
000000b0: af4e 993e 671c 81be d4e4 763e d8f5 2f3c
000000c0: 63a4 a13e f52f cd3e fe5b 923e 77b0 083e
000000d0: 1646 453d d8f4 823e 5d5c fbbd 71d3 143d
000000e0: a8d0 48be e9ff 7d3d 3376 07bd b44c 45be
000000f0: 3bf0 be3d 28ad c5bc 1852 a3bd 6691 143e
00000100: c5f4 34be b12f d13e 0b8b 0f3d 4df6 1abe
00000110: cbfa c9bd a070 463e dc0c bebd 94e3 08be
00000120: 8c02 b23c a4f1 1a3e 6bab 903e b041 8dbd
00000130: c98e 0fbd 5a16 603d 8d39 453e 406e 863b
00000140: 2bf3 56be ac26 69be b130 2abe ce67 09bf
00000150: 4248 833d 77b6 033d 9423 26be 351a 223c
00000160: 2a0d 4e3e 83da 02be eeb2 2e3e 3ac3 f0bd
00000170: 3542 193e a5fe db3d 44cf 0fbc e74a 0a3e
00000180: cb07 a83d 9ae1 f2bd b939 d8be be0b a23c
00000190: 852c ef3d 6ef6 163e e535 9a3c 9662 1dbd
000001a0: 9dc0 833e b31c 36be f353 833c e546 df3e
000001b0: 763b 5fbe 2125 4bbe 5d53 0c3f 8069 273e
000001c0: 6ab1 d83d ef6b 2cbb c0b5 9c3c fc5f 883d
000001d0: d1cd 9fbe 5f1b 103d 52f1 8e3b f0a0 05be
000001e0: b842 03be 65f8 42be a0e6 863e ccc9 3f3d
000001f0: ce58 853d 2a06 d73b fed4 31be 5d83 2cbe
00000200: ebeb 32be 8ea6 14bd be31 e73c ac50 b53d
00000210: c0a8 4e3e 6b1d f83b 09ee a8be 96a8 1abd
00000220: 6a4c 81be 4aef 6ebe 6c2f 863c 1f76 b7bd
00000230: 295d 283e 9b08 b73d 069e dabd e8cd e03d
00000240: 7195 aabd b356 01be 57ef 92be 9804 0bbe
00000250: 8613 353e a857 233e dc22 1d3d 1e42 863e
00000260: 2a61 073e 29ea 93bd 3e4c 22bd 6c7b 653e
00000270: 760c 843c 5f00 3dbe f425 f43e ec83 633d
00000280: aa0f 723d f20f 003e cb19 f23d aa53 b63d
00000290: 1b33 8dbe bab0 ed3d 8c4a e6bd e222 84be
000002a0: e7b8 b1be 6587 4e3e b81e 4c3e 7ea3 80be
000002b0: 4e81 d2be 503f 0b3e bccc 8bbc 8b76 d7bc
000002c0: bb40 98bd c14b 823e e9db 84bd 1ab7 bfbd
000002d0: aa68 2a3e e9cc 473e 7db4 edbe e417 d0bd
000002e0: eaf1 c93d 08e0 eb3d f7fd efbd 76fc 273e
000002f0: 8175 6b3e da21 d7bd fefb 133d 2ebe 5d3e
00000300: 4bf4 adbd 1363 d83c c6e0 8bbe a07d 5abd
00000310: bfd3 f7be 9c50 47bf 1b43 803d 5e98 a13c
00000320: a253 9c3e db41 43be 748f d5be 4757 3d3e
00000330: 8935 1abd 8885 36be 971e 8e3e f6d6 1e3d
00000340: 9b49 b93d 7c1d fb3b e081 8dbc 15ae d13c
00000350: a9e1 0fbd be82 b23b 4f68 01be 7661 9f3e
00000360: e7db 5b3e 05c2 9cbe 6c7f 8e3d 5ebb 8abe
00000370: c6a1 34be 04d7 48be 79c0 24be fc92 0ebe
00000380: 1776 19be a48f e6bd ff7b fbbd b2ff 873e
00000390: 9139 9ebd 397a a1bd 9659 71be 21df a9bb
000003a0: db70 763e 9913 dbbe 8059 8fbe e7f0 c43d
000003b0: fc4a 9abd 0973 1bbc 6e92 623e cede 813d
000003c0: 338f f4bd 42d1 8cbc 0728 023d 57cd 8e3e
000003d0: 85e0 5b3e 83e4 a63e b4bd fa3d ca9e 783d
000003e0: 4aac 823e dbdc 623e c4e4 58bd 50ec 2a3e
000003f0: 2768 dcbc 5298 2fbe c479 1e3f 73b9 54be

cnn_layers.4.bias f4 [14]
-0.080226675 -0.025838556 -0.027260251 -0.3222154 0.19254419 -0.023341084 -0.07484908 -0.16502158
-0.19507356 0.10243438 -0.10942542 0.28755566 -0.03532177 -0.26323244
00000000: e24d a4bd 61ab d3bc e450 dfbc 6bf9 a4be
00000010: 4e2a 453e cd35 bfbc 794a 99bd 6bfb 28be
00000020: 5dc1 47be 1ec9 d13d 6f1a e0bd 7f3a 933e
00000030: 8fad 10bd 67c6 86be

cnn_layers.5.weight f4 [14]
1.7377394 1.387888 1.3782752 1.3619308 1.7116371 1.3960731 1.6628134 1.489287
1.5933728 1.4501776 1.5580342 1.43454 1.4056783 1.4699403
00000000: 3f6e de3f 50a6 b13f 526b b03f c053 ae3f
00000010: ed16 db3f 86b2 b23f 12d7 d43f f5a0 be3f
00000020: a4f3 cb3f 6b9f b93f aa6d c73f 029f b73f
00000030: 44ed b33f 0127 bc3f

cnn_layers.5.bias f4 [14]
-0.6478084 0.43663335 0.33274624 0.27173597 -0.25869802 0.4278064 -0.0044338433 0.5942866
0.373846 0.7628294 -0.33125892 0.3602581 0.3683542 0.26442835
00000000: c5d6 25bf 688e df3e b75d aa3e fa20 8b3e
00000010: 1174 84be 7109 db3e c649 91bb 2b23 183f
00000020: be68 bf3e ca48 433f c59a a9be c073 b83e
00000030: ec98 bc3e 2763 873e

cnn_layers.5.running_mean f4 [14]
0.41465443 -0.103418395 0.48737323 -0.39397222 0.4110217 -0.36273512 0.12184344 -0.19265337
-0.8364357 -0.53251594 0.3178474 0.32050842 0.10835505 -0.47370628
00000000: 964d d43e 06cd d3bd fc88 f93e bab6 c9be
00000010: 7071 d23e 6bb8 b9be 0e89 f93d ed46 45be
00000020: a620 56bf f752 08bf e5bc a23e ae19 a43e
00000030: 41e9 dd3d a189 f2be

cnn_layers.5.running_var f4 [14]
0.08670007 0.18367653 0.21665327 0.07589295 0.045065634 0.073102996 0.073156066 0.042322442
0.26258308 0.11734388 0.08691117 0.044891577 0.109707676 0.15433678
00000000: ce8f b13d b315 3c3e 5bda 5d3e c36d 9b3d
00000010: be96 383d 06b7 953d d9d2 953d 4c5a 2d3d
00000020: 4a71 863e fd51 f03d 7cfe b13d 3be0 373d
00000030: 6bae e03d 760a 1e3e

linear_layers.0.weight f4 [131, 28]
0.9565741 1.1751618 -0.44944072 -0.62003654 -0.6648809 -0.79759115 -0.44517902 -0.42448163
0.45669222 0.77444553 -0.39529726 -0.26512074 0.30466676 0.45545325 -1.0787526 -1.4298551
-0.87078685 -0.6556512 -0.96530133 -0.8192595 0.5420727 0.9792759 -0.30525428 -0.43873382
-0.48456123 -0.37137753 -0.44379216 -0.25746572 0.853824 0.94857746 -0.46998984 -0.4346318
-0.86012733 -0.6241248 -0.43574455 -0.5841051 0.55087584 0.69385296 -0.49069747 -0.53284556
0.101184025 0.6221616 -0.80117685 -1.4338626 -0.7197101 -0.48130605 -1.0756478 -0.8268286
0.6820396 0.83530223 -0.35867646 -0.4941369 -0.5099903 -0.42883813 -0.37139356 -0.2031683
0.8021359 0.9462508 -0.5624284 -0.41591012 -0.58142996 -0.6179614 -0.6176056 -0.46727931
0.41950732 0.71322733 -0.55250555 -0.20880012 0.26792443 0.4789462 -0.6455412 -1.2403218
-0.5501874 -0.4065478 -0.8386763 -0.8761755 0.5276209 0.77563125 -0.42019346 -0.39790353
-0.52441186 -0.51967114 -0.32760453 -0.08092777 0.6322721 0.84857416 -0.5127415 -0.3892089
-0.92482394 -0.5000911 -0.26388937 -0.2482654 0.3675137 0.7522297 -0.4953325 -0.38031706
0.47139642 0.49576202 -0.6995967 -1.0690935 -0.34471932 -0.35565272 -0.95881695 -0.7700903
0.31689087 0.6559274 -0.36965314 -0.5557196 -0.5374281 -0.4123009 -0.12537105 -0.21484762
0.50934356 0.74549395 -0.46924016 -0.39048633 -0.68851167 -0.38301176 -0.2552462 -0.44937685
0.43544316 0.67764926 -0.40267846 -0.4670305 0.35047737 0.5028348 -0.5517903 -1.283466
-0.35481623 -0.15301013 -0.924392 -0.92899615 0.3521424 0.50426984 -0.5003838 -0.53038037
-0.41606095 -0.5435706 -0.005596311 0.015274007 0.3790772 0.7047574 -0.29886723 -0.62234384
-0.51030594 -0.64121133 -0.22277625 -0.5015286 0.36634526 0.6471693 -0.40883747 -0.34529912
0.41808775 0.36276254 -0.50566316 -0.9541902 -0.23592253 -0.099082254 -0.7676932 -0.83570445
0.31288338 0.59852123 -0.29807 -0.36386847 -0.44315705 -0.30954048 -0.016763223 0.114910334
0.28555182 0.68727165 -0.4831885 -0.5251391 -0.4172116 -0.6710282 -0.5254688 -0.463023
0.23312674 0.60091275 -0.3000064 -0.47677174 0.5467115 0.3950409 -0.63679445 -0.7367476
-0.021159481 -0.04277284 -0.6782331 -0.7608033 0.116467565 0.584083 -0.5006466 -0.4012303
-0.45885518 -0.48467767 0.089775085 -5.485979e-05 0.27212998 0.50044274 -0.51482975 -0.600844
-0.5833462 -0.7816466 -0.32125932 -0.370547 0.11252279 0.4703283 -0.26584676 -0.37596804
0.53481036 0.5566666 -0.7213037 -0.82439095 0.007782546 0.11082 -0.7752932 -0.9174133
0.16028593 0.37591726 -0.3836055 -0.37681606 -0.4432502 -0.315925 0.12942494 0.26545608
0.18630615 0.25571936 -0.60739434 -0.36289853 -0.36202732 -0.47806022 -0.5328359 -0.58546895
0.15250972 0.43611193 -0.5100938 -0.30835634 0.4914576 0.55624235 -0.5838766 -0.69971204
-0.03392113 0.1579772 -0.44830793 -0.9010746 0.43869892 0.33473808 -0.39076072 -0.43039802
-0.36541262 -0.5017566 -0.002623937 0.48305985 0.025762958 0.1669063 -0.4602938 -0.49826047
00000000: 0ae2 743f b46b 963f 181d e6be b7ba 1ebf
00000010: a235 2abf ef2e 4cbf 81ee e3be a855 d9be
00000020: 90d3 e93e 1042 463f 6764 cabe e8bd 87be
00000030: 48fd 9b3e 2b31 e93e 9114 8abf 7e05 b7bf
00000040: e3eb 5ebf c2d8 27bf fd1d 77bf feba 51bf
00000050: 47c5 0a3f d3b1 7a3f 4a4a 9cbe b8a1 e0be
00000060: 6918 f8be 3225 bebe ba38 e3be 8cd2 83be
00000070: 3694 5a3f f9d5 723f 82a2 f0be 0f88 debe
00000080: 4e31 5cbf a5c6 1fbf e919 dfbe e987 15bf
00000090: 3306 0d3f 59a0 313f b33c fbbe 9168 08bf
000000a0: 9239 cf3d fc45 1f3f ed19 4dbf cf88 b7bf
000000b0: ec3e 38bf bf6d f6be d4ae 89bf 0aab 53bf
000000c0: 269a 2e3f 5ed6 553f 71a4 b7be 83ff fcbe
000000d0: b98e 02bf ac90 dbbe 4c27 bebe 5a0b 50be
000000e0: c758 4d3f 7e3d 723f 4ffb 0fbf 2cf2 d4be
000000f0: 98d8 14bf b832 1ebf 671b 1ebf 3c3f efbe
00000100: aac9 d63e 1196 363f 0171 0dbf b3cf 55be
00000110: 642d 893e 7038 f53e 3042 25bf ddc2 9ebf
00000120: 15d9 0cbf 0927 d0be 7db3 56bf 0a4d 60bf
00000130: 2a12 073f c58f 463f 9923 d7be 03ba cbbe
00000140: db3f 06bf 2b09 05bf c8bb a7be 75bd a5bd
00000150: 96dc 213f 283c 593f 0743 03bf 6446 c7be
00000160: 43c1 6cbf f805 00bf 821c 87be 4939 7ebe
00000170: c12a bc3e 2092 403f 399c fdbe ebb8 c2be
00000180: df5a f13e 85d4 fd3e c518 33bf 0ed8 88bf
00000190: 0d7f b0be 1d18 b6be 0775 75bf a324 45bf
000001a0: 853f a23e dcea 273f 2d43 bdbe a443 0ebf
000001b0: e394 09bf 1b19 d3be 4561 00be 0401 5cbe
000001c0: 5764 023f b1d8 3e3f 3f40 f0be d3ed c7be
000001d0: 4d42 30bf 1e1a c4be a1af 82be b914 e6be
000001e0: 68f2 de3e 6c7a 2d3f df2b cebe 9f1e efbe
000001f0: c571 b33e c8b9 003f 2142 0dbf 9d48 a4bf
00000200: 79aa b5be b0ae 1cbe f4a4 6cbf b1d2 6dbf
00000210: 024c b43e d417 013f 2719 00bf 02c7 07bf
00000220: f105 d5be 7127 0bbf 4261 b7bb d43f 7a3c
00000230: 6816 c23e fb6a 343f 2005 99be ed51 1fbf
00000240: 69a3 02bf 6d26 24bf 751f 64be 2e64 00bf
00000250: 9b91 bb3e e3ac 253f 2553 d1be 0ccb b0be
00000260: 990f d63e 03bc b93e 2473 01bf cf45 74bf
00000270: ad95 71be a3eb cabd 8b87 44bf baf0 55bf
00000280: 4032 a03e b038 193f a29c 98be f84c babe
00000290: 7be5 e2be 177c 9ebe 0753 89bc 1c56 eb3d
000002a0: d933 923e 09f1 2f3f 7c64 f7be 846f 06bf
000002b0: c29c d5be 81c8 2bbf 2085 06bf 5a11 edbe
000002c0: c7b8 6e3e 6bd5 193f 709a 99be 6d1b f4be
000002d0: 49f5 0b3f cd42 ca3e f604 23bf 7e9b 3cbf
000002e0: a656 adbc 9332 2fbd afa0 2dbf 01c4 42bf
000002f0: 8c86 ee3d 7786 153f 602a 00bf 0f6e cdbe
00000300: 11ef eabe ac27 f8be 00dc b73d 4019 66b8
00000310: 9f54 8b3e 041d 003f e2cb 03bf ead0 19bf
00000320: 2d56 15bf fe19 48bf 1a7c a4be 56b8 bdbe
00000330: 5972 e63d dfce f03e 111d 88be e27e c0be
00000340: 55e9 083f b481 0e3f 5ca7 38bf 490b 53bf
00000350: ba04 ff3b 99f5 e23d 9d79 46bf 99db 6abf
00000360: ff21 243e 3a78 c03e f167 c4be 09ee c0be
00000370: b1f1 e2be ecc0 a1be f987 043e dce9 873e
00000380: 0ac7 3e3e a6ed 823e 327e 1bbf d6cd b9be
00000390: a55b b9be 4fc4 f4be ef67 08bf 4be1 15bf
000003a0: 822b 1c3e 104a df3e 8295 02bf e2e0 9dbe
000003b0: 55a0 fb3e e665 0e3f f078 15bf 5420 33bf
000003c0: e2f0 0abd c6c4 213e 9e88 e5be d3ac 66bf
000003d0: 259d e03e ca62 ab3e ca11 c8be 215d dcbe
000003e0: 5d17 bbbe 1f73 00bf 5cf6 2bbb 9f53 f73e
000003f0: d70c d33c 7ce9 2a3e a1ab ebbe ff1b ffbe

linear_layers.0.bias f4 [131]
-0.8223699 -0.7848678 -0.94018054 -0.72591543 -0.6429543 -0.67251027 -0.6668795 -0.5685851
-0.6547091 -0.3826339 -0.64481896 -0.48565167 -0.61235183 -0.28626072 -0.31980386 -0.21591978
-0.22462103 -0.24747345 -0.2964802 -0.19439779 -0.13993458 -0.10484297 -0.07317755 -0.13450283
-0.024212109 -0.2443813 -0.023965083 0.07821065 0.15672198 0.14423202 0.15266915 0.099234015
0.13947313 0.16333044 -0.05262773 0.10767235 0.029571028 0.14956073 0.17415231 0.088570714
0.12688732 0.24066621 0.19042875 0.11055534 0.09589542 0.107844755 0.006321193 -0.021749867
0.14500514 0.11683573 0.075980105 0.09137422 -0.045739274 0.3050589 0.1490381 0.24547748
0.18907493 0.19532262 0.17691113 -0.034780473 0.21892971 0.37423515 0.31176808 0.20806943
0.49937412 0.5760796 0.39141846 0.30762094 0.76794004 0.3148486 0.62379384 0.7315268
0.17299479 0.28478342 0.2375299 0.3114741 0.3299934 0.38386136 0.077438906 0.20946701
0.108859085 0.1628585 0.35904565 0.1535396 0.07010942 0.2333656 -0.021661226 0.027509877
0.24540973 0.3178174 0.11968999 0.06046419 -0.06578706 -0.022319365 -0.20076978 0.031544957
-0.035108693 -0.047621094 -0.16357729 -0.20068021 -0.1881704 -0.098660894 -0.035950363 -0.29555595
-0.2330711 -0.32931387 -0.50690943 -0.21216258 -0.6790577 -0.70024914 -0.28468013 -0.6643915
-0.4544242 -0.61289555 -0.42282254 -0.5569758 -0.58179724 -0.34683806 -0.2678298 -0.41631907
-0.68417865 -0.6694679 -0.60322165 -0.5891377 -0.3393523 -0.67893857 -0.38239607 -0.7115216
-0.6631005 -0.72923315 0.30417567
00000000: d586 52bf 19ed 48bf acaf 70bf 98d5 39bf
00000010: a798 24bf a229 2cbf 9db8 2abf cb8e 11bf
00000020: 049b 27bf 97e8 c3be db12 25bf 56a7 f8be
00000030: 17c3 1cbf c490 92be 55bd a3be 131a 5dbe
00000040: 0e03 66be ae69 7dbe 41cc 97be 3710 47be
00000050: 034b 0fbe e9b7 d6bd 1dde 95bd 1cbb 09be
00000060: 7958 c6bc 173f 7abe 6c52 c4bc e82c a03d
00000070: ba7b 203e 8fb1 133e 4d55 1c3e 343b cb3d
00000080: 0bd2 0e3e 1840 273e 2d90 57bd 5283 dc3d
00000090: f13e f23c 7326 193e fc54 323e 9064 b53d
000000a0: c0ee 013e 3471 763e c1ff 423e d76a e23d
000000b0: d164 c43d b6dd dc3d 0322 cf3b c72c b2bc
000000c0: 3a7c 143e 9247 ef3d 759b 9b3d 6822 bb3d
000000d0: 1b59 3bbd ae30 9c3e 729d 183e 735e 7b3e
000000e0: dc9c 413e a702 483e 3128 353e f875 0ebd
000000f0: 1c2f 603e c09b bf3e 11a0 9f3e 2710 553e
00000100: f7ad ff3e f479 133f 0068 c83e 7e80 9d3e
00000110: b897 443f d633 a13e f4b0 1f3f 5745 3b3f
00000120: 8c25 313e 22cf 913e 0a3b 733e 8979 9f3e
00000130: e5f4 a83e 7a89 c43e 4a98 9e3d 857e 563e
00000140: 83f1 de3d 61c4 263e d5d4 b73e 7c39 1d3e
00000150: 8795 8f3d 64f7 6e3e e272 b1bc 655c e13c
00000160: b04c 7b3e f6b8 a23e 0720 f53d 4ca9 773d
00000170: 5ebb 86bd 1ad7 b6bc 9896 4dbe 4935 013d
00000180: 22ce 0fbd 560e 43bd ce80 27be 1d7f 4dbe
00000190: beaf 40be b90e cabd b040 13bd 1c53 97be
000001a0: 31aa 6ebe d49b a8be d1c4 01bf 2641 59be
000001b0: bad6 2dbf 8743 33bf 98c1 91be 9015 2abf
000001c0: 4aaa e8be b9e6 1cbf 327c d8be f795 0ebf
000001d0: aaf0 14bf c294 b1be fd20 89be c627 d5be
000001e0: 5526 2fbf 4062 2bbf bc6c 1abf bad1 16bf
000001f0: 96bf adbe ebce 2dbf 6bc9 c3be 4826 36bf
00000200: f4c0 29bf 06af 3abf eabc 9b3e
