model/model_FD004.pth (torch, 9983 bytes, 13 tensors)

cnn_layers.0.weight f4 [8, 1, 4, 21]
00000000: e4ed 603d b7ef 5f3c 730f 663d 33c1 df3c
00000010: 5156 1d3e 34fb 8c3c 73a1 f53d 7052 7cbe
00000020: 7838 ab3c fc9a 88be b27b b33d cd14 a93d
00000030: ae81 17be b9d6 ffbd bdc3 d9bd 9a49 4fbe
00000040: 8dd6 823d a294 12be 275c 38be c625 f83b
00000050: 2bbe c9bc abd6 2ebe ae7d 5c3d b47e b5ba
00000060: 1711 71bc 06a4 18be 76b9 d5bd bc4d d0bd
00000070: 5d4c 683e c8a9 1e3d 029d 4fbe 4b4d f33d
00000080: d79d 11be 70f0 673e 701b cd3d 33a6 1cbe
00000090: 032b 56be 0a4a 423e 8381 063e 1986 bb3e
000000a0: 2edf 8ebd d83d 6ebe f1d0 a6bc 4b54 353d
000000b0: 6a54 da3d cac4 e33d b0dc b5bb 4e33 f83c
000000c0: 2113 02bc 0fcf ad3d abed 163e f9b1 64bc
000000d0: 800c 8e3e ad66 adbd 6ddd 8e3e 4e32 2c3e
000000e0: 655a 1cbe ced3 ff3d a7c4 963d 2e11 6d3d
000000f0: c9e6 843e f2c5 693c 7c7a 853d 6480 56bd
00000100: f1b1 4cbd d03e 39bd 187d 103e ff75 03bd
00000110: a1e6 a8bd 1787 0dbd 67b7 54bd 329a 02be
00000120: aff7 3dbd 3715 223d 42ba ca3d 3cc9 acbd
00000130: 05e4 01bd f952 993c 7b6d 613e f7bf 2f3c
00000140: 62c5 7abe af7e 50be a02a e13d 9c37 0c3e
00000150: 48ce 3b3d 10a0 513d bd20 06be 4d1a 10be
00000160: f4a3 09be 6033 993d 67ec b83c 448e d73c
00000170: ab7d aebd d698 023e 99a0 163d 0c12 62bd
00000180: b3ea b63d 61c0 c43d 50a5 303e 4e43 98bd
00000190: d6d4 fabd d8ed 94bd 636d 5abd 2a89 75bd
000001a0: ab43 e0bd f8c2 de3d dde7 053e 4087 1bbe
000001b0: b6c8 debd 0664 e53d f0d2 c73d 0df8 5e3e
000001c0: 114e dc3d 132c 953d cd08 993e 0d0d dbbd
000001d0: 2d1f 073e 84a1 91bd 3a2c a13d 5811 d9bc
000001e0: a843 02bd 3177 c5bd 84ed 8a3d b79c 6ebc
000001f0: 998c c23d 12aa 0e3e a171 88bb b008 a6bd
00000200: e25d d4bd cf69 00be 4e1e bcbe 53fc 9abe
00000210: 0f5b c3be 217a eb3c 2f78 52bd fad1 b93d
00000220: 7893 efbc eb45 f8be ca76 d13c 932f 14bc
00000230: 534b c63e 2e19 bbbd 7225 17be c032 8d3d
00000240: 6b8e 93bd f921 ebbe ee3b fcbe 518c e3bc
00000250: 5f70 adbd 8775 81be 40f5 d9bd 8485 a0bd
00000260: 0a28 9abc da16 acbd 2f98 e43d 8652 8dbc
00000270: f306 833e 904f 78be 8749 933b 880b 493e
00000280: 257f 5abd 3024 bfbb 3969 d8bb 37af e8bd
00000290: 53e7 ee3d d628 813e 1d29 1a3d 94fd d63c
000002a0: 33b8 6abd ed04 5b3c d0e1 073a a43b 90bd
000002b0: 93dd 70bd a3b1 e43c 72c0 b1bd b0d0 1e3e
000002c0: d349 083e 031c 473e a43a a33c c4b6 d93c
000002d0: 07f7 f1ba b50b 2a3d 2883 1c3e 4fdc 52bd
000002e0: 59f4 60bd d319 efbc 63b0 153a 6886 4d3d
000002f0: 5bdd 3ebd 8281 933d 5cf7 bdba b7b7 7cbd
00000300: 603c 603d 4819 a33d f00b 313d 11bb c8bd
00000310: 721a f63c 9ccc 013d a177 ed3d 65f0 8abd
00000320: b7ca b43a dd42 993d 436e bd3d 7dab 7a3d
00000330: 1acd 80be 812f 6cbc bd65 023e 902f 853e
00000340: 7a6f 9f3d bb56 c7bd 764e 99bd d574 e2bd
00000350: b445 9d3d 4330 cbbd 4794 803c 8af1 1d3d
00000360: 2a8c d7bd 5371 013e 820f d83c 01d4 bb3d
00000370: 23c9 363d 6e88 05be 500f 393e 159a 023e
00000380: c925 1f3d 0c78 a9bd 9f18 283d 7cc5 2d3c
00000390: 448c c43d 4df2 e13c 5a8b 9e3c d115 3abe
000003a0: 8353 97bd 15c8 31be 91f9 b7bd 4556 31bf
000003b0: 5d44 cebe 0cfb 0cbf 051e b53d 41dd 2cbd
000003c0: 38c3 b3bd f7a8 02be 87db 0ebf c638 f7bc
000003d0: d8ef bb3c 5648 b93e 3605 433e 2dbc 09be
000003e0: 8e9d 203c c663 1fbd c1e0 e5be 87d8 d5be
000003f0: 95f6 043c fd1e 993d 233c bebd 1eeb 0dbe
0.05491437 0.013667992 0.056167077 0.027313804 0.15364958 0.017209627 0.119936846 -0.24640822
0.02090095 -0.26680744 0.087638274 0.082559206 -0.14795563 -0.12492127 -0.10633037 -0.2024292
0.063885786 -0.14314511 -0.18003903 0.0075728623 -0.024626812 -0.17074077 0.053830795 -0.0013846965
-0.014713547 -0.1490632 -0.104357645 -0.10171077 0.2268538 0.038736135 -0.20274737 0.11879977
-0.14220367 0.22650313 0.10014999 -0.15297775 -0.20914845 0.18973556 0.13135342 0.36625746
-0.06976162 -0.23265779 -0.020363303 0.04426984 0.10660632 0.11121519 -0.0055499896 0.030297901
-0.007939131 0.08486759 0.147391 -0.013958448 0.27743912 -0.084668495 0.2790331 0.16816065
-0.15268858 0.124915704 0.07361727 0.057877712 0.25957325 0.014268385 0.06517503 -0.052368537
-0.049974386 -0.04522592 0.1411022 -0.03209495 -0.08247114 -0.03455266 -0.05193272 -0.12754133
-0.046378788 0.039571013 0.09898807 -0.0843682 -0.031711597 0.018716322 0.2201442 0.01072692
-0.24489358 -0.20360826 0.10994458 0.13693088 0.045851022 0.051178038 -0.13098426 -0.14072533
-0.1344145 0.07480502 0.022573663 0.026312955 -0.08520063 0.12753615 0.03677425 -0.055192992
0.08931484 0.09607006 0.17250562 -0.07434712 -0.122476265 -0.072719276 -0.053326976 -0.059945263
-0.10950407 0.10877031 0.1307673 -0.15188313 -0.10878126 0.112007186 0.0975703 0.21774311
0.107570775 0.07283797 0.29889527 -0.106958486 0.13195486 -0.07110885 0.07869764 -0.026497528
-0.031802803 -0.096418746 0.06783584 -0.014563731 0.09499473 0.13932064 -0.0041639362 -0.08107126
-0.10369469 -0.12540363 -0.3674187 -0.30270633 -0.3815541 0.028744759 -0.051384147 0.09073253
-0.029245123 -0.48490843 0.025569338 -0.009044546 0.38729343 -0.09135662 -0.14760378 0.068944454
-0.072048984 -0.45924357 -0.49264473 -0.027776869 -0.08468699 -0.2528498 -0.10642481 -0.07837966
-0.01881792 -0.08402796 0.11161839 -0.017251264 0.2559124 -0.242491 0.004494849 0.19633305
-0.05334391 -0.0058331713 -0.0066043404 -0.113615446 0.11665215 0.25226468 0.037636865 0.026243962
-0.057304572 0.013367874 0.000518349 -0.070426255 -0.05880506 0.027916735 -0.08679284 0.15509295
0.13309412 0.1944428 0.019925423 0.026576407 -0.0018460461 0.04151507 0.15284407 -0.051479634
-0.054920528 -0.029187119 0.00057101826 0.050177008 -0.04659782 0.07202436 -0.0014493275 -0.06169864
0.054745078 0.079638064 0.043224275 -0.09801305 0.030041907 0.03168927 0.11595083 -0.06784133
0.0013793324 0.07483456 0.092495464 0.0611987 -0.2515648 -0.014415623 0.12734123 0.2601285
0.07784934 -0.097333394 -0.07485668 -0.1105744 0.076793104 -0.099213146 0.015695704 0.038560428
-0.10524781 0.12640886 0.026374582 0.09171296 0.044625413 -0.13040325 0.18072248 0.1275409
0.038854394 -0.0827485 0.041039106 0.010606166 0.09597066 0.027581358 0.019353557 -0.18172385
-0.073889755 -0.17361481 -0.08983148 -0.6927226 -0.40286532 -0.5507057 0.088436164 -0.04220319
-0.087774694 -0.12759767 -0.5580372 -0.030178439 0.022941515 0.36188 0.19044957 -0.1345069
0.009803189 -0.03891351 -0.44898036 -0.4176676 0.00811543 0.07476614 -0.09288814 -0.13859221

cnn_layers.0.bias f4 [8]
00000000: b613 7e3e 7032 1bbe d93c b63e 4e59 c8be
00000010: 7d05 4d3e cb00 993d bd2a f1be 3461 e53b
0.24812207 -0.15155959 0.35593298 -0.39130634 0.20021625 0.07470854 -0.4710292 0.007000113

cnn_layers.1.weight f4 [8]
00000000: d386 393f fe91 293f 195d 443f 64b9 a03f
00000010: f333 723f ad27 8d3f e5b4 4a3f efe4 623f
0.7247135 0.6623839 0.76704556 1.2556577 0.9461052 1.1027733 0.79182273 0.88630575

cnn_layers.1.bias f4 [8]
00000000: 078e 58be 346e d0be ec6a aebe 1ad9 e13e
00000010: e86f 97be 981b 86bf f5f4 8fbe 2b87 3e3e
-0.21147929 -0.40709078 -0.3406595 0.44110948 -0.29577565 -1.0477171 -0.28116575 0.1860625

cnn_layers.1.running_mean f4 [8]
00000000: 2228 7e3e 124d 16be ca2c b93e 2d2f bebe
00000010: 6b67 5f3e 1eaa 7f3d 4063 ecbe 767c 4ebc
0.24819997 -0.14677837 0.36166984 -0.37145367 0.21816795 0.062418096 -0.46169472 -0.012602916

cnn_layers.1.running_var f4 [8]
00000000: a618 aa40 6eaa 4341 c02b 7f41 46e8 d53e
00000010: bd61 953e 882b ca3c 0133 833e c241 a83f
5.315509 12.229109 15.948181 0.41778773 0.2917613 0.02467896 0.2562485 1.3145068

cnn_layers.4.weight f4 [14, 8, 3, 1]
00000000: 8d4d 13be 0114 b8bd e870 58bd cabb cd3b
00000010: c6e5 383d dd80 0c3e 4e23 583e e38d 943e
00000020: c691 253e cf49 cf3d 429c 5f3e 6a1d dc3e
00000030: 40a3 aabd f5b3 04be d0f9 01be 00ef 97be
00000040: bd02 82be 3a19 41bf 5a0f ee3b 57e1 00bc
00000050: 77ff 7ebd f051 8b3d ce1d 103e 5d1d 723e
00000060: 2683 40be 2cfa aabd f10c 443c d058 f2bb
00000070: f83e 073e c2ce 493d 76b1 a9bb 2d1b 3c3e
00000080: 2d67 033e 5761 b03d c895 663e e092 c43e
00000090: 165a d0bd 28a0 a9bd c215 b3bd 8cf3 bfbd
000000a0: f14b 46be 649e 66bf 9bb5 04bb 18c2 21be
000000b0: 2b4b b5bd 57a4 343d 75e4 243e 5ff0 053e
000000c0: 4e12 833d 8925 bdbc 0ef6 15bd c906 83bd
000000d0: 319f 693c 073f cc3d 87cf af3d 665b 193e
000000e0: b26a 393e 5721 bfbd 0c13 bc3d 33a8 af3e
000000f0: ddef 67be 7c23 5cbe 20aa 89be c592 6d3e
00000100: c3a9 fabc 90a1 5ebf 4379 06be 74c9 9abd
00000110: a9e3 eebd dee0 0ebe 515e d93a bcb8 313e
00000120: d547 3c3e 58f2 59bd ec29 ff3d 0677 a53d
00000130: b73f a63d ef6f 243e 6969 ab3d 3e63 323e
00000140: 0469 3d3e 17f0 b5be f4e9 ddbd 5674 7a3e
00000150: 5491 36bf 25a6 ffbe 199a 00bf b19d 0c3f
00000160: 6126 813e 5272 23bf 7bbd a4bc c775 be3b
00000170: 8584 51be 116d 8b3c f5fa 773d e0c6 003e
00000180: 1c66 2abd e0f5 e33b b0d7 21bc 464e e83a
00000190: 649c 0c3d 23bb 1a3e 6efc ed3d f889 073e
000001a0: 8438 b93d 3002 703d 9fa5 203e f777 d63e
000001b0: 42b1 4bbd 8ba8 8abd e4ce d7bd dd75 8fbc
000001c0: ec38 0dbe fc0b 37bf cbdf babd b369 34bd
000001d0: 04d8 e3bd e188 b9bc f69d a33d e388 583e
000001e0: 46b3 26be b801 6f3c a54e be3c 0157 c63d
000001f0: b1d0 213d bcac 433e cbed 8a3d ccf1 1a3e
00000200: eb6f 8e3e 8868 df3c 2824 3b3d 678d df3e
00000210: ddd3 44be 9658 02be 8f2b 75be 193a 44bc
00000220: 6e4b 70bd a07b 80bf 25fa b9bd 23a0 18be
00000230: b41b febd a489 25bc 48bd 5a3d a597 4f3e
00000240: 04cf 23bd bba5 7dbd ee02 1ebd b879 073c
00000250: be81 d73d f4f6 0e3e a521 0a3e 4a15 203e
00000260: 8438 ec3d aec6 073e f599 5c3e f464 c33e
00000270: f5b9 99bd 4af0 e6bd 7d63 debd 693b dfbe
00000280: 89d4 96be b0d0 23bf da6c 85bd e17c 79bc
00000290: 7018 ebbd 6e90 e53c 58c3 1e3e 2b79 4b3e
000002a0: 218d 3cbd d11b 63bc 0ab5 c43b 6b9f d5bc
000002b0: 90d1 043d d47e 073e 00ca 023e 1a23 133e
000002c0: 046f d93d 5465 633d 5da6 223e 96cd cc3e
000002d0: 2241 65bd b8bf 9dbd 7350 dfbd 97e2 b1bd
000002e0: 6f29 21be ef09 38bf b5cc 8ebd e1a5 2dbd
000002f0: 8b80 e7bd bff5 abbc a7f9 bc3d ae50 493e
00000300: b22f 8bbd 1cb6 8ebd 1696 2b3d 16b4 893d
00000310: 8f8e 943d 3c4d 463e c597 4b3d 66c4 113e
00000320: 880c 673e 3b3a 9e3c 3631 313e e264 e83e
00000330: dc74 4bbe d231 26be 93b1 64be 02de 763e
00000340: 46b3 a4bd f5e2 84bf bd87 10be 6ab7 f9bd
00000350: 410d 72be b5cb d8bb b19d 913d 7705 363e
00000360: 7806 56bd 56f9 3abd 25a4 ba3b 5d5d 9dbc
00000370: ec86 bc3d 1f6c 093e ec68 0a3e 6738 453e
00000380: bcee f73d 5f8f 3e3d 8035 543e d46f d23e
00000390: 4f64 bebd dd55 efbd 9bcd 05be e43b 77bd
000003a0: d456 45be 2238 53bf 3c3a 60bd 09b7 80bd
000003b0: 52d3 08be d576 6b3c 1cf1 003e 7f1b 3f3e
000003c0: 4333 cfbc 2ebc c5bc ac7f 66bc 82b5 873d
000003d0: 86a5 df3d 4c18 163e 110d ec3d 48a6 093e
000003e0: 5b92 173e 6648 693d 48df 2f3e 5e20 d83e
000003f0: 2b27 e6bd 82eb f5bd 8ac7 11be a063 b1bc
-0.14385052 -0.089881904 -0.05284205 0.0062784897 0.045141004 0.13721032 0.21107218 0.290145
0.1616889 0.101215 0.21836951 0.4299119 -0.08331919 -0.12959273 -0.12692952 -0.2967453
-0.25392714 -0.7542912 0.0072650136 -0.007866225 -0.06225535 0.06802738 0.1407387 0.23644014
-0.18800029 -0.08348498 0.011965976 -0.007395841 0.13207614 0.049269445 -0.0051786257 0.18369742
0.12832327 0.08612316 0.22518075 0.38393307 -0.101734325 -0.082825005 -0.08744384 -0.09372625
-0.19364907 -0.90085435 -0.0020249847 -0.15796697 -0.08852228 0.04410204 0.16102774 0.13079976
0.06399976 -0.023089187 -0.03661161 -0.063977785 0.014259146 0.09972959 0.085845046 0.14976272
0.18107107 -0.09332531 0.091833204 0.34308013 -0.22650094 -0.21497911 -0.26887608 0.2320052
-0.030598527 -0.86965275 -0.13132195 -0.075579554 -0.116645165 -0.13952968 0.0016583895 0.17355627
0.18386777 -0.053209633 0.12459168 0.080793425 0.081176214 0.16058324 0.08369715 0.1742067
0.18497092 -0.35534737 -0.10835639 0.24458441 -0.71315503 -0.49931446 -0.50235134 0.5492812
0.25224593 -0.63846314 -0.020109883 0.00581238 -0.20460708 0.01701978 0.060542066 0.12575865
-0.041601285 0.006956801 -0.009878084 0.0017723523 0.034328833 0.1511045 0.11620413 0.13236225
0.090439826 0.058595836 0.1568818 0.418884 -0.049729593 -0.06770428 -0.10537508 -0.017512256
-0.13791245 -0.7150266 -0.09124716 -0.044046115 -0.11125186 -0.022648277 0.07989113 0.21145968
-0.16279325 0.014587812 0.02323086 0.096845634 0.039505664 0.19108862 0.06783637 0.151313
0.27819762 0.027271524 0.04568878 0.4366257 -0.19221444 -0.12729105 -0.23942398 -0.011976742
-0.058665685 -1.0037727 -0.090809144 -0.14904837 -0.12407628 -0.010103617 0.05340317 0.20272692
-0.039992347 -0.06192563 -0.038577013 0.008268766 0.10522793 0.13961393 0.13489397 0.15633121
0.11534217 0.13259384 0.21543105 0.3816296 -0.075061716 -0.112763 -0.1085882 -0.43600014
-0.29459026 -0.63990307 -0.065149024 -0.015227527 -0.114792705 0.028022971 0.15504205 0.1987044
-0.04603303 -0.013861612 0.006003027 -0.026076993 0.032426417 0.13231975 0.1277237 0.14368859
0.10616878 0.055516556 0.15883775 0.400006 -0.05597032 -0.07702583 -0.10904016 -0.08685797
-0.15738462 -0.7189016 -0.069726385 -0.042394523 -0.113038145 -0.020991204 0.09227305 0.19659683
-0.067962065 -0.06968328 0.04189118 0.06723802 0.072537534 0.193654 0.049705286 0.14235076
0.22563374 0.019314876 0.17303929 0.45389467 -0.19868797 -0.16229942 -0.22333364 0.24108127
-0.08042006 -1.0381762 -0.1411428 -0.121931866 -0.23637868 -0.0066160806 0.071101554 0.17775522
-0.052252263 -0.04564794 0.005695837 -0.019209558 0.09205422 0.13420151 0.13516587 0.19259797
0.12106082 0.046523448 0.20723534 0.41100943 -0.09296476 -0.11686299 -0.13066714 -0.06035985
-0.19271404 -0.82507527 -0.054743037 -0.06284911 -0.13361862 0.0143715935 0.12591976 0.18662833
-0.025292998 -0.024137583 -0.014068525 0.06626417 0.10920243 0.14657706 0.1152593 0.13442338
0.14801924 0.05695381 0.17175019 0.42212194 -0.112379394 -0.1200781 -0.14236274 -0.02165395

cnn_layers.4.bias f4 [14]
00000000: aa17 05bf 1049 a6bd e982 7a3e 2133 f73e
00000010: 465f 35bd e140 223e d716 a03d 5279 e13e
00000020: aeb1 9c3d 2f99 eabd 072b 913d 95bb 303e
00000030: cc2d 1cbf aa3c 633d
-0.51989233 -0.08119404 0.24464001 0.48281196 -0.044280313 0.15845062 0.07816856 0.44037873
0.07651077 -0.11454999 0.07088285 0.17259057 -0.6100738 0.055477776

cnn_layers.5.weight f4 [14]
00000000: 6a69 1e40 d9e0 1d40 cc1e 2240 1ba3 1c40
00000010: 9710 1c40 6e89 1f40 942e 2240 d2c6 1e40
00000020: 5d01 2240 456d 2240 aec8 1f40 fd68 1f40
00000030: aa4c 1540 1743 1c40
2.475184 2.4668486 2.5331297 2.4474552 2.4385126 2.492763 2.534093 2.480885
2.5313332 2.5379193 2.4966235 2.490783 2.3328042 2.4415948

cnn_layers.5.bias f4 [14]
00000000: 08c6 d93f 0fd9 d73f 8382 e13f c860 d83f
00000010: d70e d53f edf9 dc3f 8a89 df3f 2cf5 d93f
00000020: 0bba df3f 7e93 e03f 767e dc3f 6296 d93f
00000030: 122a c23f 828c d73f
1.7013559 1.6863116 1.7617954 1.6904535 1.6645154 1.7263771 1.7463849 1.7027946
1.7478651 1.7545011 1.7226093 1.6999018 1.5169089 1.6839755

cnn_layers.5.running_mean f4 [14]
00000000: 24bd 053e c6ab d63e da81 b53e 3ccb 483e
00000010: 3940 ec3e 302a ec3e 1101 2a3f ef9f 6a3f
00000020: 086b f73e 919c d33e 56a2 113f f002 503f
00000030: 2c57 263f 341d 4e3e
0.13060433 0.41927928 0.3545063 0.19608778 0.46142748 0.46125937 0.6640788 0.9165029
0.48323846 0.41330388 0.5688833 0.8125448 0.64976764 0.20128328

cnn_layers.5.running_var f4 [14]
00000000: c721 263e 2c55 1a3e f1ac 5b3d d6bf 293e
00000010: 4ed6 c93d 6bda d83d 1714 2a3e bb10 d33d
00000020: 8ec5 dc3d a2fb fa3d 5cb3 003e 0f42 323e
00000030: 296b 8a3e cb1e 173e
0.16223823 0.15071553 0.053631727 0.16577086 0.098553285 0.10588535 0.16609226 0.103059255
0.10779868 0.122550264 0.1256842 0.17408012 0.27034882 0.1475784

linear_layers.0.weight f4 [1, 28]
00000000: 10f2 cd3f a3a6 bd3f 062d c13f a009 bb3f
00000010: 6a9a ba3f be01 be3f 3953 b43f ca82 c53f
00000020: 4c7f cf3f f789 c73f dc29 c93f c29f bd3f
00000030: 9be8 ca3f 7746 b03f ae63 ca3f 0abb bf3f
00000040: 496e b63f db40 c73f cc20 bd3f 71c0 bc3f
00000050: a450 c33f bea7 c13f f98b c73f 1adf b13f
00000060: 0348 c53f 5ea2 bf3f 8cb1 be3f 3f62 c93f
1.6089497 1.4816478 1.5091865 1.4612312 1.4578373 1.4844282 1.4087898 1.5430539
1.6210723 1.5588979 1.57159 1.4814379 1.5852236 1.3771504 1.581167 1.4978955
1.4252406 1.5566667 1.4775634 1.4746228 1.5258985 1.5129316 1.5589591 1.389621
1.5412601 1.4971426 1.4897933 1.5733107
