model/model_FD004.pth (torch, 25023 bytes, 14 tensors)

cnn_layers.0.weight f4 [8, 1, 4, 21]
000000 ee 72 16 3e b9 51 3f 3c 73 5d c6 bd ee 04 35 be
       0.1469228 0.011677199 -0.09685793 -0.17677662
000010 ee da f6 bd ef 4d 95 bd cf 57 b2 bd dc 41 34 3b
       -0.12053476 -0.07290255 -0.087081544 0.0027505076
000020 39 45 f5 bd a2 c8 80 bd fd d9 80 bd fc 02 6c be
       -0.11976094 -0.06288268 -0.06291578 -0.23048013
000030 99 9a d1 3d 24 f2 b8 bc 16 bd 19 3e ea 3b 91 3e
       0.10234565 -0.0225764 0.15013537 0.28366023
000040 a5 b0 83 bd c0 87 5a 3d e4 29 01 bb 47 97 5d be
       -0.06430177 0.053352118 -0.0019708807 -0.21639739
000050 23 b2 52 be f8 c1 e9 3d 84 f7 30 3e f0 43 64 bd
       -0.20575766 0.1141395 0.1728192 -0.055728853
000060 38 63 cc bd 8b a4 19 3e ac db bb 3c 84 6d 20 3e
       -0.09979862 0.15004174 0.022931896 0.15666777
000070 d4 62 db 3c 12 01 bb 3c 6b ee 48 3e 5e 32 cd bd
       0.026780523 0.022827659 0.19622199 -0.100193724
000080 49 16 fd bc c8 2f 07 3e 42 3a 52 be 54 83 ae 3d
       -0.030894415 0.13201821 -0.20530036 0.085211426
000090 92 fa 85 bd 48 bb db bd 04 8a 08 3e b8 c9 10 3e
       -0.06541933 -0.107290804 0.13333899 0.1413945
0000a0 41 a6 c3 3d 59 64 2d 3e 88 7a 37 3d b0 ff 5a bd
       0.09553195 0.16932811 0.04479459 -0.0534665
0000b0 fc e5 d0 bd 17 16 c6 bd 66 52 7d be 2f 2c 48 bd
       -0.10200116 -0.09672182 -0.24738464 -0.04887026
0000c0 e6 cf 46 bd 0e a8 27 bd 81 f1 a4 bd 49 57 2c 3e
       -0.04853811 -0.040931754 -0.08053876 0.16830172
0000d0 95 49 b9 3a b9 2d 20 be 9d 6e 2a 3d 83 de 88 3d
       0.0014136309 -0.15642442 0.041609395 0.06683066
0000e0 6d c2 47 bd 53 23 97 3e ba fc d1 bc 4f 08 9f bd
       -0.048769403 0.29519138 -0.025633205 -0.077652566
0000f0 8b 16 ae bd 3f 43 43 be b8 5d 2b be e6 71 4e 3e
       -0.085003935 -0.19068621 -0.1673497 0.20160636
000100 c0 5a 7e 3d a1 80 15 be 96 b4 35 bd 86 f8 0c 3c
       0.062098265 -0.1459985 -0.044361673 0.0086041745
000110 a9 9e c6 bb f1 62 9e 3d 28 14 c5 3d 4b 2a 9a 3d
       -0.0060613942 0.07733715 0.09622985 0.07527598
000120 d3 a5 77 3e 33 eb 2f be 46 ab b8 bd 04 4c 5c 3d
       0.2418435 -0.17179565 -0.09017043 0.05378343
000130 1d 81 99 bd 44 4c 98 3d e8 ab ee 3d 13 3b 49 be
       -0.074953295 0.074364215 0.11653882 -0.19651441
000140 31 c4 42 3e d5 69 c3 bd f1 ad 48 3b 54 8b 7d 3d
       0.19020154 -0.0954167 0.0030621255 0.06190045
000150 5e c7 14 3e 44 aa 5e 3d fd 42 c3 bd 16 e3 e0 bd
       0.14529178 0.054361597 -0.095342614 -0.10980813
000160 ea 4a 13 bd 4b dd c0 bd d3 33 0d be 78 ca 2f bd
       -0.035960115 -0.09417208 -0.137893 -0.0429177
000170 26 eb 83 3d 2f 53 3e 3d b6 8e 90 bc c5 69 2f bd
       0.064413354 0.04646605 -0.017646175 -0.04282548
000180 16 26 5f 3d b9 1d 86 3d 84 50 06 3e 04 f6 42 3e
       0.05447968 0.06548638 0.13116652 0.1903916
000190 1d 66 78 3b 52 bc ae 3d 23 e8 77 bc 95 e3 36 3d
       0.003790266 0.08532013 -0.015131029 0.044650633
0001a0 d2 f5 d6 bd 57 5c 93 3d 63 8f f1 3d d9 bf 62 3d
       -0.10496105 0.07195347 0.11794927 0.05535874
0001b0 1e 4e 07 be 40 44 09 3d 6e 0f c9 bd 77 a1 a0 bc
       -0.13213393 0.033512354 -0.09817396 -0.019608242
0001c0 05 92 22 3d 7e 7c 8d bd 85 1c b0 3d 40 e0 7f bc
       0.039690036 -0.069085106 0.0859919 -0.01561743
0001d0 e5 f5 2f bd 59 1f 2f 3d 61 28 8e 3c a9 61 b7 3d
       -0.042959113 0.042754505 0.017353239 0.08954174
0001e0 66 a0 9b bd 67 33 b4 bd 31 14 e9 3d 0f 58 cd 3b
       -0.07598953 -0.08798867 0.11380804 0.006266601
0001f0 84 a4 87 3d ff 46 c6 3d 06 4a 27 3d 1b b9 b1 3d
       0.06623176 0.0968151 0.04084208 0.08677884
000200 9f 74 71 be d5 87 b0 be 1f 15 3e 3e 43 11 d8 3e
       -0.23579644 -0.34478632 0.18562745 0.4220067
000210 05 6e 9e 3e 4d e4 6e 3e a3 ba 0e bd 42 b2 85 3e
       0.30943313 0.23329277 -0.03484596 0.26112562
000220 50 d2 0c bf 20 c0 1f 3e 84 20 a6 3e a6 fb 0c bf
       -0.5500841 0.15600634 0.32446682 -0.55071485
000230 05 47 c7 3e 10 11 9d 3d 32 ed b9 bd e7 35 a4 3e
       0.3892137 0.0766927 -0.090784445 0.32072374
000240 ad a4 94 3e c1 49 d9 3e b9 8e b9 3e 1c 2d 58 3c
       0.29031888 0.42439082 0.362417 0.013194349
000250 65 3d d9 3d cb 0d c8 bd 57 58 1d be 17 10 90 3d
       0.10607413 -0.09768256 -0.1536573 0.07034319
000260 3f 8e c2 3d 95 b9 3c 3d 91 21 b4 3d af d9 05 3d
       0.094997875 0.046075422 0.08795465 0.032678302
000270 81 19 33 3e f5 d6 2b be 9f dc c3 bd 5a 8f c5 3d
       0.17490198 -0.16781218 -0.095635645 0.09646483
000280 ae 58 0c bd da fa 4c 3e f1 e0 9a 3d 2e 8a 86 bc
       -0.03426426 0.20017567 0.075624354 -0.016423311
000290 32 e3 08 3e 5c fb c5 bc dd c4 2e bd a6 9f ba 3c
       0.13367918 -0.024167709 -0.042668212 0.022781204
0002a0 22 dd a6 bd ee 24 07 3d e5 f4 e1 3d 67 2d 2f 3e
       -0.081476465 0.032994203 0.11033038 0.17107163
0002b0 26 ed fd bb 9d 09 35 be 1c 72 1b 3d 12 8f 6c bd
       -0.0077492176 -0.17679448 0.03795062 -0.05775363
0002c0 98 d8 c3 3c 3b fa 86 be 6b ec 9d 3c 3b 01 f0 bd
       0.02390699 -0.26362786 0.019277772 -0.11718985
0002d0 04 3b 09 be f3 e9 39 3e 6a 5a cc be da 66 8d bd
       -0.13401419 0.18155651 -0.3991273 -0.06904383
0002e0 db 47 88 3d e6 d7 76 3d 18 48 ae be a6 cc e5 bc
       0.0665433 0.06026449 -0.34039378 -0.028051686
0002f0 db d6 a1 3c f7 71 f3 bd bb 7d 0c be 89 14 1e 3e
       0.019755771 -0.118869714 -0.13719837 0.15437521
000300 ea a6 aa 3d 55 22 1e 3e b1 07 51 bd f3 be 2f bc
       0.083326176 0.15442784 -0.051032726 -0.010726678
000310 e8 4a 7e bd eb d0 09 bd d8 a1 69 be ef 5b 2b 3d
       -0.062083155 -0.033646505 -0.22815645 0.04183572
000320 f1 09 a6 bd 5a c6 55 bd ec f5 6b 3e 65 a3 7b bd
       -0.08107365 -0.052191116 0.2304303 -0.061435122
000330 20 be 96 bd 06 27 8a 3c 41 6c 89 bc f8 ee 09 be
       -0.07360482 0.016864311 -0.016775252 -0.13470066
000340 4d 69 bd 3d 26 e5 c0 3d c7 47 09 be 0c 6d ba 3b
       0.092486 0.094187066 -0.13406287 0.005689269
000350 96 75 6b 3c b8 3f 85 3d 36 c0 0a 3c 0b 35 76 3c
       0.014371296 0.06506294 0.008468678 0.015027295
000360 f2 f5 c5 bc ee eb 2e bd a4 6a d2 3d b5 82 0c be
       -0.024165127 -0.04270547 0.10274246 -0.13721736
000370 29 54 ce 3d e2 c0 9a bd 65 70 c8 bd fa 2e 68 3d
       0.10074646 -0.07556321 -0.097870626 0.056685425
000380 8c 49 38 be 4c 11 47 bd 2a 7e 2b 3e d1 42 22 be
       -0.17996806 -0.04860048 0.16747347 -0.15845801
000390 f8 57 af bd a3 7e 69 bd 64 2a ca 3d 11 79 b0 bd
       -0.085617006 -0.057005536 0.098713666 -0.086168416
0003a0 15 60 ab bd f1 55 a3 3d 07 20 e0 3d b0 2c 7b bd
       -0.083679356 0.079753764 0.10943609 -0.061321914
0003b0 5c cf 51 3b 12 c5 d1 3d 90 94 12 be 5d 11 ee 3d
       0.0032014465 0.10242666 -0.14314485 0.116244055
0003c0 92 31 8b be d2 83 ad 3d 69 30 b4 3d 3c e3 06 bc
       -0.27186257 0.08472408 0.08798296 -0.008232888
0003d0 e5 a8 ab 3e d0 d8 90 be 29 f8 ce bd ce 23 8e 3d
       0.33527294 -0.28290415 -0.101059265 0.06940423
0003e0 0b f5 00 be 23 51 76 bd 0c d4 8e bc 47 94 40 bd
       -0.12593476 -0.06013597 -0.017435096 -0.04701641
0003f0 88 d6 86 bb d2 a0 dc 3c da d0 a4 3d e3 08 8c 3e
       -0.0041149296 0.026932154 0.08047648 0.2735053

cnn_layers.0.bias f4 [8]
000000 20 e1 92 3e dc 11 a6 bd 25 93 85 3e 66 d8 87 be
       0.28687382 -0.08108875 0.26088825 -0.26532286
000010 90 e6 f0 bd 11 f8 45 3e f0 83 f0 3d 1b 3b 09 3e
       -0.11762726 0.19332911 0.11743915 0.13401453

cnn_layers.1.weight f4 [8]
000000 12 97 87 3f 2e 3a 7d 3f 71 bc 57 3f 34 a6 5d 3f
       1.0592978 0.989169 0.84271914 0.8658173
000010 ab e5 70 3f 17 17 73 3f 62 9c 8c 3f c5 f5 83 3f
       0.94100446 0.9495711 1.0985224 1.0309378

cnn_layers.1.bias f4 [8]
000000 a4 d8 9e be fe e9 11 be 77 ea 7a be 7e c6 69 be
       -0.3102466 -0.14249417 -0.24503504 -0.22829625
000010 88 90 dd 3d 68 db e0 be 41 37 a9 be 97 f1 89 bd
       0.10818583 -0.43917394 -0.33049968 -0.06735533

cnn_layers.1.running_mean f4 [8]
000000 d0 7d 92 3e ff fd 96 bd 2d 78 80 3e b8 2f 8a be
       0.28611612 -0.07372665 0.25091687 -0.26989532
000010 f0 25 e6 bd ca 62 35 3e e5 71 f9 3d 41 dd 10 3e
       -0.11237705 0.17713466 0.12179927 0.14146902

cnn_layers.1.running_var f4 [8]
000000 ea 61 22 40 fa c0 d7 3f 31 f6 30 3e a3 55 b9 40
       2.5372262 1.6855767 0.17281415 5.7917037
000010 46 4b ca 3c 16 c2 49 3c 76 99 5f 3f 42 c2 92 40
       0.024694096 0.01231434 0.8734354 4.586213

cnn_layers.4.weight f4 [14, 8, 3, 1]
000000 a9 ed 3e 3e 13 75 7a 3e c9 e3 c6 3d 28 a3 53 be
       0.18645348 0.24458723 0.09711415 -0.20667708
000010 ff 21 62 3e 68 94 01 3e 3b 05 b7 bd 19 24 28 bd
       0.22083281 0.12654269 -0.089365445 -0.04105005
000020 ed 58 12 be 1a b8 ec be 12 58 7b 3d f3 73 3c be
       -0.14291735 -0.46234208 0.061363287 -0.18403606
000030 db b8 91 3d 48 f5 5e 3c 25 32 e5 3d 4b 1d 25 be
       0.071153365 0.013608284 0.11191205 -0.16124456
000040 15 bb 7f bd 26 5b 23 3d 62 36 a1 3d d7 69 16 3f
       -0.062434275 0.039881848 0.07871701 0.5875525
000050 8e 74 51 3e dc c5 1b be 06 f1 26 3e 87 bd fd bd
       0.20454618 -0.15212196 0.1630288 -0.12389665
000060 cd 29 48 bd 13 21 f0 3d 59 d1 43 be 7d d0 3e bd
       -0.04886799 0.117250584 -0.19122829 -0.04658555
000070 84 6b 45 3e 45 d6 ce 3e 2d 58 b9 3d b2 cc 06 be
       0.19279295 0.4039785 0.09050021 -0.13164023
000080 5e 6a 49 be 0e 6a 11 bc 3f ec a2 bc f7 3a 4d bd
       -0.19669482 -0.008875383 -0.019888042 -0.05010506
000090 24 0b ea 3b ac 10 d9 3d 5a 3e 08 be 63 44 54 3d
       0.0071424413 0.10598883 -0.13305035 0.05182303
0000a0 06 d5 c1 bb 2c b4 91 be ec d3 04 bd 8e 81 cf 3d
       -0.005915287 -0.28457773 -0.032428667 0.101321325
0000b0 7f 51 45 3e 57 87 d1 bd 4f 92 2d be fb 50 4b bd
       0.1926937 -0.10230892 -0.16950344 -0.049637776
0000c0 d7 21 0e bd 03 34 bc 3c ec e3 8c 3e 87 c3 8c 3e
       -0.03470024 0.02297402 0.2751764 0.27492926
0000d0 fa e5 24 3e 7f 6c 92 bd 4b 58 c9 3d 1e ee 89 bc
       0.16103354 -0.071496 0.09831294 -0.016837176
0000e0 d3 97 c0 be dc ec bf 3d 06 10 6f bd 19 89 bd bd
       -0.37615833 0.09371349 -0.05836489 -0.09254665
0000f0 19 82 56 3d 0d 7a f3 bb b7 ff 75 be e2 e2 94 3b
       0.052370165 -0.007430321 -0.24023329 0.004543648
000100 01 5f 5b bd b7 40 a4 be 7d 9b c6 bd 92 09 19 3e
       -0.0535574 -0.32080624 -0.09697626 0.14945057
000110 b1 e7 48 be 4c a9 de 3d 7b fc 30 bd fb f5 90 3e
       -0.19619633 0.108721346 -0.043209534 0.28312668
000120 72 a5 13 3e 5d fd 3c be ad bb 82 3e a1 12 b3 bd
       0.14418581 -0.18456025 0.2553381 -0.087437876
000130 8c 25 65 bd 6a 43 04 3e d2 c6 97 bd 38 d3 87 be
       -0.05594401 0.12916341 -0.07410969 -0.26528335
000140 c5 5c b9 be 74 50 b3 bc f7 e6 47 3e 76 6f af 3c
       -0.3620359 -0.021888949 0.195217 0.021415453
000150 5c cb b4 3a 55 2f 24 be 60 97 b9 bd 74 28 45 bd
       0.0013793516 -0.1603368 -0.090620756 -0.048134282
000160 b2 04 3d be 2f c2 5e be 94 f9 37 3c 55 ba 9e be
       -0.18458822 -0.21753763 0.011228938 -0.31001535
000170 ca dc 3b bd d5 ea 55 3e be e1 5e bb 2a a1 51 3d
       -0.045864858 0.20890363 -0.0034009065 0.05117909
000180 5b 63 29 3e 83 94 da bc f5 34 73 3c 74 5c 82 bb
       0.16541807 -0.026682144 0.014844169 -0.0039783064
000190 fe 0e 45 3e 18 01 8b 3e 41 03 12 bd 3c 2e ba ba
       0.19244 0.27149272 -0.035647634 -0.0014204453
0001a0 00 ce 8c be 70 8a 60 be d6 22 93 bd 7b cb b4 3d
       -0.27500916 -0.2192781 -0.07184379 0.08827873
0001b0 29 d4 1f be 8d 8e b4 bd fd 86 46 bd 0e 80 2e be
       -0.15608276 -0.08816252 -0.04846858 -0.17041036
0001c0 2e 2a 96 bc 9d bb f0 bd a9 c5 5a 3d 06 a2 3b 3e
       -0.01833066 -0.117545344 0.05341116 0.18323526
0001d0 95 4d 1d 3d 1d da 85 3d 5f bc 84 3e 8b 7b 54 3e
       0.038404066 0.065357424 0.25924966 0.20750253
0001e0 2a 0c a5 3d 3a 56 7f be 39 ea c9 bc 6c dc e8 bc
       0.08058961 -0.24935237 -0.024647819 -0.028425418
0001f0 6a 30 ce be 58 0e 67 3e 9a 42 d2 bd 55 69 8a 3d
       -0.40271312 0.22564065 -0.102666095 0.06758372
000200 8a 6d a5 3b 4e c6 dd 3d cc 02 42 be 2f 5c 89 3e
       0.0050484585 0.10828839 -0.1894638 0.26828143
000210 3b 8c ac bc 9a 40 aa 3d 53 6d 9a bd 53 cb 25 3e
       -0.02106296 0.08313103 -0.07540383 0.16190843
000220 a8 27 92 bd e5 9d 6b be 7b 3d 0a bd a3 c8 e6 be
       -0.0713647 -0.2300945 -0.03375004 -0.4507495
000230 bd d0 bf 3e 40 5c 32 bd 92 d0 80 be c9 af 1d 3d
       0.37463942 -0.043545008 -0.25159127 0.03849772
000240 ba be 0f 3d 7e fe 6e 3e e6 ac 91 be 86 a7 01 bd
       0.035094 0.23339269 -0.28452224 -0.031653903
000250 7c 4c 74 3e ef 80 b9 bd 7f 5b b3 bd 65 a2 55 bd
       0.23857301 -0.09057795 -0.08757686 -0.052156825
000260 ae 96 8c bd ca 9d 6f 3e cd de 85 3e 0d 1e 39 3d
       -0.06864677 0.23400036 0.26146546 0.045194674
000270 cc 41 8e bc c9 1e 58 3d a1 83 77 3d 3c d7 23 bd
       -0.017365359 0.052763734 0.060428265 -0.040000185
000280 48 64 93 bd 05 fd 2c be 0b 3f 97 3d 03 c8 4e 3d
       -0.071968615 -0.16893394 0.07385071 0.050483715
000290 04 4b 0a bf 01 8b e6 3d 84 a7 be be 37 d2 96 be
       -0.54020715 0.11256982 -0.3723718 -0.29457256
0002a0 23 73 f9 3d d3 70 0b bd ae 45 2b 3e b5 d0 aa 3c
       0.12180164 -0.034043144 0.167258 0.020851472
0002b0 12 44 3c 3c f7 b7 f6 3d 7a c2 b4 3d 28 8c ba bd
       0.011490839 0.12046807 0.08826156 -0.09108764
0002c0 76 53 10 bf 44 1c 2c 3d d4 dc 63 be a7 c5 03 bd
       -0.5637735 0.042019144 -0.22252208 -0.032170918
0002d0 23 db e0 3d 30 54 87 bd 96 84 b9 be ac 00 ed bc
       0.10979297 -0.06607854 -0.36233968 -0.028930984
0002e0 26 ff 03 3d 3b ec df be eb 82 2a 3d ad a1 52 be
       0.03222575 -0.43734917 0.04162876 -0.20569487
0002f0 51 04 d0 3d da 12 2e 3e 4e 07 1d be 63 34 67 3e
       0.10157073 0.16999379 -0.15334818 0.22578578
000300 e2 66 9c be 75 97 ed bc da 86 04 3f 68 a8 6c 3d
       -0.30547243 -0.029002884 0.5176827 0.057777792
000310 8d ae 8a be d5 dd df bd 40 49 2b 3d e8 83 91 bd
       -0.27086297 -0.10930983 0.041817904 -0.07105237
000320 ed 8f 18 bd ec f0 93 be e8 be 23 bc 25 b4 fb 3d
       -0.037246633 -0.28894746 -0.009994246 0.12290219
000330 d8 fd 1b 3e 6c ba 17 bd d4 19 2b be 5e c0 cd 3a
       0.15233552 -0.03704302 -0.16709071 0.0015697589
000340 d5 bd 1f 3e 98 72 54 be 45 e0 31 be 56 8a 4d 3d
       0.15599759 -0.20746839 -0.17370708 0.050180756
000350 04 07 34 3e 99 64 29 be f6 e0 f5 3d bc 42 b0 3e
       0.17580801 -0.16542281 0.120057985 0.34425914
000360 67 17 b8 3c 77 da dd bd 5a e5 8f 3e 75 6a 24 bd
       0.022472097 -0.108326845 0.2810467 -0.040140588
000370 3c d5 19 3e 29 ff 13 3e c0 30 7b 3d 00 f9 23 3d
       0.15022749 0.14452805 0.06132579 0.040032387
000380 23 a5 97 be 14 be 86 be 10 00 db b9 94 9a 09 be
       -0.29618177 -0.26316893 -0.00041770982 -0.13437873
000390 4e 21 a4 ba 14 cf d9 bd 45 8d 53 be b9 ca 2e 3d
       -0.0012522133 -0.106352 -0.20659359 0.0426738
0003a0 d6 0f f5 bd bd 1f 88 be cd ba 6b be ec f7 20 3e
       -0.11965911 -0.26586714 -0.23020478 0.15719575
0003b0 24 b5 8d 3e 1c cb 38 3c 7f fc d8 3d 4a e4 cf 3e
       0.27677262 0.011278894 0.10595035 0.40603858
0003c0 d7 b9 2a 3f 09 3d a8 3d 99 c8 8c bb 2c 9b 32 be
       0.6668982 0.082147665 -0.004296374 -0.17442006
0003d0 d5 a8 a0 bd 1a 42 bf bd e8 60 75 bd 26 4d 08 be
       -0.07844702 -0.0933878 -0.05990687 -0.1331068
0003e0 0e 6f 7d bd 76 52 1a bd d1 28 29 be 38 c9 47 be
       -0.061873488 -0.037676297 -0.16519476 -0.19510353
0003f0 99 17 60 be 86 43 2c bc 30 f1 68 be 8b dc 8e bd
       -0.21884002 -0.010514146 -0.22748256 -0.06975659

cnn_layers.4.bias f4 [14]
000000 37 0b d5 bd 4f 86 b2 be 46 33 95 be d1 e7 ae 3d
       -0.1040253 -0.34868094 -0.2914068 0.08540309
000010 60 7c 87 bd a2 d9 1b 3e be de 31 3e 2f f7 38 bd
       -0.066155195 0.15219739 0.17370126 -0.045157608
000020 42 32 cb 3d 30 77 ba 3d 4b 2e 88 3b d9 0a 85 3e
       0.09921695 0.091047645 0.004155909 0.2598484
000030 ec 87 83 bd 07 18 a0 be
       -0.064224094 -0.3126833

cnn_layers.5.weight f4 [14]
000000 9c ef 9f 3f a3 97 a8 3f 41 52 aa 3f 07 06 a3 3f
       1.2494998 1.3171276 1.3306352 1.2736214
000010 06 8d 9e 3f c9 c1 ac 3f 29 5d b3 3f b2 ac a8 3f
       1.2386787 1.3496639 1.4012805 1.3177702
000020 80 ad a8 3f 60 28 aa 3f a1 39 a0 3f 02 a6 a4 3f
       1.3177948 1.3293571 1.2517587 1.2863162
000030 9e ad a0 3f 0e 37 fc 3f
       1.2552984 1.9704301

cnn_layers.5.bias f4 [14]
000000 77 37 00 3f e9 4a a4 3e 2b 31 ad 3e 49 1c 8d 3e
       0.5008463 0.32088402 0.33826575 0.27560642
000010 09 79 b2 3e 76 48 0c 3f 7a b1 23 3f 1b 90 c3 3e
       0.34857967 0.54798067 0.6394268 0.3819588
000020 9c b3 ca 3e a7 45 bd 3e 82 04 7a 3e a2 c8 ae 3e
       0.39590156 0.36967203 0.24415782 0.34137446
000030 c4 f9 7c 3e f3 f7 91 bb
       0.24704653 -0.0044546067

cnn_layers.5.running_mean f4 [14]
000000 59 82 2d 3e 7a 41 c2 be 75 ec 66 be 68 28 14 be
       0.16944255 -0.3794058 -0.22551139 -0.14468539
000010 7c 99 00 3e f1 9c 04 be a7 ef 93 bd 14 26 68 be
       0.1255855 -0.12950493 -0.072234444 -0.22670776
000020 a3 9d a9 3d ae 95 33 3e 67 9a 94 ba 5c cc 90 3e
       0.0828202 0.17537567 -0.0011337519 0.28280914
000030 46 4a 04 be d6 13 24 bf
       -0.12918958 -0.6409277

cnn_layers.5.running_var f4 [14]
000000 f0 e6 fc 3d 5f dc 64 3d a6 f7 e4 3d 20 14 07 3e
       0.12348735 0.055874225 0.11180048 0.13191271
000010 33 26 db 3d 80 58 9b 3d d8 6d 1d 3e c4 db 29 3e
       0.10700645 0.075852394 0.15373933 0.1658774
000020 75 d3 bf 3d 8f 7d e6 3d 16 1f 51 3e 2f 27 03 3e
       0.09366504 0.11254417 0.20422015 0.12807916
000030 f6 1f 33 3e 8f a4 3d 3e
       0.17492661 0.18519805

linear_layers.0.weight f4 [131, 28]
000000 5f bf 9e bf 2a c4 b5 bf 0a 91 14 bf 40 83 d9 be
       -1.2402152 -1.420049 -0.5803381 -0.42482948
000010 10 37 14 bf 36 1c cd be c2 7a f4 be 4b 20 cf be
       -0.5789652 -0.40060586 -0.47749907 -0.40454325
000020 7b 03 94 be ae 29 a4 be f2 6b b3 bf 57 dc bb bf
       -0.28908905 -0.3206305 -1.4017317 -1.4676617
000030 8c 96 d4 bf 0e b3 b6 bf 57 d7 f2 be 9e 3e 94 be
       -1.6608443 -1.4273393 -0.47429916 -0.28954023
000040 23 af 65 bf ad ee ad bf ae 68 c6 be 9d 3f cc be
       -0.8972036 -1.3588463 -0.3875174 -0.39892283
000050 bd 16 f9 be 8a 07 cc be 84 97 aa be bf 2b e5 be
       -0.4865016 -0.39849502 -0.33318722 -0.44759938
000060 32 f2 f0 be 2f 4c ec be d7 34 7f 3f 81 0f 8f 3f
       -0.4705978 -0.46151873 0.9969 1.1176606
000070 ba b2 95 bf 39 76 85 bf 96 72 20 bf 0e c9 b7 be
       -1.1695168 -1.0426704 -0.62674844 -0.3589558
000080 07 e9 d1 be 7d d0 11 bf 35 34 cb be af d5 f0 be
       -0.40998098 -0.5695875 -0.39688268 -0.47038028
000090 f7 20 b2 be 46 01 d1 be d9 2e 9c bf c7 ee c6 bf
       -0.34790775 -0.40821284 -1.2201797 -1.5541619
0000a0 0b 6c ae bf ec e0 95 bf f3 18 b2 be 3b eb 8b be
       -1.3626722 -1.1709266 -0.3478466 -0.27327904
0000b0 2e ef 8d bf b4 99 93 bf a6 79 62 be 73 06 b3 be
       -1.1088617 -1.1531281 -0.22116718 -0.34965858
0000c0 40 f3 04 bf 52 09 06 bf 68 6d c0 be ef 7c f0 be
       -0.5193367 -0.5235797 -0.3758347 -0.46970317
0000d0 77 cf a6 be e2 f2 00 bf da 02 80 3f c8 6c 7c 3f
       -0.32580158 -0.5037061 1.000087 0.98603487
0000e0 c3 4e 9c bf b2 e2 79 bf 67 0d de be 4f 09 0a bf
       -1.2211536 -0.97611535 -0.433696 -0.53920454
0000f0 81 6e 9b be 4a a3 0e bf c6 63 ac be 5d ea a0 be
       -0.30357745 -0.5571791 -0.3366987 -0.31428805
000100 69 60 f7 be f0 1b 07 bf da 2e 94 bf ac ab b2 bf
       -0.48315743 -0.52777004 -1.1576798 -1.395864
000110 72 10 bb bf 3d 56 9c bf 39 5b 17 bf 6b ff 19 bf
       -1.4614394 -1.2213818 -0.5912357 -0.6015536
000120 fb 6a 74 bf 35 f1 7f bf 88 de cb be de 8b 78 be
       -0.9547574 -0.9997743 -0.39818215 -0.24272105
000130 8d 0b 12 bf 6d 99 62 be 45 c9 ee be 0d 72 bc be
       -0.57048875 -0.2212884 -0.4663793 -0.36805764
000140 82 a1 68 be 4c f7 db be 7d 1f 68 3f fe 70 88 3f
       -0.2271786 -0.4296211 0.9067305 1.0659482
000150 53 7d 92 bf e6 e0 44 bf 28 e6 a1 be bb f6 9c be
       -1.1444496 -0.7690567 -0.31620908 -0.3065699
000160 c3 c8 62 be 5c 34 ad be de d2 07 bf ec 43 9c be
       -0.22146897 -0.3382901 -0.5305613 -0.3052057
000170 85 d3 70 be e1 d7 8d be 31 09 69 bf 8f a8 85 bf
       -0.23518188 -0.27703765 -0.9102965 -1.0442065
000180 cd c6 88 bf a6 8d 9d bf b7 38 08 bf 48 e8 b4 be
       -1.0685669 -1.2308853 -0.5321154 -0.35333467
000190 7d ad 1d bf 5d 54 80 bf 88 d5 91 be 83 04 76 be
       -0.6159285 -1.0025746 -0.28483224 -0.24025159
0001a0 2a 7b d7 be 20 13 97 be 4b 72 11 bf b0 c7 42 be
       -0.42086154 -0.2950678 -0.5681502 -0.19021487
0001b0 e3 33 cb be c5 ce 43 be 3e f6 5c 3f 3d b3 6d 3f
       -0.39688024 -0.19121845 0.86313236 0.9285162
0001c0 0c 1b 9d bf 69 83 53 bf 51 1d bb be 16 48 ad be
       -1.2273879 -0.8262239 -0.36545804 -0.3384406
0001d0 56 de 05 bf e6 b4 0e bf 8a 17 c8 be 38 20 82 be
       -0.5229238 -0.5574478 -0.3908046 -0.25415206
0001e0 a7 44 ee be 5a c5 5f be 25 af 60 bf 59 a6 96 bf
       -0.46536753 -0.21852627 -0.8776725 -1.1769515
0001f0 7e 32 8f bf 64 cf b2 bf 5a d7 1a bf ca c8 00 bf
       -1.1187284 -1.396954 -0.6048485 -0.5030638
000200 12 21 39 bf d2 1d 81 bf d3 bd c9 be a1 05 9f be
       -0.72316086 -1.0087225 -0.39402637 -0.31058982
000210 18 5b 9d be 60 40 ea be 98 9d e9 be c1 64 db be
       -0.30733562 -0.4575224 -0.45628047 -0.42850307
000220 8c fc 93 be 0b f3 fe be 59 1c 4c 3f df dc 80 3f
       -0.28903615 -0.49794802 0.79730755 1.0067405
000230 06 ec 7e bf c2 9b 59 bf 58 75 29 bf a2 8a 17 bf
       -0.99578893 -0.8500329 -0.6619468 -0.5919591
000240 a8 f1 c6 be 26 23 16 bf 09 a3 10 bf a7 68 dd be
       -0.38856244 -0.5864738 -0.5649877 -0.43243906
000250 7f 87 45 be 4f 47 94 be d0 9e 22 bf c2 65 6c bf
       -0.19289969 -0.28960654 -0.6352358 -0.9234277
000260 7c 00 71 bf d5 48 a6 bf c4 ca 2b bf cf 23 2f bf
       -0.94141364 -1.2990977 -0.6710627 -0.68414015
000270 55 5b 78 bf d4 6b 90 bf b9 11 09 bf 64 81 97 be
       -0.9701436 -1.1282907 -0.5354267 -0.29590905
000280 94 df 8b be 36 13 b6 be a4 7f dd be 68 7c 05 bf
       -0.27319014 -0.35561532 -0.43261445 -0.52142954
000290 65 1e 10 bf da 99 06 bf 36 31 37 3f 8f 50 7e 3f
       -0.5629638 -0.5257851 0.71559465 0.9934167
0002a0 d8 4a 85 bf 5a 7b 2d bf 19 86 01 bf 61 5f 12 bf
       -1.0413465 -0.67766345 -0.5059524 -0.57176787
0002b0 89 4b b9 be 48 3d c2 be 9c d5 04 bf 55 bf bd be
       -0.3619044 -0.3793738 -0.5188844 -0.37060037
0002c0 64 2c 65 be 14 8a ee be df 5d 2d bf 39 ba 64 bf
       -0.22380215 -0.4658972 -0.6772136 -0.89346653
0002d0 e3 16 2a bf 05 20 84 bf 5f 65 da be a9 e2 86 be
       -0.6644117 -1.0322272 -0.42655465 -0.26344803
0002e0 cd a1 2b bf 90 cc 5b bf 3d 86 a4 be 6b 0a 57 be
       -0.67043763 -0.8585901 -0.32133666 -0.21000068
0002f0 8f 0a f0 be 59 c6 80 be 43 0f e8 be 7f 4a 8c be
       -0.46883056 -0.25151327 -0.45324144 -0.27400586
000300 87 06 8b be 5a 94 83 be f1 d1 27 3f 01 ec 6f 3f
       -0.27153417 -0.2569912 0.6555472 0.9371949
000310 71 d5 55 bf 9b 82 5f bf b6 3a 0b bf f7 b3 0b bf
       -0.8352881 -0.87308663 -0.5438646 -0.5457148
000320 38 fa 1e bf 4f c1 be be 49 f8 14 bf 4b 25 ef be
       -0.62100554 -0.37256858 -0.58191353 -0.4670814
000330 1a 0e a1 be bc 8e ac be a2 57 05 bf ec be 56 bf
       -0.3145607 -0.33702648 -0.5208684 -0.83885074
000340 03 d2 dd be 48 23 89 bf d7 73 01 bf 5c 0b 23 bf
       -0.4332429 -1.0713892 -0.5056738 -0.6368921
000350 48 b7 3c bf 69 5e 56 bf 50 05 9e be db da a1 be
       -0.73717165 -0.8373781 -0.30863428 -0.31612286
000360 8c 20 8c be 7c 8a f2 be f5 be 13 bf 12 34 d7 be
       -0.2736858 -0.4737128 -0.5771325 -0.42031914
000370 d6 ee 0b bf d8 4b ba be 3d d1 24 3f 89 57 69 3f
       -0.5466131 -0.3638599 0.6438177 0.91149193
000380 06 40 1d bf c5 79 6d bf ce 65 24 bf 08 4f 1c bf
       -0.61425817 -0.9276393 -0.6421784 -0.6105809
000390 45 79 16 bf 36 96 b3 be fa 53 fd be bc e0 5d be
       -0.5877879 -0.3507554 -0.49478132 -0.2166776
0003a0 e1 f4 0d bf 13 cb 72 be 48 0c 1b bf bc 84 2f bf
       -0.5545178 -0.23710279 -0.60565615 -0.6856191
0003b0 d1 77 80 be 15 85 8b bf 57 f0 af be 11 49 96 be
       -0.25091413 -1.0899988 -0.34363052 -0.2935262
0003c0 3d e8 ff be 87 5b 48 bf e2 09 bc be 34 7f 78 be
       -0.4998187 -0.7826466 -0.3672629 -0.24267274
0003d0 7d 42 ac be db d2 21 bf f9 12 11 bf b6 68 e1 be
       -0.33644477 -0.63212365 -0.56669575 -0.440252
0003e0 ea 3c 15 bf cb 4e b7 be 50 a2 1d 3f 59 68 58 3f
       -0.5829607 -0.35802302 0.61575794 0.8453422
0003f0 a1 4b 22 bf 7c be 57 bf 45 7b 1b bf a9 fc 13 bf
       -0.6339665 -0.8427503 -0.6073497 -0.57807404

linear_layers.0.bias f4 [131]
000000 b1 9e b3 bf 76 66 8b bf 0e 8e 9a bf 9e b4 5a bf
       -1.4032804 -1.0890644 -1.2074602 -0.8543185
000010 da 35 48 bf a7 ae 26 bf 6c 05 09 bf 2a 8c 15 bf
       -0.7820717 -0.6511025 -0.535239 -0.58417
000020 0b ec dc be f0 35 fa be 06 3e 81 be 7f ff 7b bc
       -0.43148836 -0.48869276 -0.25242633 -0.015380739
000030 9b 6f 5e be 56 a1 0f 3e 6c 93 86 3d 02 e6 72 be
       -0.21722262 0.14026389 0.06571087 -0.23720554
000040 1a f0 d4 3d 25 89 62 3e 25 a3 21 3e b4 cd 1b 3e
       0.10397358 0.22122629 0.15784891 0.15215188
000050 8f c7 c5 3d 01 0e a5 3e b7 61 e7 3e d9 e2 a6 3e
       0.096572034 0.32237247 0.45191738 0.32594946
000060 bc 32 0f 3e f0 31 4b 3e 98 44 0e 3f f5 0d 55 3e
       0.13984197 0.19843268 0.55573416 0.20806105
000070 e2 05 89 3e 15 13 19 3e cd 74 c9 3e 44 51 54 3e
       0.267623 0.14948685 0.39346924 0.20734125
000080 36 99 a2 3e 9d d1 b1 3d 5f 77 7a 3e 84 63 a1 3e
       0.31757516 0.08682559 0.24459599 0.31521237
000090 08 b3 43 3e 0b 99 1a 3f 21 14 bb 3e 05 63 7e 3e
       0.19111264 0.60389775 0.36538795 0.2484246
0000a0 49 89 c6 3e 78 2d 1c 3f 48 09 d1 3e 93 e3 f4 3e
       0.38776615 0.6100688 0.40827394 0.47829875
0000b0 54 24 aa 3e a9 3f 25 3e 55 73 fb 3d 51 64 e7 bb
       0.3323084 0.16137566 0.12277857 -0.007061519
0000c0 e8 b1 f7 3d b1 2b 8d 3e cc 7c 24 3e 11 c5 9d 3d
       0.1209448 0.27572396 0.16063231 0.07703603
0000d0 fb af 8a 3e 28 92 9e 3e e0 5e a3 3e 75 22 31 3e
       0.27087387 0.30970883 0.3190832 0.172983
0000e0 d8 4a 01 3e 49 33 4d 3e cd 2a de 3e 7a af 3b 3e
       0.12626207 0.20039095 0.4339203 0.18328658
0000f0 94 d8 52 3e bf 40 a2 bc 45 b5 eb 3d 42 ed 70 3d
       0.2059043 -0.019806264 0.11509184 0.058820017
000100 46 24 09 3e 32 92 38 3d 02 3f 37 3e cb a3 df 3d
       0.13392743 0.045061298 0.1789513 0.10919913
000110 12 2c d6 3d 90 fe 08 3d 4d 48 d3 bd f8 06 9b 3d
       0.104576245 0.033445895 -0.10316525 0.075696886
000120 4f ad 29 be 82 cc 5a be b4 b1 d5 bc 87 8e d3 bd
       -0.16570018 -0.21367076 -0.026085712 -0.10329919
000130 a7 13 d1 bc c7 45 d8 3c 3e b2 20 be 6a a1 a1 3d
       -0.025522066 0.02640046 -0.15692994 0.078921154
000140 bf 24 b8 bd f1 36 0b bb 6d f9 c1 bd d3 71 a6 bd
       -0.08991384 -0.0021242464 -0.09471402 -0.08127179
000150 56 0c 16 be a6 c0 bc be 67 39 fe bd 98 14 9c be
       -0.14653143 -0.3686573 -0.124132924 -0.30484462
000160 90 e8 a7 bd 69 b1 18 be ea 07 a7 bd 26 c7 91 be
       -0.08198655 -0.14911427 -0.08155806 -0.2847225
000170 21 f0 e7 bd 45 a1 53 be df e5 70 be 3c 8a 94 be
       -0.11325098 -0.20666988 -0.23525189 -0.29011714
000180 0e ed b7 be 9b 30 04 bf 7c 42 f1 be 5f 40 3c be
       -0.35923046 -0.51636666 -0.47121036 -0.1838393
000190 a3 53 d3 be 6d 6a 87 be 68 67 91 be 71 6e 29 be
       -0.41274747 -0.26448384 -0.28399205 -0.16546036
0001a0 1a 0a 8e be fc 88 1f bf 30 18 08 bf 33 7b fc be
       -0.27742082 -0.62318397 -0.5316191 -0.49312744
0001b0 26 16 94 be 9b d2 3e be fe f3 29 bf 94 da 27 bf
       -0.28923148 -0.18635027 -0.6638793 -0.655679
0001c0 9f 2e af be 93 92 c2 be 45 00 9b be c0 d0 fe be
       -0.34215257 -0.38002452 -0.30273643 -0.4976864
0001d0 9b b2 e1 be 8e 60 fe be f3 4d 30 bf 4e 7f 2c bf
       -0.44081578 -0.4968304 -0.6886894 -0.6738175
0001e0 a8 58 d8 be 6e 21 d4 be fc 2a 4a bf ca 62 23 bf
       -0.4225514 -0.41431755 -0.7897184 -0.63822615
0001f0 6a b6 0c bf f0 83 cc be 71 f8 fa be 67 b4 f9 be
       -0.5496584 -0.3994441 -0.4901767 -0.4877045
000200 51 7c 5e bf 8c a9 36 bf 0b d8 f3 3d
       -0.8690844 -0.7135246 0.11906441
