model/model_org.pth (torch, 24319 bytes, 14 tensors)

cnn_layers.0.weight f4 [8, 1, 4, 15]
0.092671774 -0.2625984 0.020652194 0.15477575 -0.20443448 -0.08661953 -0.095359616 -0.26736277
0.103312425 -0.102590226 0.043666977 0.020488558 0.023797592 0.31905183 0.2668879 0.05934779
-0.22285695 -0.018851224 0.27273193 -0.24330154 -0.10088681 -0.21634594 0.002532082 0.08198454
-0.12218445 -0.076137245 -0.10903201 -0.0025457917 -0.002001506 0.022287885 0.1201502 0.07462011
-0.050127316 0.23392074 -0.12629908 -0.10910141 -0.3021579 -0.019354448 -0.002940898 -0.17895512
-0.20077041 0.13517515 -0.0036069052 -0.014436606 0.042955898 -0.021672167 -0.20417014 -0.16834663
0.076025695 -0.2854919 -0.011413914 -0.49731377 -0.24259384 -0.13418703 -0.27892 -0.35616505
0.06276851 0.07137917 0.1296377 -0.06734063 0.028361697 0.06334436 0.17687829 0.061038468
-0.26203328 0.19638474 -0.13220125 0.09518018 -0.25111526 0.1928849 -0.18077652 0.18464305
-0.11521971 -0.18686527 -0.09600452 -0.08059427 -0.05709878 0.048172913 -0.14075358 -0.4513092
0.16648182 -0.19880497 0.040480264 -0.17287369 0.15263146 0.013089875 0.00016338332 0.06304594
-0.24360245 -0.15719512 -0.1627608 0.12795255 0.064233035 -0.16209441 -0.33080995 0.1767273
-0.029750956 -0.121913955 0.009899859 -0.10615283 0.0736616 0.1276315 -0.11761422 -0.083773695
-0.0883226 -0.04221653 0.028193805 -0.054022852 -0.122081 -0.52690214 0.058818188 0.12323542
0.06240834 -0.03615131 -0.13253143 0.21453 0.15051877 -0.10928535 -0.20570457 -0.06489792
-0.05968195 0.10703039 -0.16387074 0.13470384 -0.15939604 -0.11909809 -0.23358817 -0.2681351
-0.3297414 -0.2000863 -0.05911339 0.06214192 -0.053284638 -0.08053345 0.020392803 -0.12275109
-0.046274547 -0.037950248 0.08742692 -0.2399317 -0.03648605 -0.09445584 -0.08812012 -0.26709107
-0.071767844 -0.15760669 0.08513567 -0.15235586 -0.09178794 -0.11772698 -0.16294932 0.09283195
-0.17248943 0.18536404 -0.28688374 -0.13998225 -0.2227506 -0.21071514 -0.3578032 0.0072483122
-0.06823711 -0.06062661 -0.11637462 -0.08728053 0.08159863 -0.22707929 0.020175148 -0.2444194
0.17923513 -0.23121752 -0.21761535 -0.22764078 -0.1584753 -0.3477126 -0.32758874 -0.3630469
-0.08350541 -0.12291818 -0.06652587 0.02217604 -0.102119096 -0.07741271 -0.48744458 -0.06697706
-0.01262757 -0.22711746 -0.1392641 -0.35029936 -0.1950094 -0.3346799 0.18614587 0.051627167
-0.09449349 -0.009437643 0.041222636 -0.08458733 -0.15208113 0.20234391 -0.11855932 -0.01855198
-0.11414723 -0.14023948 -0.14318512 0.08833624 -0.16764772 0.22735226 -0.1362165 -0.07821418
-0.06429956 0.048496064 0.2121961 0.09756933 -0.23231335 0.0803713 -0.033740103 0.31412536
-0.010651629 -0.04137161 0.009973937 0.38888976 0.048040945 0.035783287 0.09244098 -0.019483622
-0.027879056 0.037562083 0.11479286 0.5994415 -0.016458653 0.09269365 0.67428744 0.21465465
0.67479175 0.1352948 0.59283453 0.26640618 0.18063597 0.15841258 -0.2686039 -0.1624461
0.04618737 -0.013260719 0.044575587 -0.066139854 0.30174848 0.35157228 0.4049056 -0.034510314
0.23069407 0.31563106 0.30725458 -0.046992444 0.11852328 0.05190896 0.057776958 0.020660134
00000000: b3ca bd3d 4c73 86be ca2e a93c 897d 1e3e
00000010: 4657 51be 9565 b1bd e74b c3bd c6e3 88be
00000020: 7795 d33d d31a d2bd 25dc 323d 9fd7 a73c
00000030: 2bf3 c23c c35a a33e 88a5 883e ab16 733d
00000040: 9d34 64be e26d 9abc 85a3 8b3e 0a24 79be
00000050: be9d cebd ca89 5dbe 49f1 253b 83e7 a73d
00000060: d73b fabd d8ed 9bbd 2d4c dfbd 4cd7 26bb
00000070: b32b 03bb 1595 b63c 4f11 f63d 6ed2 983d
00000080: 4d52 4dbd eb88 6f3e 8c54 01be 8f70 dfbd
00000090: 71b4 9abe 388d 9ebc 15bc 40bb 0340 37be
000000a0: c296 4dbe 5b6b 0a3e d461 6cbb 8487 6cbc
000000b0: 86f2 2f3d d489 b1bc fa11 51be 0f63 2cbe
000000c0: 5cb3 9b3d ff2b 92be 6d01 3bbc e99f febe
000000d0: 856a 78be 5368 09be 9ace 8ebe 445b b6be
000000e0: c78c 803d 3e2f 923d bfbf 043e e2e9 89bd
000000f0: ca56 e83c b0ba 813d 951f 353e 7903 7a3d
00000100: 3a29 86be 1519 493e c45f 07be d4ed c23d
00000110: 2e92 80be 9f83 453e 7b1d 39be 1113 3d3e
00000120: 50f8 ebbd 9c59 3fbe 059e c4bd 9c0e a5bd
00000130: 69e0 69bd f650 453d b521 10be 0012 e7be
00000140: 367a 2a3e 8893 4bbe a2ce 253d cd05 31be
00000150: 6c4b 1c3e ea76 563c e051 2b39 3b1e 813d
00000160: ec72 79be c2f7 20be c4aa 26be fe05 033e
00000170: 9c8c 833d 14fc 25be ec5f a9be 00f8 343e
00000180: 47b8 f3bc 06ae f9bd 0533 223c a866 d9bd
00000190: e5db 963d d5b1 023e b9df f0bd 8b91 abbd
000001a0: 7be2 b4bd 3deb 2cbd b2f6 e63c 1147 5dbd
000001b0: 9a05 fabd 0fe3 06bf 57eb 703d da62 fc3d
000001c0: e39f 7f3d 6513 14bd 52b6 07be c1ad 5b3e
000001d0: 9821 1a3e ffd0 dfbd 38a4 52be 33e9 84bd
000001e0: 0f75 74bd c032 db3d bbcd 27be ceef 093e
000001f0: b738 23be b3e9 f3bd bd31 6fbe 0149 89be
00000200: ddd3 a8be 6ce3 4cbe e220 72bd 8788 7e3d
00000210: fe40 5abd b9ee a4bd cf0e a73c ec64 fbbd
00000220: 618a 3dbd b871 1bbd e30c b33d a8b0 75be
00000230: 6572 15bd 1072 c1bd 5278 b4bd 29c0 88be
00000240: 05fb 92bd a663 21be 9c5b ae3d 2d03 1cbe
00000250: 51fb bbbd d81a f1bd 30dc 26be ad1e be3d
00000260: 12a1 30be 12d0 3d3e 6de2 92be 8257 0fbe
00000270: bc18 64be b6c5 57be fb31 b7be 4083 ed3b
00000280: e6bf 8bbd 9c53 78bd d155 eebd 22c0 b2bd
00000290: 2f1d a73d 7987 68be 5a46 a53c 1449 7abe
000002a0: 6a89 373e 49c4 6cbe 8fd6 5ebe aa1a 69be
000002b0: 5947 22be 6307 b2be b6b9 a7be 49e1 b9be
000002c0: e204 abbd 87bc fbbd b73e 88bd 87aa b53c
000002d0: d123 d1bd 8e8a 9ebd 5692 f9be 452b 89bd
000002e0: dee3 4ebc 7b91 68be 409b 0ebe 705a b3be
000002f0: 8bb0 47be 2a5b abbe 069d 3e3e 0277 533d
00000300: ce85 c1bd 58a0 1abc 11d9 283d 1f3c adbd
00000310: 28bb 1bbe 3e33 4f3e 3bcf f2bd 52fa 97bc
00000320: 06c6 e9bd f09a 0fbe 1f9f 12be a1e9 b43d
00000330: d8ab 2bbe 08cf 683e 577c 0bbe c22e a0bd
00000340: 7daf 83bd cfa3 463d ef49 593e 6ed2 c73d
00000350: 8de3 6dbe b599 a43d 1033 0abd 0ad5 a03e
00000360: 2c84 2ebc 4775 29bd b969 233c 8f1c c73e
00000370: 95c6 443d 7f91 123d b251 bd3d 1e9c 9fbc
00000380: 9e62 e4bc b3da 193d 8518 eb3d 0075 193f
00000390: 4cd4 86bc 2bd6 bd3d 1a9e 2c3f 6ece 5b3e
000003a0: 27bf 2c3f b88a 0a3e 01c4 173f 6466 883e
000003b0: a3f8 383e e836 223e 7386 89be 4558 26be
000003c0: f82e 3d3d 7d43 59bc e494 363d 5574 87bd
000003d0: c77e 9a3e 4801 b43e c94f cf3e b05a 0dbd
000003e0: 113b 6c3e 659a a13e 7950 9d3e 267b 40bd
000003f0: 55bc f23d 7d9e 543d 88a7 6c3d 713f a93c

cnn_layers.0.bias f4 [8]
0.013162457 -0.07290808 -0.012156134 -0.08207501 -0.2512345 0.11451002 -0.07733736 -0.10759315
00000000: 59a7 573c d550 95bd 852a 47bc f116 a8bd
00000010: cfa1 80be 3b84 ea3d 0d63 9ebd cc59 dcbd

cnn_layers.1.weight f4 [8]
0.530073 0.872814 0.73461616 0.9014714 1.5002527 0.5249617 0.55517995 1.0514168
00000000: ddb2 073f bd70 5f3f ce0f 3c3f d4c6 663f
00000010: 4808 c03f e463 063f 4620 0e3f d394 863f

cnn_layers.1.bias f4 [8]
0.34760395 -0.2585863 0.75374174 -0.099893995 0.07093804 0.4603363 -0.87224185 -0.4986083
00000000: 25f9 b13e 6c65 84be 38f5 403f 3995 ccbd
00000010: f747 913d 33b1 eb3e 3e4b 5fbf 9649 ffbe

cnn_layers.1.running_mean f4 [8]
0.11437095 -0.05284679 0.15746838 -0.086627856 -0.3379622 0.16656359 -0.15219204 -0.25870675
00000000: 513b ea3d e075 58bd 643f 213e f269 b1bd
00000010: 6209 adbe a58f 2a3e 3bd8 1bbe 3675 84be

cnn_layers.1.running_var f4 [8]
9.243042 8.12488 24.218706 3.1555686 14.258548 5.059009 7.0009055 19.549606
00000000: 80e3 1341 82ff 0141 e9bf c141 d6f4 4940
00000010: 0323 6441 67e3 a140 6b07 e040 9865 9c41

cnn_layers.4.weight f4 [14, 8, 3, 1]
-0.1701548 0.16069435 0.19029206 -0.18751912 -0.057152424 0.24360491 -0.038100943 0.060380824
-0.11852513 0.11889138 -0.07804254 0.14456579 -0.23644646 -0.082272336 0.2919036 -0.040955756
0.039675687 0.055116005 -0.17426406 0.066779345 -0.074278355 -0.46759537 0.103527635 0.33533478
-0.28983018 0.09132759 0.24613437 -0.2519682 0.029227495 0.035835914 -0.084790036 -0.13088928
0.21038345 0.118005246 -0.041582163 0.13246226 -0.24712992 -0.13705975 0.2536688 -0.06614067
0.08824452 0.12427678 -0.0043268264 0.20669885 0.49462077 -0.18271849 0.2424918 0.12739843
-0.030937001 0.031144526 0.039858274 0.27281043 0.055031754 -0.37663966 -0.44134167 -0.13289066
0.41850156 -0.07676824 0.18539792 -0.18417622 0.34556174 0.030666588 -0.37590444 -0.056442752
-0.10033406 0.13174035 -0.19777386 -0.054056298 0.11781118 0.40722302 0.07759823 -0.46874645
0.05817536 -0.07395365 0.1738645 0.2046185 0.004629257 -0.121490404 -0.16587496 0.19429316
-0.057682104 0.007856495 -0.21526363 -0.4651808 -0.25387236 -0.30685768 -0.17292598 0.030299507
-0.026327096 0.11108965 0.08050437 -0.2938256 -0.09765614 -0.069345094 -0.34543172 -0.15059368
-0.06991205 -0.13959865 -0.13991776 0.109469295 0.040246326 -0.081289314 -0.06680511 0.022810822
0.24549516 0.035395727 -0.066541985 -0.19793263 0.5209342 -0.060913198 -0.34176168 -0.017296195
-0.11881574 0.04330435 0.03228459 0.122000605 -0.041580915 0.328035 -0.15426764 -0.20031816
0.15070347 0.15411134 0.120733045 0.11344439 -0.089309394 -0.09993656 -0.22897688 0.24158168
0.35554177 0.06608053 0.041829478 -0.07364957 0.16292353 -0.11962031 -0.32312506 0.1573365
0.09476308 0.08749282 -0.31108552 -0.071269676 -0.053809516 -0.025944974 -0.06717206 -0.28299528
0.22932464 0.07429973 -0.012356663 0.009979772 -0.06470751 0.03985067 -0.10905393 -0.0021376074
0.08009776 0.0687789 0.18022054 0.5656811 -0.0035151157 -0.03169413 0.049580317 -0.15128292
0.04875275 -0.07490437 -0.23742743 -0.19849947 -0.048027243 0.01630723 -0.1001293 0.23753014
0.153006 0.026533497 -0.2487297 -0.17404732 0.04651829 0.11339004 0.4760307 -0.09584954
-0.4750916 0.062310714 0.080609515 0.0885479 -0.10290711 0.012116391 0.09540031 -0.08815044
0.12832928 -0.12266508 -0.152527 -0.20955755 -0.779524 0.17353655 -0.056084093 -0.1314115
-0.07852258 -0.22150587 0.1555262 -0.11735802 0.038325798 0.08671217 0.030417476 0.059001848
0.057665423 -0.03373726 -0.063925676 0.12591296 -0.3770467 0.02403709 0.3354041 0.09659854
-0.10901608 0.04474879 -0.23127054 -0.15994659 0.6551494 -0.27520365 -0.14645481 0.4428168
0.17402183 0.09327551 -0.014942692 0.30371758 0.047363393 -0.041967764 -0.36661598 -0.006579476
0.16462629 -0.09777176 0.023455575 -0.014625454 0.38462678 0.11914897 -0.3934478 0.024455467
0.044713326 0.028968105 -0.06018827 -0.1522227 -0.18110065 0.022786465 0.03585448 -0.26435652
-0.12193156 0.15590584 0.21103404 0.11535956 0.085989535 0.18484858 -0.57557625 -0.120608024
0.25097254 0.024362523 -0.13575912 0.065965794 0.16529253 -0.06095004 -0.2500523 0.22118728
00000000: 0f3d 2ebe 0f8d 243e ecdb 423e 0305 40be
00000010: a918 6abd 9173 793e bc0f 1cbd e251 773d
00000020: 4ebd f2bd 537d f33d c4d4 9fbd 0e09 143e
00000030: 051f 72be 667e a8bd 6374 953e 39c1 27bd
00000040: f982 223d 52c1 613d 4772 32be 9cc3 883d
00000050: 401f 98bd a968 efbe 4c06 d43d 00b1 ab3e
00000060: 9f64 94be f609 bb3d a60a 7c3e fa01 81be
00000070: 806e ef3c aec8 123d 66a6 adbd d707 06be
00000080: c26e 573e bcac f13d 0f52 2abd 30a4 073e
00000090: a00f 7dbe 6459 0cbe e1e0 813e c274 87bd
000000a0: 8bb9 b43d d384 fe3d 0dc8 8dbb dda8 533e
000000b0: ef3e fd3e 8e1a 3bbe c54f 783e bc74 023e
000000c0: 986f fdbc ce22 ff3c 6e42 233d cfad 8b3e
000000d0: fa68 613d ead6 c0be 89f7 e1be 7d14 08be
000000e0: d645 d63e ab38 9dbd f4d8 3d3e b198 3cbe
000000f0: 78ed b03e 7f38 fb3c 8c76 c0be 8430 67bd
00000100: f27b cdbd f1e6 063e 3b85 4abe 236a 5dbd
00000110: fd46 f13d 897f d03e d2eb 9e3d 89ff efbe
00000120: 4949 6e3d 0375 97bd 8909 323e 8387 513e
00000130: 06b1 973b f6cf f8bd 20db 29be c9f4 463e
00000140: 1244 6cbd 87b8 003c 126e 5cbe 2e2c eebe
00000150: 8ffb 81be 731c 9dbe 8213 31be ac36 f83c
00000160: ecab d7bc f882 e33d 7adf a43d 4f70 96be
00000170: f1ff c7bd cd04 8ebd 6ddc b0be 3b35 1abe
00000180: 0d2e 8fbd f3f2 0ebe 9a46 0fbe 7031 e03d
00000190: 55d9 243d 037b a6bd 1ed1 88bd c3dd ba3c
000001a0: 1563 7b3e 1cfb 103d 2a47 88bd daae 4abe
000001b0: f25b 053f 1e80 79bd 63fb aebe c0b0 8dbc
000001c0: ab55 f3bd e75f 313d d93c 043d 74db f93d
000001d0: c050 2abd 34f4 a73e 56f8 1dbe 3420 4dbe
000001e0: 0352 1a3e 5dcf 1d3e e342 f73d 8855 e83d
000001f0: d8e7 b6bd 8aab ccbd ea78 6abe 3061 773e
00000200: 9209 b63e 3b55 873d 6355 2b3d 96d5 96bd
00000210: 6dd5 263e 7efb f4bd a670 a5be d21c 213e
00000220: 2513 c23d 702f b33d 9a46 9fbe d6f5 91bd
00000230: 5e67 5cbd 8e8a d4bc 8191 89bd c2e4 90be
00000240: 14d4 6a3e 752a 983d 9a73 4abc 3382 233c
00000250: 5f85 84bd 753a 233d ab57 dfbd 1a17 0cbb
00000260: 4b0a a43d f4db 8c3d bc8b 383e 7ad0 103f
00000270: db5d 66bb b4d1 01bd bb14 4b3d e9e9 1abe
00000280: f7b0 473d 7667 99bd 2d20 73be 7243 4bbe
00000290: 37b8 44bd bd96 853c 9710 cdbd 1a3b 733e
000002a0: 9bad 1c3e c75c d93c 00b3 7ebe 7639 32be
000002b0: f689 3e3d 0a39 e83d 4cba f33e c34c c4bd
000002c0: 353f f3be 8539 7f3d 9a16 a53d 9a58 b53d
000002d0: f6c0 d2bd d483 463c 3d61 c33d 3888 b4bd
000002e0: c068 033e d437 fbbd 0a30 1cbe 4196 56be
000002f0: e38e 47bf 91b3 313e 6fb8 65bd bc90 06be
00000300: 72d0 a0bd 6fd2 62be 4342 1f3e 6759 f0bd
00000310: 83fb 1c3d 2696 b13d 122e f93c ecab 713d
00000320: 9432 6c3d 1530 0abd 77eb 82bd 54ef 003e
00000330: 440c c1be 6ee9 c43c 16ba ab3e 75d5 c53d
00000340: d343 dfbd 824a 373d 2fd2 6cbe 0ac9 23be
00000350: dfb7 273f 7ee7 8cbe 40f8 15be e2b8 e23e
00000360: c732 323e 3b07 bf3d 31d2 74bc df80 9b3e
00000370: 1e00 423d 64e6 2bbd 17b5 bbbe a598 d7bb
00000380: cb93 283e 8f3c c8bd e825 c03c 9a9f 6fbc
00000390: cded c43e 6004 f43d fd71 c9be d556 c83c
000003a0: 5225 373d 854e ed3c fa87 76bd 44e0 1bbe
000003b0: 7372 39be aeaa ba3c 26dc 123d bd59 87be
000003c0: 41b7 f9bd c8a5 1f3e 4f19 583e a241 ec3d
000003d0: 481b b03d f248 3d3e f758 13bf 5701 f7bd
000003e0: 797f 803e ea93 c73c 7004 0bbe 1319 873d
000003f0: 7242 293e c0a6 79bd db06 80be eb7e 623e

cnn_layers.4.bias f4 [14]
-0.07868479 0.10407731 0.009340858 -0.12043996 0.0026523676 0.07191292 0.2245287 0.2220756
0.118724935 -0.13432005 0.3522709 0.25933412 0.02999879 -0.26763165
00000000: 7e25 a1bd 7c26 d53d 660a 193c 3aa9 f6bd
00000010: 58d3 2d3b 1547 933d daea 653e c967 633e
00000020: 0f26 f33d 328b 09be da5c b43e 71c7 843e
00000030: 06c0 f53c 0407 89be

cnn_layers.5.weight f4 [14]
1.8260202 1.6458936 1.6700237 1.3217404 1.3363374 1.2496355 1.6986258 2.308876
2.4319024 1.3459636 1.3154696 2.0960767 1.3498846 1.340915
00000000: 08bb e93f a4ac d23f 56c3 d53f ca2e a93f
00000010: 1b0d ab3f 0ef4 9f3f 926c d93f a0c4 1340
00000020: 4aa4 1b40 8948 ac3f 4f61 a83f 1f26 0640
00000030: 05c9 ac3f 1aa3 ab3f

cnn_layers.5.bias f4 [14]
-0.29128414 -0.20009977 0.5486306 0.44941297 0.3932012 0.30897683 0.20886888 1.2499304
-0.4877461 0.3910151 0.3463753 -0.075879686 0.41970053 0.39328465
00000000: 3223 95be f4e6 4cbe 0e73 0c3f 7519 e63e
00000010: ab51 c93e 3632 9e3e b9e1 553e b8fd 9f3f
00000020: dbb9 f9be 2233 c83e 1a58 b13e cf66 9bbd
00000030: fde2 d63e 9b5c c93e

cnn_layers.5.running_mean f4 [14]
0.00032257312 0.22611392 -0.19234192 -0.73041546 -0.049009234 0.49053544 0.51430875 0.14040212
0.23012662 -0.12301505 0.28771046 0.53198874 -0.18833032 -0.22611567
00000000: 081f a939 688a 673e 48f5 44be 82fc 3abf
00000010: e8bd 48bd 7627 fb3e bda9 033f 93c5 0f3e
00000020: 50a6 6b3e 51ef fbbd c94e 933e 6a30 083f
00000030: aad9 40be de8a 67be

cnn_layers.5.running_var f4 [14]
0.0069002127 0.020407127 0.011685097 1.7149168 0.009260633 0.68562144 0.19097145 0.026409162
0.0075197844 0.02000945 0.10617401 0.01860179 0.866702 0.96655965
00000000: 2e1b e23b d92c a73c d972 3f3c 6582 db3f
00000010: e9b9 173c e384 2f3f 058e 433e 0758 d83c
00000020: 8668 f63b dcea a33c c271 d93d c862 983c
00000030: 2fe0 5d3f 7470 773f

linear_layers.0.weight f4 [131, 28]
0.55985147 0.5004566 1.0997174 1.0061227 -0.5780401 -0.3356908 -0.29411918 -0.4639291
-0.47602972 -0.43605763 -0.26928023 -0.3047627 -0.38715813 -0.496671 -1.3658928 -1.2710111
0.74188834 1.2132754 -0.5753567 -0.2630681 -0.28110224 -0.26141965 0.40555114 0.23460191
-0.6456812 -0.5864683 -0.39569843 -0.41187838 0.5944378 0.6582323 0.97568405 0.8013303
-0.3888786 -0.38518205 -0.59224516 -0.544276 -0.5905711 -0.48263332 -0.34973437 -0.55633086
-0.34354421 -0.1300418 -1.2281153 -1.2351645 0.7601297 1.0611038 -0.2215547 -0.51995325
-0.19207945 -0.23056713 0.3719351 0.16778764 -0.33494705 -0.33248588 -0.5345104 -0.47083125
0.7339172 0.48873574 0.8891398 0.70025945 -0.34893045 -0.51914996 -0.49343613 -0.41129753
-0.43514228 -0.49205145 -0.31349078 -0.4430045 0.033727575 -0.37209642 -1.0375148 -1.0126438
0.6770102 1.087353 -0.60607237 -0.26383716 -0.19766174 -0.077506356 0.32585168 0.31637907
-0.27407426 -0.3134668 -0.3845947 -0.487218 0.5769542 0.5693693 0.6981102 0.8266614
-0.40122324 -0.39393225 -0.4724562 -0.37462062 -0.540079 -0.47993547 -0.18393447 -0.39955047
-0.093784675 -0.13936254 -0.7900442 -0.9350909 0.63373476 0.9832895 -0.32684287 -0.33490285
-0.26326585 -0.24870363 0.50149214 0.22808953 -0.43624648 -0.3554318 -0.3767953 -0.509865
0.43273774 0.6528053 0.4356855 0.7945087 -0.575207 -0.2669468 -0.5973076 -0.31861094
-0.25738472 -0.541546 -0.25957206 -0.45265675 0.09828645 -0.11408576 -0.7489456 -0.7869466
0.7176737 0.82945365 -0.44364113 -0.4565097 -0.20149526 -0.20031543 0.4118835 0.37307316
-0.30269116 -0.24110912 -0.4711018 -0.55549115 0.42855164 0.5638366 0.40147567 0.6848953
-0.54464805 -0.32797414 -0.49603304 -0.5751434 -0.2785813 -0.31419954 -0.16238828 -0.2304815
-0.020883946 0.11699141 -0.54298013 -0.7311623 0.7247873 0.7650868 -0.42689836 -0.5433109
-0.27506468 -0.33967784 0.37243128 0.48109782 -0.414702 -0.31892335 -0.2513597 -0.2385681
0.35160878 0.753364 0.39396337 0.70023817 -0.50953954 -0.32604796 -0.6310103 -0.2868058
-0.55609405 -0.454481 -0.5200288 -0.44834635 -0.043137368 0.31589803 -0.4485709 -0.6340356
0.65152574 0.6089581 -0.4247728 -0.41097143 -0.3482768 -0.29775983 0.30820337 0.423933
-0.26039132 -0.51535356 -0.27356622 -0.48969984 0.36811414 0.5802888 0.41194096 0.49215728
-0.4745636 -0.3833688 -0.3720285 -0.5366517 -0.44246438 -0.51867414 -0.3589499 -0.27196807
0.009603291 0.33570713 -0.24928541 -0.6081557 0.6154906 0.624589 -0.41187933 -0.4742487
-0.3342427 -0.42528567 0.4967442 0.38323882 -0.31536013 -0.5188205 -0.42056897 -0.38571784
0.48016873 0.4726314 0.43723515 0.2895324 -0.6713911 -0.5123011 -0.5856184 -0.33395308
-0.4471944 -0.281549 -0.33469638 -0.37342367 0.035533648 0.47349614 -0.08328002 -0.65927374
0.59011716 0.5830577 -0.31079575 -0.41445366 -0.4141452 -0.19644997 0.2912468 0.52736455
-0.5642572 -0.46096796 -0.551138 -0.4934204 0.5334628 0.32744527 0.33667293 0.24386731
00000000: 6d52 0f3f ec1d 003f 8ac3 8c3f a1c8 803f
00000010: 70fa 13bf aadf abbe ca96 96be 1d88 edbe
00000020: 2bba f3be f242 dfbe 19df 89be db09 9cbe
00000030: 9739 c6be a94b febe 93d5 aebf 7eb0 a2bf
00000040: 65ec 3d3f 9c4c 9b3f 944a 13bf ddb0 86be
00000050: a2ec 8fbe ccd8 85be 66a4 cf3e 7c3b 703e
00000060: 5d4b 25bf c922 16bf fc98 cabe b9e1 d2be
00000070: 132d 183f e981 283f 6ec6 793f fc23 4d3f
00000080: 191b c7be 9536 c5be 619d 17bf ac55 0bbf
00000090: ab2f 17bf b71b f7be 6210 b3be b36b 0ebf
000000a0: 07e5 afbe ad29 05be e232 9dbf df19 9ebf
000000b0: dc97 423f 40d2 873f 3cdf 62be a81b 05bf
000000c0: 7ab0 44be ca19 6cbe 476e be3e 86d0 2b3e
000000d0: 2e7e abbe 973b aabe acd5 08bf cb10 f1be
000000e0: ffe1 3b3f 923b fa3e aa9e 633f 3444 333f
000000f0: 03a7 b2be 03e7 04bf a9a3 fcbe 9795 d2be
00000100: f8ca debe 2bee fbbe dd81 a0be 7cd1 e2be
00000110: ed25 0a3d 6c83 bebe 49cd 84bf 509e 81bf
00000120: 8a50 2d3f 622e 8b3f 8f27 1bbf aa15 87be
00000130: d767 4abe a7bb 9ebd 08d6 a63e 70fc a13e
00000140: 7653 8cbe b87e a0be 99e9 c4be a374 f9be
00000150: 45b3 133f 30c2 113f 5ab7 323f 15a0 533f
00000160: 226d cdbe 7db1 c9be c7e5 f1be 46ce bfbe
00000170: 9e42 0abf 1aba f5be 5159 3cbe e191 ccbe
00000180: 2e12 c0bd 0eb5 0ebe 5640 4abf 1e62 6fbf
00000190: 713c 223f dcb8 7b3f f357 a7be 6378 abbe
000001a0: c8ca 86be 2aac 7ebe ca61 003f 4d90 693e
000001b0: b35b dfbe 28fb b5be 50eb c0be 8386 02bf
000001c0: cd8f dd3e 401e 273f 2b12 df3e ec64 4b3f
000001d0: c440 13bf 40ad 88be 27e9 18bf f920 a3be
000001e0: eec7 83be c2a2 0abf a1e6 84be a0c2 e7be
000001f0: 684a c93d cca5 e9bd e6ba 3fbf 5575 49bf
00000200: 77b9 373f 1357 543f ee24 e3be a4bb e9be
00000210: c654 4ebe 7d1f 4dbe 65e2 d23e 7203 bf3e
00000220: 56fa 9abe 4fe5 76be 4134 f1be ab34 0ebf
00000230: 1f6b db3e 9857 103f 388e cd3e 4c55 2f3f
00000240: 0e6e 0bbf 3aec a7be 0bf8 fdbe 993c 13bf
00000250: 35a2 8ebe c3de a0be 1d49 26be 5803 6cbe
00000260: cf14 abbc 3199 ef3d bf00 0bbf 742d 3bbf
00000270: a98b 393f bbdc 433f 6c92 dabe 6c16 0bbf
00000280: 47d5 8cbe 41ea adbe 50af be3e 7452 f63e
00000290: d253 d4be ec49 a3be 38b2 80be 324b 74be
000002a0: 1106 b43e 77dc 403f 91b5 c93e cf42 333f
000002b0: 2f71 02bf c2ef a6be e489 21bf 36d8 92be
000002c0: 2e5c 0ebf bcb1 e8be 9c20 05bf a78d e5be
000002d0: cfb0 30bd 63bd a13e 16ab e5be 2850 22bf
000002e0: 64ca 263f aee4 1b3f d27b d9be d96a d2be
000002f0: 5651 b2be fa73 98be d5cc 9d3e bf0d d93e
00000300: 0352 85be 36ee 03bf df10 8cbe f0b9 fabe
00000310: 7579 bc3e cf8d 143f ede9 d23e 0afc fb3e
00000320: 00fa f2be ea48 c4be 857a bebe 0162 09bf
00000330: b18a e2be d4c7 04bf 48c8 b7be 663f 8bbe
00000340: 1f57 1d3c cee1 ab3e ad44 7fbe 18b0 1bbf
00000350: cb90 1d3f 11e5 1f3f d9e1 d2be bad0 f2be
00000360: dc21 abbe 0bbf d9be 4155 fe3e e137 c43e
00000370: e276 a1be 6cd1 04bf d154 d7be cf7c c5be
00000380: add8 f53e befc f13e 49dd df3e 973d 943e
00000390: 4ae0 2bbf 2a26 03bf 16eb 15bf e6fb aabe
000003a0: aaf6 e4be 3127 90be 535d abbe 6331 bfbe
000003b0: bb8b 113d 166e f23e b78e aabd 2ac6 28bf
000003c0: eb11 173f 4543 153f 9f20 9fbe 4533 d4be
000003d0: d70a d4be 2e2a 49be 4d1e 953e 5d01 073f
000003e0: 2973 10bf fe03 ecbe 6117 0dbf 99a1 fcbe
000003f0: 0591 083f e8a6 a73e 6560 ac3e 5ab8 793e

linear_layers.0.bias f4 [131]
-0.97539926 -0.55515635 -0.7867648 -0.9150925 -0.49599424 -0.7177175 -0.4547532 -0.5346752
-0.42798612 -0.4060979 -0.65464973 -0.48740116 -0.3663652 -0.39561448 -0.65342695 -0.31094548
-0.44750595 -0.43348777 -0.44517744 -0.29902938 -0.22860071 -0.5025312 -0.25195977 -0.2922958
-0.46239763 -0.38572004 -0.13314459 -0.22165497 -0.3046007 -0.1802462 -0.10240179 -0.27426666
-0.1742361 -0.1066154 -0.2702582 0.022910621 -0.032445215 -0.14100787 -0.067136824 0.026633898
0.098547414 0.044554297 0.03979765 -0.021853385 -0.02892778 -0.043152824 -0.030786015 0.025021762
0.039694577 -0.06163742 -0.0064403005 0.3788589 -0.0007647927 0.1339798 0.1325902 0.13979866
0.13499342 0.20636097 0.15427817 0.13272525 0.05336645 0.12848997 0.056463055 -0.059090205
0.1157492 0.2611097 0.15321812 0.19543764 0.15636833 0.16749127 0.0953478 0.13515244
0.14185812 0.22106916 0.122111544 0.12612748 0.20285691 0.3008927 0.24251924 0.21907392
0.28076333 0.25339743 0.27066612 0.21317296 0.09865995 0.0951235 0.17426604 0.21058686
0.18191427 0.11143603 0.18691333 0.20184119 -0.106400795 0.037858766 -0.000814188 -0.058772057
0.12313446 -0.03810277 0.085944846 0.028293345 0.027104585 -0.10153688 -0.14136614 -0.12543203
0.0015481231 -0.18529461 -0.1429144 0.024437632 -0.14058702 -0.08781449 -0.16599746 -0.21587823
-0.15142779 -0.10735181 -0.18323965 -0.09738236 -0.09737553 -0.2717704 -0.2753853 -0.17291278
-0.029092642 -0.32234362 -0.2621995 -0.27928555 -0.48560408 -0.11822078 -0.3149189 -0.32550544
-0.16940172 -0.19591239 0.14199446
00000000: c4b3 79bf ba1e 0ebf 6b69 49bf 8143 6abf
00000010: f5f2 fdbe 56bc 37bf 69d5 e8be 79e0 08bf
00000020: ff20 dbbe 10ec cfbe 2097 27bf a58c f9be
00000030: 3894 bbbe fb8d cabe fd46 27bf 3f34 9fbe
00000040: 801f e5be 1cf2 ddbe 4cee e3be 611a 99be
00000050: 4e16 6abe e2a5 00bf df00 81be cca7 95be
00000060: 62bf ecbe 197d c5be 0e57 08be 85f9 62be
00000070: 9ff4 9bbe 7692 38be 08b8 d1bd ae6c 8cbe
00000080: f36a 32be 2d59 dabd 485f 8abe 0eaf bb3c
00000090: 46e5 04bd 5e64 10be 087f 89bd 552f da3c
000000a0: 3ad3 c93d 917e 363d dc02 233d df05 b3bc
000000b0: f4f9 ecbc 04c1 30bd f432 fcbc 70fa cc3c
000000c0: c896 223d 8577 7cbd 2809 d3bb cbf9 c13e
000000d0: 5f7c 48ba 0032 093e bac5 073e 6127 0f3e
000000e0: b73b 0a3e 4a50 533e 19fb 1d3e 21e9 073e
000000f0: c796 5a3d e092 033e ce45 673d 9208 72bd
00000100: eb0d ed3d 2cb0 853e 36e5 1c3e ce20 483e
00000110: 051f 203e d582 2b3e b545 c33d 6765 0a3e
00000120: 4143 113e f45f 623e 9e15 fa3d 9027 013e
00000130: b9b9 4f3e 9c0e 9a3e f756 783e ea54 603e
00000140: 36c0 8f3e 4fbd 813e c094 8a3e 034a 5a3e
00000150: 3a0e ca3d 1cd0 c23d cc72 323e 15a4 573e
00000160: bc47 3a3e 9338 e43d 3566 3f3e 75af 4e3e
00000170: a9e8 d9bd cb11 1b3d 3b6f 55ba f8ba 70bd
00000180: eb2d fc3d a611 1cbd da03 b03d 72c7 e73c
00000190: 6f0a de3c 91f2 cfbd 49c2 10be 4171 00be
000001a0: 64ea ca3a dfbd 3dbe 2758 12be 6e31 c83c
000001b0: 0bf6 0fbe 15d8 b3bd 3dfb 29be 2f0f 5dbe
000001c0: e30f 1bbe 44db dbbd 2da3 3bbe 6770 c7bd
000001d0: d26c c7bd 7d25 8bbe 4dff 8cbe 0c10 31be
000001e0: b153 eebc 390a a5be 033f 86be 84fe 8ebe
000001f0: 19a1 f8be bc1d f2bd 0d3d a1be a6a8 a6be
00000200: a577 2dbe 429d 48be ff66 113e
