model/model_FD003.pth (torch, 24319 bytes, 14 tensors)

cnn_layers.0.weight f4 [8, 1, 4, 15]
0	0xbe12e2b1	-0.14344288
1	0xbd91fac1	-0.07127906
2	0xbe6903de	-0.22755381
3	0xbd325aea	-0.043543734
4	0xbcbd4044	-0.023101933
5	0x3dc86d12	0.097864285
6	0x3e00d2fc	0.12580484
7	0x3c12ef96	0.008968255
8	0xbd1a4782	-0.03766585
9	0xbdc0d1ee	-0.09415041
10	0xbe39bab3	-0.18137626
11	0x3c29b51a	0.010358119
12	0xbe04d871	-0.12973191
13	0x3e9cafbe	0.3060283
14	0xbd11911e	-0.035538785
15	0xbceb0365	-0.028688142
16	0x3d775f8a	0.060393848
17	0x3d8165ce	0.06318246
18	0x3dea8970	0.114519954
19	0xbe73b6d2	-0.23800209
20	0x3daf7320	0.0856688
21	0x3d8be1d3	0.06830182
22	0x3e172754	0.14761096
23	0xbd9745ca	-0.07386358
24	0xbc3938d0	-0.011305049
25	0xbe1204db	-0.14259665
26	0xbdba75f6	-0.091045305
27	0x3e0d5dae	0.13805267
28	0xbc5eb64f	-0.01359327
29	0xbce65d87	-0.02812077
30	0x3c2ef4b1	0.010678456
31	0xbe7d3ed0	-0.24730992
32	0x3da74729	0.081678696
33	0x3e1d64ce	0.15370485
34	0xbe50d934	-0.20395356
35	0xbcbe7d07	-0.023252977
36	0x3d8587b5	0.06520025
37	0xbe206ad9	-0.15665759
38	0x3dfa86d9	0.122327514
39	0x3e086106	0.13318262
40	0xbe73f817	-0.23825108
41	0xbc8baca7	-0.0170501
42	0xbd3c894d	-0.046029378
43	0x3e993785	0.2992517
44	0x3d9271c9	0.07150609
45	0x3da60af0	0.08107555
46	0x3d86038c	0.06543645
47	0xbdaea673	-0.085278414
48	0xbbb9e926	-0.0056735454
49	0xbe7e3885	-0.24826248
50	0xbb4b68b1	-0.0031037743
51	0xbe19d9f8	-0.15024555
52	0xbd5e1be9	-0.054225836
53	0xbdcace1f	-0.09902596
54	0xbc93f771	-0.018062325
55	0xbdf28e6c	-0.11843571
56	0x3e419198	0.18903196
57	0xbe4b702d	-0.1986701
58	0x3da5bade	0.08092283
59	0x3e12050e	0.1425974
60	0x37060c80	7.989933e-06
61	0xbcd142ad	-0.025544489
62	0xbe00cc54	-0.12577945
63	0xbcd1ac7a	-0.025594939
64	0x3eafe137	0.34351513
65	0x3db04908	0.086076796
66	0x3ec24c53	0.37948856
67	0x3cc74a67	0.02432747
68	0x3e9da469	0.30789497
69	0x3e4d7d60	0.20067358
70	0x3ddef16e	0.10885893
71	0xbd621e26	-0.055204533
72	0x3dc36302	0.095403686
73	0x3dd85131	0.10562361
74	0x3e3a434f	0.18189739
75	0x3d2822a4	0.04104866
76	0x3c3cf7c5	0.011533682
77	0x3e867435	0.26260534
78	0x3d39d1a2	0.045365937
79	0x3dece16a	0.11566432
80	0x3de6144f	0.11234342
81	0x3e47a672	0.19497088
82	0x3de7ea62	0.11324002
83	0x3e0b6163	0.13611369
84	0xbdc452c2	-0.09586097
85	0xbc553be2	-0.013014765
86	0xbdc2037c	-0.09473321
87	0xbe063945	-0.13107784
88	0x3db55fae	0.0885614
89	0x3e72cfbc	0.23712057
90	0xbd25ba90	-0.040461123
91	0x3de2b1cb	0.110690676
92	0x3cac2670	0.021014422
93	0xbc3da919	-0.011575961
94	0xbe7a4b0c	-0.2444269
95	0x3d1572af	0.036486324
96	0xbd8db385	-0.06919006
97	0xbe10f30c	-0.14155215
98	0xbda1e624	-0.07905224
99	0xbd265ac7	-0.040613916
100	0xbe9232d4	-0.28554404
101	0xbe040c51	-0.12895323
102	0x3df34fd4	0.118804604
103	0xbd41a735	-0.0472786
104	0xbc9632de	-0.018334802
105	0xbd5156bb	-0.051108103
106	0xbe702066	-0.23449859
107	0xbe853401	-0.26016238
108	0x3d65dbec	0.056117937
109	0xbecb5f62	-0.3972121
110	0xbe108f70	-0.14117217
111	0xbe55497d	-0.20828815
112	0xbd9cb23a	-0.076511815
113	0xbed40d9f	-0.41416642
114	0xbe9475c8	-0.2899611
115	0xbedd35ad	-0.43205014
116	0x3e295100	0.16534805
117	0xbe3c2800	-0.18374634
118	0xbda51880	-0.08061314
119	0x3dd2a6da	0.10285731
120	0x3d90e54c	0.07074985
121	0xbde099b1	-0.10966814
122	0x3d394a07	0.045236614
123	0x3e5f4e98	0.21807325
124	0x3e30b0b0	0.17254901
125	0x3e1f95ca	0.15584484
126	0xbe349308	-0.17634213
127	0x3d8b67cf	0.06806909
128	0x3db95d14	0.09050956
129	0x3c2a1300	0.0103805065
130	0x3d414dca	0.047193326
131	0x3dd1af54	0.10238519
132	0x3dcc2085	0.0996714
133	0xbdb03b13	-0.086050175
134	0x3dfb9d0c	0.12285814
135	0x3d9cf33e	0.07663582
136	0xbd2eab3c	-0.04264377
137	0xbcbe2a2c	-0.023213468
138	0x3e3544e7	0.17702065
139	0x3d444282	0.04791499
140	0x3cfc6d3d	0.030813808
141	0xbea7886a	-0.32721263
142	0xbcc66480	-0.024217844
143	0xbd9537fa	-0.07286067
144	0xbd7de896	-0.06198939
145	0x3d435fb5	0.047698695
146	0xbcc3af6c	-0.023887359
147	0xbd0cb021	-0.034347657
148	0x3d052693	0.03250749
149	0xbd7692a9	-0.06019846
150	0xbe043447	-0.12910567
151	0xbd9f0f7a	-0.07766624
152	0xbd885a61	-0.066578634
153	0x3e13a276	0.14417443
154	0xbdfc78b3	-0.12327709
155	0xbde66066	-0.11248855
156	0xbe96a42a	-0.29422122
157	0xbe248fbf	-0.1607046
158	0xbdae9418	-0.085243404
159	0xbd067dbb	-0.03283475
160	0xbcb2505e	-0.021766838
161	0xbcb44900	-0.022007465
162	0x3cb0c5d1	0.021578701
163	0xbc9e23f6	-0.019304257
164	0x3d2e5726	0.04256358
165	0xbe1711fa	-0.14752951
166	0x3c04cd86	0.008105641
167	0xbe8a13fc	-0.26968372
168	0x3ec03151	0.37537625
169	0xbc9a8e37	-0.018866641
170	0xbd2cac52	-0.042156525
171	0xbeefa2bb	-0.4680384
172	0xbe3f2877	-0.1866778
173	0xbe64dcdf	-0.2234988
174	0xbe82b222	-0.2552653
175	0xbdeea24b	-0.11652049
176	0x3d2dd9b4	0.042443946
177	0xbda1ace0	-0.078943014
178	0x3dae20ac	0.085023254
179	0xbd9f8079	-0.07788176
180	0xbe7aae46	-0.24480543
181	0xbdfa9969	-0.12236292
182	0xbdbee886	-0.09321694
183	0xbb7c8fa3	-0.0038537763
184	0x3d565b9b	0.052333456
185	0xbe243b83	-0.16038327
186	0xbd730099	-0.05932674
187	0xbe3ef505	-0.18648155
188	0x3d381673	0.044943284
189	0x3d67fb9a	0.05663643
190	0x3df5e18a	0.12005909
191	0xbc3bcf34	-0.011462975
192	0xbe3fb544	-0.18721491
193	0xbe306c99	-0.17228927
194	0x3ca0a6ec	0.019610845
195	0x3e20c3bb	0.15699665
196	0xbd792339	-0.060824607
197	0xbd6ab230	-0.05729884
198	0x3d4f414f	0.050599393
199	0x3b130f1c	0.0022439426
200	0xbe68d92f	-0.22739099
201	0xbc6ab257	-0.014324746
202	0x3dc0838a	0.09400089
203	0xbe6f0abe	-0.23343942
204	0x3d2d5d40	0.04232526
205	0x3e1e606d	0.15466471
206	0xbdb1032a	-0.086431816
207	0x3e159b33	0.14609985
208	0xbe436b35	-0.19083865
209	0x3e2e4813	0.17019682
210	0x3e315521	0.1731763
211	0xbdcf96f3	-0.10136213
212	0x3d0fadd0	0.03507787
213	0xbdba82d9	-0.091069885
214	0xbe5e6636	-0.21718678
215	0x3dbfa0ff	0.093568794
216	0xbd5b1eea	-0.05349628
217	0xbdf22995	-0.118243374
218	0xbea3a857	-0.3196437
219	0xbd457e93	-0.048216414
220	0xbc459e42	-0.012061657
221	0x3e002031	0.1251228
222	0x3da40e4e	0.08010541
223	0xbdce4296	-0.10071294
224	0xbdb88b3f	-0.09010934
225	0x3ddeebe0	0.10884833
226	0xbd02e47e	-0.03195619
227	0x3e702db1	0.2345493
228	0xbd713e94	-0.05889757
229	0xbe9c8f22	-0.30577952
230	0x3f041fe1	0.51611143
231	0x3c36b703	0.011152032
232	0x3e432f86	0.19061098
233	0xbe4a59cc	-0.19760817
234	0x3e621ad7	0.22080551
235	0x3e451efd	0.19250102
236	0x3e9c34a8	0.30508924
237	0x3e28ac91	0.16472079
238	0xbdc07e37	-0.093990736
239	0xbed74170	-0.42042112
240	0x3dbf4bce	0.093406305
241	0x3ded7313	0.11594214
242	0x3dea5488	0.11441904
243	0xbd2c6652	-0.042089768
244	0x3de5338e	0.11191474
245	0x3f12a2c2	0.572796
246	0x3dec2d05	0.11532024
247	0x3e8181eb	0.25294432
248	0x3e3a22ee	0.18177387
249	0x3efa2842	0.4885884
250	0x3e07b377	0.13252054
251	0x3d23bdfc	0.039976105
252	0x3e02d6de	0.12777278
253	0x3d24538f	0.04011875
254	0xbcf0f14c	-0.029411934
255	0x3d16e512	0.036839552

cnn_layers.0.bias f4 [8]
0	0x3e0560fc	0.13025278
1	0xbe16117d	-0.14655109
2	0x3e2cb3ed	0.16865511
3	0x3dc0fa2f	0.09422719
4	0xbd2b4315	-0.04181202
5	0x3d0c9d09	0.034329448
6	0xbd982b6a	-0.074301556
7	0xbe20417f	-0.15649985

cnn_layers.1.weight f4 [8]
0	0x3f2ae5c4	0.66756845
1	0x3f4272a3	0.7595617
2	0x3f846aac	1.0345054
3	0x3f4e11dd	0.8049601
4	0x3faf05fd	1.3673702
5	0x3f74bd3c	0.9560125
6	0x3f42e8fc	0.76136756
7	0x3f32b0f7	0.69801277

cnn_layers.1.bias f4 [8]
0	0x3e2a0a4a	0.16605487
1	0x3e92696a	0.2859605
2	0x3e9f28e7	0.31085894
3	0xbedf8059	-0.4365261
4	0xbe38f3ab	-0.18061702
5	0x3d24c19e	0.04022371
6	0xbe4dc3e1	-0.20094253
7	0xbf4a444e	-0.79010475

cnn_layers.1.running_mean f4 [8]
0	0x3e23e848	0.16006577
1	0xbe2c1485	-0.16804703
2	0x3e595406	0.21223459
3	0x3dcecbd8	0.10097474
4	0xbe68df9a	-0.22741547
5	0x3e0a1b07	0.13486873
6	0xbc39bbea	-0.011336306
7	0xbe8ef740	-0.27923012

cnn_layers.1.running_var f4 [8]
0	0x3faf8e25	1.3715254
1	0x3f6a3c7d	0.9149855
2	0x4085fa67	4.1868167
3	0x405016e0	3.2513962
4	0x41b299b0	22.325043
5	0x400e6f41	2.2255404
6	0x400ba3bb	2.1818683
7	0x411a865c	9.657803

cnn_layers.4.weight f4 [14, 8, 3, 1]
0	0xbd564073	-0.052307557
1	0xbdd51840	-0.10405016
2	0x3e0d1061	0.1377578
3	0x3c628346	0.013825243
4	0x3d472e00	0.048627853
5	0xbe3342e8	-0.17505991
6	0xbe02c441	-0.12770177
7	0xbc5ccd05	-0.013476615
8	0x3e2691af	0.16266511
9	0xbde3fbe1	-0.111320265
10	0x3dd62628	0.104564965
11	0x3e410b49	0.18851961
12	0xbe945953	-0.289744
13	0x3da0f526	0.07859258
14	0x3ece96d5	0.4034945
15	0x3e60ff66	0.21972427
16	0x3c02e02d	0.007988018
17	0xbda5380b	-0.0806733
18	0xbe6cc8a5	-0.23123415
19	0x3df14e5a	0.117825225
20	0x3de72b97	0.11287611
21	0xbdd10bc0	-0.10207319
22	0xbe610e2d	-0.21978064
23	0x3cdcb14d	0.026940012
24	0xbcee68ac	-0.029102646
25	0xbdd8190c	-0.10551652
26	0x3e25efe4	0.16204792
27	0xbe24bfe9	-0.16088833
28	0xba02271e	-0.00049649354
29	0xbe221e8b	-0.15831964
30	0x3e3d7463	0.1850143
31	0xbe3eab8c	-0.18620127
32	0xbe2ff0ab	-0.17181651
33	0xbd76b8f3	-0.060234975
34	0xbd613fbd	-0.054992426
35	0xbad0d2cc	-0.0015931963
36	0x3eae1408	0.33999658
37	0x3d6a3358	0.05717787
38	0xbe9ad096	-0.30237263
39	0x3e119723	0.1421781
40	0x3c53c991	0.012926475
41	0x3d5493b7	0.051898684
42	0x3e320af7	0.17386995
43	0xbda50585	-0.080576934
44	0xbe0776e4	-0.13228947
45	0x3e8ba2e6	0.2727272
46	0xbe3e69d1	-0.18595053
47	0xbee09a0b	-0.43867525
48	0x3e8c3071	0.27380708
49	0x3e7efe83	0.24901776
50	0x3c206d31	0.009791658
51	0xbe3837be	-0.17990014
52	0xbe0af8c7	-0.13571464
53	0xbd8da9a6	-0.069171235
54	0xbbf6c3b7	-0.0075306552
55	0xbd075a72	-0.03304524
56	0xbdb9f2b1	-0.09079493
57	0xbe2b94d4	-0.16755992
58	0xbddbae5f	-0.10726618
59	0x3e58ff52	0.21191147
60	0xbebf8ec7	-0.37413618
61	0x3b24fe13	0.0025175854
62	0x3ee8544d	0.45376816
63	0xbdf75209	-0.12076194
64	0xbe1b7ee6	-0.15185127
65	0x3e3dfb14	0.1855281
66	0xbd2e7ea6	-0.04260125
67	0xbd3b82a0	-0.04577887
68	0x3d49ae46	0.049238466
69	0xbd87f125	-0.066377915
70	0xbe25f295	-0.16205819
71	0xbe1bcca9	-0.1521479
72	0x3dc5d2b8	0.09659332
73	0x3d1e0ef1	0.038588468
74	0x3ea317a3	0.3185397
75	0x3ecc5ccd	0.3991455
76	0x3e8f2bc6	0.27963084
77	0x3ebb5ae8	0.36592793
78	0x3e51ca79	0.20487393
79	0x3cdaed1c	0.02672439
80	0x3bbb0cd0	0.0057083145
81	0x3d961721	0.0732863
82	0xbc460862	-0.01208696
83	0xbd7038a2	-0.05864776
84	0xbdf3ab3c	-0.11897895
85	0x3e1dc67a	0.15407744
86	0x3e22c819	0.15896644
87	0xbee568d6	-0.44806546
88	0xbec66bec	-0.38754213
89	0xbdbba802	-0.09162904
90	0xbe16864b	-0.14699666
91	0x3e69f8bf	0.22848795
92	0x3bf74496	0.007546018
93	0x3d5bd3f0	0.053668916
94	0xbe5d22ce	-0.21595308
95	0x3c0c9798	0.008581065
96	0xbdc7386d	-0.09727559
97	0xbdd16ada	-0.102254584
98	0x3da15e38	0.07879299
99	0xbe009599	-0.12557067
100	0x3cc1ee18	0.023673102
101	0x3e2ac53b	0.166768
102	0x3e85a8dc	0.26105392
103	0x3e69f0ff	0.22845839
104	0x3eb35dfe	0.35032648
105	0xbda27919	-0.07933254
106	0xbe0998b4	-0.13437158
107	0xbded05ce	-0.11573373
108	0x3e32958c	0.1743986
109	0x3d006413	0.03134544
110	0xbe7bdb17	-0.24595295
111	0xbe58a716	-0.21157488
112	0xbdd43b20	-0.1036284
113	0xbe51ced5	-0.20489056
114	0xbec65836	-0.38739175
115	0xbe9c4f7d	-0.30529395
116	0xbea7ce4a	-0.32774574
117	0xbcc5b799	-0.024135398
118	0xbd06bc3c	-0.032894358
119	0x3e3f1fae	0.18664429
120	0xbe194d8d	-0.1497099
121	0x3d020724	0.03174509
122	0xbbb05f5f	-0.005382463
123	0xbd51ea31	-0.051248733
124	0x3cbae8b1	0.022816034
125	0x3d04c009	0.0324097
126	0xbc2625ec	-0.010140877
127	0xbd87b254	-0.0662581
128	0x3e010422	0.12599233
129	0x3e239e06	0.1597825
130	0x3dc76805	0.09736637
131	0xbed4298f	-0.41437957
132	0x3f0fe039	0.5620151
133	0x3d26c27c	0.04071282
134	0xbefc9468	-0.49331975
135	0xbe1fd6a7	-0.15609227
136	0xbbf0ed53	-0.00735251
137	0x3db1ecd5	0.0868775
138	0xbb984447	-0.004646811
139	0xbdf340ab	-0.11877569
140	0x3de12234	0.10992852
141	0xbe81c768	-0.25347447
142	0x3ccc08d6	0.024906557
143	0xbe04c718	-0.12966573
144	0xbc02a870	-0.007974729
145	0xbd8d91ff	-0.06912612
146	0xbdad4a59	-0.08461446
147	0x3d5f9388	0.054584056
148	0x3e032de9	0.12810482
149	0xbce8bba9	-0.028409796
150	0x3bc85f8a	0.006114905
151	0xbd7d7083	-0.061874878
152	0x3d682f27	0.056685593
153	0xbbad9ae9	-0.0052980077
154	0x3e37af71	0.1793802
155	0xbd19fc47	-0.037594106
156	0xbebcf680	-0.36906815
157	0x3d1d4344	0.038394228
158	0x3ebf8699	0.37407377
159	0x3d46087e	0.048347943
160	0x3dc8c734	0.0980362
161	0xbd604e95	-0.05476244
162	0xb9eb7b74	-0.00044914673
163	0xbd90e89a	-0.07075615
164	0x3dabcd45	0.083887614
165	0xbe428d18	-0.18999135
166	0xbdf4e53f	-0.11957788
167	0x3ebb6f6b	0.36608443
168	0x3e1a0e24	0.15044457
169	0xbe0e62b0	-0.13904834
170	0x3dd17aee	0.10228525
171	0x3d085fee	0.03329461
172	0x3cd2b61c	0.025721602
173	0x3b901d06	0.004397991
174	0x3ec46d8e	0.38364834
175	0x3e2b9316	0.16755328
176	0xbe98fd9c	-0.2988099
177	0x3e25ad4b	0.16179387
178	0x3cd10ed5	0.025519768
179	0xbeaddb33	-0.33956298
180	0x3ebeb777	0.37249348
181	0x3d8dd469	0.0692528
182	0xbeaa54a0	-0.3326769
183	0xbe943c9a	-0.28952485
184	0xbcb0d030	-0.021583647
185	0xbd18f23c	-0.037340388
186	0xbe0ef083	-0.13958935
187	0xbdc08d85	-0.09401993
188	0xbda0d8d2	-0.07853855
189	0xbe29edab	-0.1659457
190	0xbe413e9c	-0.1887154
191	0xbd890cc3	-0.06691887
192	0xbde57b6a	-0.1120518
193	0x3cd1e66e	0.025622573
194	0x3d7e69c8	0.0621126
195	0x3dc72096	0.09723012
196	0xbc178495	-0.009247919
197	0x3d18a3e7	0.037265684
198	0xbdd05ca4	-0.1017392
199	0x3d8aad5d	0.06771348
200	0x3b5dc327	0.0033838244
201	0xbdfa7f4d	-0.12231312
202	0xbe048e68	-0.12944949
203	0x3ed67276	0.41884202
204	0xbee2e2ed	-0.44313756
205	0xbdfc4a69	-0.1231888
206	0x3ecd047b	0.4004248
207	0xbcf4c4e1	-0.029879035
208	0x3da1324c	0.078709215
209	0x3d633ae0	0.05547607
210	0xbcbaf80c	-0.022823356
211	0xbd877304	-0.06613734
212	0xbd0378e8	-0.032097727
213	0xbe728f04	-0.23687369
214	0x3e8d61ab	0.27613577
215	0x3f2c408b	0.67285985
216	0xbda49d52	-0.08037819
217	0xbe8e8d8c	-0.27842367
218	0x3d297ffa	0.041381814
219	0x3ea1c603	0.31596383
220	0x3e7fbeb3	0.2497509
221	0x3eaf6a05	0.34260574
222	0x3d3b22e4	0.04568757
223	0x3dedaa93	0.116048
224	0x3e046946	0.12930784
225	0x3e0f72cf	0.1400864
226	0xbde9131f	-0.113806
227	0xbd51b083	-0.051193725
228	0x3c00b766	0.007856226
229	0x3e1b59d6	0.15170988
230	0xbc278c9c	-0.010226395
231	0xbe906279	-0.2820013
232	0xbec70557	-0.3887126
233	0xbd5c0829	-0.05371872
234	0xbd1a106d	-0.03761332
235	0x3d279d78	0.04092166
236	0x3e0fac37	0.14030538
237	0xbe99dee1	-0.30052856
238	0xbd96b7fa	-0.073593095
239	0x3de2814d	0.110598184
240	0xbce08ce0	-0.027410924
241	0xbd9a9604	-0.075481445
242	0x3e44dc78	0.19224727
243	0x3e368ecf	0.17827915
244	0x3e7f8605	0.24953468
245	0x3ec79011	0.389771
246	0xbcd9d8ce	-0.026592638
247	0xbdb8673c	-0.090040654
248	0x3e9682df	0.29396722
249	0x3ba0147a	0.0048852535
250	0x3d45e1dd	0.048311103
251	0x3d681600	0.056661606
252	0x3d07dcd6	0.03316959
253	0x3c82273f	0.015887855
254	0x3c94baa2	0.0181554
255	0xbe7e492a	-0.24832597

cnn_layers.4.bias f4 [14]
0	0x3d21d85f	0.03951299
1	0x3d8ee009	0.06976325
2	0xbddde5a6	-0.108348176
3	0xbc9a0a5d	-0.01880377
4	0x3e975c7a	0.29562742
5	0x3e081e1f	0.1329274
6	0x3d8ca70f	0.068678014
7	0xbe814719	-0.25249556
8	0x3ef18f5d	0.4717969
9	0x3eb19daa	0.346906
10	0xbe814209	-0.25245693
11	0xbd9961fb	-0.074893914
12	0xbe164ac4	-0.14676958
13	0x3e310368	0.17286456

cnn_layers.5.weight f4 [14]
0	0x4001a0f5	2.025449
1	0x400e74be	2.2258754
2	0x3fe55c10	1.791872
3	0x3f9ec441	1.2403642
4	0x3fca3df4	1.5800157
5	0x3fc7f8f1	1.5622846
6	0x3ff6e87c	1.9289699
7	0x3fd5d313	1.670504
8	0x401a81b6	2.414167
9	0x3fa8b016	1.3178737
10	0x3fb5e27a	1.420974
11	0x3fa76eb9	1.3080665
12	0x3fa5a412	1.2940695
13	0x3fa2072e	1.2658441

cnn_layers.5.bias f4 [14]
0	0x3ecdb3e1	0.401763
1	0x3f7065ad	0.93905145
2	0x3e89bf56	0.2690379
3	0x3e6d448b	0.23170678
4	0x3ea694be	0.32535356
5	0x3ea8b904	0.32953656
6	0xbe1ca0c3	-0.152957
7	0x3ebb4587	0.36576483
8	0xbebdebbd	-0.37093917
9	0x3e81e6b8	0.25371337
10	0x3e93c278	0.28859305
11	0x3ec0c192	0.37647682
12	0x3ea7f1d9	0.32801703
13	0x3e89af4d	0.26891556

cnn_layers.5.running_mean f4 [14]
0	0x3e264729	0.16238083
1	0xbdf2f746	-0.1186357
2	0xbe56bda5	-0.20970781
3	0x3f027145	0.50954086
4	0x3ea73ae4	0.32662117
5	0x3d768056	0.060180984
6	0x3e341327	0.17585431
7	0xbe860155	-0.2617289
8	0x3f0ee737	0.55821556
9	0x3f1b5572	0.60677254
10	0x3c5da69a	0.01352849
11	0x3d857e50	0.06518233
12	0x3e40ff24	0.18847328
13	0x3e852953	0.2600809

cnn_layers.5.running_var f4 [14]
0	0x3d0332e3	0.03203095
1	0x3c9953c9	0.01871671
2	0x3ca29e4f	0.019850878
3	0x3dc7acfe	0.097497925
4	0x3df89cb5	0.121392645
5	0x3c3b2e5b	0.011424626
6	0x3c1bf0e2	0.00951788
7	0x3cc53c15	0.0240765
8	0x3c678eda	0.01413318
9	0x3d2b6f9a	0.04185448
10	0x3d2d82e5	0.04236116
11	0x3ebec04a	0.3725608
12	0x3e751e6a	0.23937383
13	0x3e2213b7	0.15827833

linear_layers.0.weight f4 [131, 28]
0	0xbee6af9b	-0.4505585
1	0xbe389e7d	-0.18029208
2	0xbfcafcec	-1.5858436
3	0xbf89ea25	-1.077458
4	0xbf8e6d0f	-1.1127032
5	0xbf30a09c	-0.6899507
6	0xbeb7d1b6	-0.35902184
7	0xbe01c2ba	-0.12671939
8	0xbed9d41d	-0.42544642
9	0xbeb7dd72	-0.35911137
10	0xbf19801c	-0.59961104
11	0xbed2f38b	-0.41201434
12	0x3f3cb812	0.7371837
13	0x3f6e7eb3	0.9316208
14	0xbeaa7744	-0.33294117
15	0xbf0e4dca	-0.55587447
16	0x3f96753b	1.1754526
17	0x3fbf4711	1.4943563
18	0xbe80c764	-0.25152123
19	0xbe8fa211	-0.28053334
20	0xbe1fa3e1	-0.15589859
21	0xbdfe7a26	-0.12425642
22	0xbebf8741	-0.37407878
23	0xbec34f0f	-0.38146254
24	0xbeac9401	-0.33706668
25	0xbed0f52a	-0.40812045
26	0xbed697e1	-0.4191275
27	0xbea9419c	-0.33057868
28	0x3e288df0	0.16460395
29	0xbdcbad14	-0.099451214
30	0xbfd3035e	-1.6485403
31	0xbfaa653b	-1.3312143
32	0xbf753580	-0.9578476
33	0xbef40101	-0.47657016
34	0xbea846e5	-0.32866588
35	0x3b92aaf7	0.004475947
36	0xbf07d075	-0.53052455
37	0xbf14e69c	-0.5816438
38	0xbf12c3ce	-0.57330024
39	0xbf2faca8	-0.6862283
40	0x3f1db923	0.6161062
41	0x3f44e9c9	0.7691923
42	0xb861fdfc	-5.388072e-05
43	0xbe6654c6	-0.22493276
44	0x3f83b792	1.0290396
45	0x3fac2ded	1.3451515
46	0xbe1b44ae	-0.15162918
47	0xbe8f7ed5	-0.28026453
48	0xbee7b5e1	-0.4525595
49	0xbe3a181e	-0.18173262
50	0xbe8b8dfb	-0.2725676
51	0xbe3ee3a3	-0.18641524
52	0xbe8c91ba	-0.2745493
53	0xbef94de6	-0.48692244
54	0xbe3f8057	-0.18701302
55	0xbefb84e3	-0.49124822
56	0x3ddf7520	0.10911012
57	0x3dff868e	0.12476836
58	0xbfbb1f8f	-1.4619006
59	0xbfb22da0	-1.3920174
60	0xbf4263ad	-0.75933343
61	0xbe8c996a	-0.27460796
62	0xbe6a757c	-0.22896379
63	0xbe2062e7	-0.15662728
64	0xbef1b8ea	-0.4721139
65	0xbef00820	-0.468812
66	0xbf22e397	-0.63628525
67	0xbf05e6ad	-0.5230511
68	0x3f497fca	0.78710616
69	0x3f30019f	0.68752474
70	0xbdbca0cb	-0.09210356
71	0xbd3209fa	-0.043466546
72	0x3f6f480c	0.9346931
73	0x3f98b846	1.1931236
74	0xbe4c82b0	-0.19971728
75	0xbe9c050a	-0.30472594
76	0xbeebf587	-0.4608576
77	0xbe760567	-0.24025498
78	0xbe8896e5	-0.26677623
79	0xbe9eb434	-0.3099686
80	0xbecdb6b6	-0.4017846
81	0xbe3bac5d	-0.1832747
82	0xbed8bd9c	-0.4233216
83	0xbe8453ef	-0.25845286
84	0x3e83a97a	0.25715238
85	0x3dc9a631	0.098461516
86	0xbfa52da1	-1.290455
87	0xbfb52f60	-1.4155083
88	0xbf26c722	-0.651476
89	0xbd12cc58	-0.03583941
90	0xbe735ee1	-0.23766662
91	0xbe9b8327	-0.303735
92	0xbf1a32fd	-0.6023405
93	0xbe8e970a	-0.2784961
94	0xbf1b8652	-0.6075183
95	0xbf28ea85	-0.6598285
96	0x3f2ce018	0.6752944
97	0x3f3c344c	0.735173
98	0xbc4fa48f	-0.012673511
99	0xbe313b7e	-0.1730785
100	0x3f73542f	0.9505033
101	0x3f87f058	1.0620222
102	0xbeca6d06	-0.39536303
103	0xbe0619ae	-0.13095734
104	0xbef3f4ea	-0.47647792
105	0xbe9699a2	-0.29414088
106	0xbe0a6656	-0.135156
107	0xbda3e875	-0.08003322
108	0xbede9be8	-0.43478322
109	0xbe807e9f	-0.25096604
110	0xbedd8c9b	-0.43271336
111	0xbe55ceb7	-0.20879637
112	0x3e901a0a	0.28144866
113	0x3dfbcb5c	0.12294647
114	0xbf92d712	-1.1471884
115	0xbfa43ff3	-1.2832016
116	0xbe81a3a9	-0.25320175
117	0xbda5d4ed	-0.08097253
118	0xbe072924	-0.13199288
119	0xbe74acb6	-0.23894009
120	0xbf10b740	-0.5652962
121	0xbec1abd6	-0.37826413
122	0xbec4878e	-0.3838467
123	0xbf2e4cc6	-0.68085897
124	0x3f078de6	0.52950895
125	0x3f4e2dd6	0.8053869
126	0xbec06754	-0.37578833
127	0xbdb224ee	-0.0869845
128	0x3f6ceb41	0.9254647
129	0x3f70be54	0.9404042
130	0xbe97a793	-0.29620036
131	0xbe8fad8f	-0.28062102
132	0xbea06048	-0.31323457
133	0xbe46633b	-0.19373791
134	0xbe6039fd	-0.21897121
135	0xbe44803e	-0.19189546
136	0xbef259c6	-0.47334117
137	0xbefc7acf	-0.49312446
138	0xbf0120f6	-0.5044092
139	0xbe5d8085	-0.21631058
140	0x3ded0716	0.11573617
141	0x3e036372	0.12830904
142	0xbf60a955	-0.8775838
143	0xbf9a8cc5	-1.207421
144	0x3deb3ab6	0.114858076
145	0xbeb8085d	-0.3594388
146	0xbeca846a	-0.3955415
147	0xbe8d29b6	-0.27570885
148	0xbee8c6dc	-0.45464218
149	0xbf271483	-0.65265673
150	0xbed261f5	-0.4109036
151	0xbee8b4d5	-0.45450464
152	0x3f1aa12c	0.6040218
153	0x3f839eb1	1.0282804
154	0xbecd0111	-0.40039876
155	0xbec90164	-0.39258873
156	0x3f50f166	0.81618345
157	0x3f54efc4	0.83178353
158	0xbea42cbd	-0.32065383
159	0xbeb083c5	-0.34475532
160	0xbeb315cb	-0.34977564
161	0xbeb6a162	-0.3567
162	0xbe4219da	-0.18955174
163	0xbec6556c	-0.38737047
164	0xbee867de	-0.45391744
165	0xbe934b6b	-0.28768477
166	0xbe8bb3d8	-0.27285647
167	0xbe7646d3	-0.24050455
168	0x3e020915	0.12698777
169	0x3eaeaad6	0.34114712
170	0xbf4e86c3	-0.8067438
171	0xbf976e51	-1.1830541
172	0x3d6c0404	0.057621017
173	0xbdde69bf	-0.10860013
174	0xbebf3fcf	-0.3735337
175	0xbe7b9e6a	-0.24572149
176	0xbeec398c	-0.46137655
177	0xbec75b08	-0.3893664
178	0xbf134283	-0.57523364
179	0xbf1e26a2	-0.617777
180	0x3f0ed631	0.5579558
181	0x3f851fd0	1.0400333
182	0xbec63f8d	-0.3872036
183	0xbed5c79d	-0.41753855
184	0x3f43064f	0.761815
185	0x3f28786e	0.6580876
186	0xbeab1767	-0.33416292
187	0xbe3fd415	-0.18733247
188	0xbefd129c	-0.4942826
189	0xbe8015f7	-0.25016758
190	0xbe4de1e4	-0.20105702
191	0xbe0752f8	-0.13215244
192	0xbe3a9ca4	-0.18223816
193	0xbf096cae	-0.5368146
194	0xbf084b15	-0.53239566
195	0xbec554f2	-0.3854137
196	0x3e8ac89c	0.27106178
197	0x3f03ca85	0.51480895
198	0xbf556bd1	-0.8336764
199	0xbf967129	-1.1753284
200	0x3eadf816	0.33978337
201	0xbe86166c	-0.26188982
202	0xbec3b166	-0.38221282
203	0xbd80a7f3	-0.06282034
204	0xbf2969b4	-0.66176915
205	0xbeb4cc24	-0.35311997
206	0xbf167c91	-0.58783823
207	0xbefcbc88	-0.49362588
208	0x3f1d8928	0.6153741
209	0x3f517142	0.8181344
210	0xbe79cc60	-0.24394369
211	0xbe2a19cb	-0.16611402
212	0x3f024833	0.5089142
213	0x3f2fa42c	0.6860988
214	0xbe9371d6	-0.28797787
215	0xbe4841e5	-0.19556387
216	0xbecd50e3	-0.40100774
217	0xbf01732c	-0.50566363
218	0xbee2de7e	-0.44310373
219	0xbebd2a66	-0.3694641
220	0xbf031c50	-0.51215076
221	0xbe93a715	-0.2883841
222	0xbef55c80	-0.47922134
223	0xbee16c65	-0.4402801
224	0x3ee65bef	0.44992015
225	0x3f1b54cc	0.60676265
226	0xbf693100	-0.91090393
227	0xbf81b1c7	-1.0132378
228	0x3ee0db13	0.4391714
229	0x3b91de90	0.0044515803
230	0xbe9f4ae5	-0.31111827
231	0xbd227422	-0.039661534
232	0xbef6e4c6	-0.48221415
233	0xbf0254a6	-0.50910413
234	0xbf03da79	-0.5150524
235	0xbee2c71c	-0.44292533
236	0x3ef88561	0.4853926
237	0x3f011a66	0.50430906
238	0xbef81b66	-0.48458403
239	0xbe106033	-0.14099197
240	0x3edb5eca	0.42845756
241	0x3f41ba71	0.7567511
242	0xbe88201c	-0.26586998
243	0xbe60181e	-0.218842
244	0xbe5b266c	-0.21401376
245	0xbef02770	-0.46905088
246	0xbec7cf49	-0.39025334
247	0xbecdbfa0	-0.4018526
248	0xbeec4995	-0.4614989
249	0xbe9beefd	-0.3045577
250	0xbefc7ace	-0.49312443
251	0xbe98c2da	-0.2983616
252	0x3ea3b54b	0.31974253
253	0x3f248c11	0.64276224
254	0xbf643185	-0.8913806
255	0xbf3cae5a	-0.7370354

linear_layers.0.bias f4 [131]
0	0xbf2ad156	-0.6672567
1	0xbf41503c	-0.7551305
2	0xbf55546b	-0.83331937
3	0xbf43a035	-0.7641633
4	0xbf23c20a	-0.63967955
5	0xbed6d70b	-0.4196094
6	0xbef3238c	-0.47488058
7	0xbef8b622	-0.48576456
8	0xbf24b1df	-0.6433391
9	0xbee14d46	-0.44004267
10	0xbeb75766	-0.35808867
11	0xbecb7f66	-0.39745635
12	0xbebd28d3	-0.3694521
13	0xbe9184a7	-0.28421518
14	0xbf0573cd	-0.5212982
15	0xbea22c14	-0.31674254
16	0xbeed1378	-0.46303916
17	0xbf076fd4	-0.5290501
18	0xbee016ca	-0.43767387
19	0xbeda964f	-0.426928
20	0xbea9c8c4	-0.33160985
21	0xbe7587ad	-0.23977537
22	0xbe76dac5	-0.24106891
23	0xbe966c62	-0.29379565
24	0xbf0114cb	-0.5042235
25	0xbdb5931a	-0.08865948
26	0xbe9173f2	-0.28408772
27	0xbea85e2a	-0.3288434
28	0xbe691885	-0.2276326
29	0xbddaad8a	-0.10677631
30	0xbe51eaf5	-0.20499785
31	0xbdbf7e12	-0.09350218
32	0xbe0b3fc9	-0.13598551
33	0xbe50105a	-0.20318738
34	0xbe0b7bc6	-0.13621435
35	0x3c8452b6	0.01615272
36	0x3dea7943	0.1144891
37	0xbd811255	-0.06302325
38	0xb9196314	-0.00014628127
39	0x3b47cc10	0.003048662
40	0x3d06b87b	0.032890778
41	0xbd8309b0	-0.06398332
42	0x3d494cb7	0.049145427
43	0xbdcebd4a	-0.10094698
44	0x3cbb7a95	0.0228856
45	0x3d28a43d	0.041172255
46	0x3e31ffad	0.17382689
47	0x3d2c8716	0.042121015
48	0xbd3a03c9	-0.045413766
49	0xbdb9d926	-0.09074621
50	0xbc068293	-0.008209842
51	0x3e5f3027	0.21795712
52	0x3c4fffc6	0.0126952585
53	0x3c56599a	0.013082886
54	0xbd9cb965	-0.07652549
55	0xbde562de	-0.11200498
56	0xba0ce2a8	-0.00053743506
57	0xbdf2f378	-0.11862844
58	0xbd0c896e	-0.03431075
59	0xbdcbe8ae	-0.099564895
60	0x3da8c1b2	0.082400694
61	0x3e2c0e63	0.16802363
62	0x3d396156	0.045258842
63	0x3e55ba91	0.2087195
64	0x3e2f4007	0.17114268
65	0x3e0ab454	0.13545352
66	0x3dd97ebc	0.10619876
67	0x3e4676c6	0.19381246
68	0x3e220443	0.15821938
69	0x3e3f81cb	0.18701856
70	0x3d0095b8	0.031392783
71	0x3de44816	0.11146562
72	0xbd39de10	-0.04537779
73	0xbd443041	-0.04789758
74	0xbd8e98f9	-0.06962771
75	0xbd9c9691	-0.07645906
76	0xbd8f7c5f	-0.07006144
77	0xbd87ca9b	-0.06630441
78	0x3d85cbcd	0.065330125
79	0x3dfbf202	0.12302019
80	0x3d68465f	0.056707736
81	0xbdbefad9	-0.09325189
82	0xbb8becd3	-0.004270175
83	0xbe27553a	-0.16341105
84	0xbd35106f	-0.044205125
85	0x3d17806b	0.036987703
86	0x3c3295c1	0.010899962
87	0x3db83b8d	0.089957334
88	0x3ddfd20d	0.10928736
89	0x3ea95cf8	0.33078742
90	0x3cbd905b	0.023140123
91	0x3dc331a5	0.09530953
92	0xbde9d5f5	-0.11417762
93	0xbe5396e7	-0.20663033
94	0x3d076ac9	0.033060823
95	0xbe289398	-0.16462553
96	0xbe58315f	-0.21112584
97	0xbd3e2ffc	-0.04643248
98	0xbdb17e04	-0.08666614
99	0xbc2da855	-0.0105992155
100	0xbd367d8e	-0.044553332
101	0xbe03f91e	-0.12888
102	0xbe67daa4	-0.22641999
103	0xbd59c653	-0.053167652
104	0x3e28411e	0.1643109
105	0x3cdfdd86	0.02732731
106	0x3cdb62a4	0.026780434
107	0xbdf98bd7	-0.121848755
108	0xbd281f15	-0.041045267
109	0xbe634a92	-0.22196415
110	0xbe68616d	-0.22693415
111	0xbeedb0a5	-0.46423832
112	0xbe8e5b71	-0.2780414
113	0xbf0db8d9	-0.5536018
114	0xbef6e6e4	-0.4822303
115	0xbeb4a7a6	-0.35284156
116	0xbec2ae74	-0.38023722
117	0xbeab811a	-0.33496934
118	0xbec952ed	-0.3932108
119	0xbea5dc52	-0.32394654
120	0xbe96d416	-0.29458684
121	0xbe5afdd8	-0.21385896
122	0xbef8adc4	-0.48570073
123	0xbea6856c	-0.32523668
124	0xbed1ecdd	-0.41001025
125	0xbedbcc04	-0.4292909
126	0xbed006d2	-0.40630203
127	0xbebac8ed	-0.3648142
128	0xbf080f9a	-0.53148806
129	0xbf285eff	-0.6576995
130	0x3ea1228d	0.31471673
