model/model_FD004.onnx (onnx, 5356 bytes, 5 tensors)

linear_layers.0.weight f4 [1, 28]
0	0x3fcc548f	1.5963305
1	0x3fc2f6f3	1.5231613
2	0x3fcc2f64	1.5951962
3	0x3fdb4563	1.713055
4	0x3fcde316	1.6084926
5	0x3fc85608	1.5651255
6	0x3fcf9736	1.6218021
7	0x3fc66d67	1.5502137
8	0x3fd32a27	1.6497239
9	0x3fde8c76	1.7386615
10	0x3fc8f8a7	1.5700883
11	0x3fd2dc2e	1.6473444
12	0x3fd8294b	1.6887602
13	0x3fc88c19	1.5667754
14	0x3fd3b805	1.6540533
15	0x3fbfbc86	1.4979408
16	0x3fd667c5	1.6750418
17	0x3fc43320	1.5328102
18	0x3fc0aef4	1.5053391
19	0x3fd7cdca	1.6859677
20	0x3fc60485	1.5470129
21	0x3fd4a759	1.661357
22	0x3fdf9006	1.7465827
23	0x3fd5d6c4	1.6706166
24	0x3fd04779	1.6271812
25	0x3fcf383c	1.6189036
26	0x3fda28bc	1.7043681
27	0x3fb61b0b	1.4227003

31 f4 [8, 1, 4, 21]
0	0x3e844c6a	0.2583955
1	0x3e86bd47	0.26316282
2	0xbe3d32ff	-0.18476485
3	0xbe4a6f9d	-0.1976914
4	0x3dd634e6	0.10459308
5	0x3c796e66	0.015224075
6	0xbda483d2	-0.08032955
7	0x3e499029	0.19683899
8	0xbd870a27	-0.06593733
9	0xbee732d6	-0.45155972
10	0xbe9edf55	-0.31029764
11	0xbbdbbb62	-0.0067056874
12	0x3cd5e61e	0.026110705
13	0xbe87a35f	-0.2649183
14	0xbf00972b	-0.50230664
15	0x3ec4c5a6	0.38432044
16	0xbdbbe700	-0.09174919
17	0x3dad3468	0.08457261
18	0x3dd70a43	0.10500004
19	0x3cba55d7	0.02274601
20	0xbdd2aaa4	-0.10286453
21	0x3ec2ac22	0.38021952
22	0x3deef134	0.116670996
23	0xbe3c62ca	-0.1839706
24	0xbe1c2e87	-0.15252124
25	0x3ca86c24	0.020559378
26	0xbe5fedab	-0.21868007
27	0x3dc0822e	0.0939983
28	0x3eaa29e2	0.3323508
29	0xbd26edef	-0.040754255
30	0xbf00d824	-0.50329804
31	0xbf0e4f3e	-0.55589664
32	0x3df4f9dd	0.1196172
33	0x3e2035e5	0.15645559
34	0xbf482651	-0.78183466
35	0xbf0e212e	-0.5551938
36	0x3f2a8b1b	0.6661851
37	0xbe932bb9	-0.28744295
38	0x3eae74e5	0.34073558
39	0x3e80b311	0.25136617
40	0xbe1d6b81	-0.1537304
41	0x3d5a853c	0.05334972
42	0x3e0000c5	0.12500294
43	0x3ca2ce15	0.019873658
44	0xbd83cc88	-0.064354956
45	0xbe76a426	-0.24086055
46	0xbc4d2795	-0.012521644
47	0x3d8db4f0	0.06919277
48	0x3cd541cc	0.026032351
49	0x3d29c3c3	0.04144646
50	0xbe008c33	-0.12553482
51	0xbd1b7108	-0.037949592
52	0xbe368b5b	-0.17826597
53	0x3dc48019	0.09594745
54	0x3e05f69c	0.13082355
55	0xbe61ee62	-0.22063592
56	0xbe92aded	-0.2864832
57	0x3da2db4a	0.07951982
58	0xbe0497e1	-0.12948562
59	0x3d125a3a	0.035730578
60	0x3dcbb58d	0.099467374
61	0x3d8073c7	0.06272083
62	0x3cfb5593	0.030680453
63	0xbddab6f5	-0.106794275
64	0x3daf6cf6	0.085657045
65	0xbd82e5cd	-0.06391487
66	0xbdfeefac	-0.124480575
67	0x3d97f6a9	0.074200936
68	0x3d0be7ae	0.034156494
69	0x3dbc52b1	0.0919546
70	0x3ecd02d7	0.4004123
71	0x3d434bce	0.047679715
72	0xbd2738c4	-0.04082562
73	0xbe0c5301	-0.13703538
74	0xbe00c499	-0.12574996
75	0x3e1819d0	0.14853597
76	0xbec88c3e	-0.39169496
77	0xbf24c989	-0.6437002
78	0x3cf2a21d	0.029618317
79	0xbe1c9df7	-0.15294634
80	0x3e11543c	0.14192289
81	0x3e1239c7	0.14279853
82	0xbe318b11	-0.17338206
83	0xbc9a4388	-0.01883103
84	0x3b42a104	0.0029698024
85	0xbc805516	-0.015665572
86	0xbcad3395	-0.02114276
87	0xbd24f679	-0.040274117
88	0xbc715562	-0.0147298295
89	0x3d11a01b	0.03555308
90	0x3ca9a8a8	0.020710304
91	0x3caf5a16	0.021405261
92	0x3b565c84	0.0032708952
93	0x3db62d69	0.0889538
94	0xbd319dde	-0.043363445
95	0x3cf23b69	0.029569345
96	0x3b68f96a	0.0035549053
97	0xbc08f932	-0.008360194
98	0x3d2434fa	0.040089585
99	0xbd576fb4	-0.052596763
100	0x3b8695f2	0.0041072303
101	0x3d0017f9	0.031272862
102	0x3c9ce0e4	0.019150205
103	0x3b19fd10	0.0023496784
104	0x3c66067c	0.014039632
105	0x3cc1d3c1	0.023660542
106	0xbcb153bc	-0.021646373
107	0xbc60c809	-0.013719567
108	0xbd07322e	-0.03300684
109	0xbc37abf5	-0.011210431
110	0x3d56af5c	0.05241333
111	0xbbeb9a67	-0.007190037
112	0x3acd81ac	0.0015678904
113	0xbcee3c1e	-0.0290814
114	0x3dd0e650	0.102001786
115	0xbcfecb28	-0.031102732
116	0x3cd72b21	0.026265683
117	0xbc2a96e3	-0.010411951
118	0xbcc5fbf7	-0.024167998
119	0x3c92c839	0.01791774
120	0xbce42a2c	-0.02785214
121	0x3b766400	0.0037596226
122	0x3cf68b52	0.03009573
123	0x3c0052f8	0.007832281
124	0x3cb9d675	0.022685269
125	0x3ccf0bd3	0.025274193
126	0xbce15998	-0.027508542
127	0x3cb50c56	0.022100609
128	0xbd6d29e9	-0.057901297
129	0xbdbdffd9	-0.09277315
130	0xbdf054a8	-0.11734897
131	0xbd1c2fc4	-0.03813149
132	0xbdab9aac	-0.08379111
133	0xbbaf8ac4	-0.0053571183
134	0xbd30989e	-0.043114297
135	0xbe1f1576	-0.1553553
136	0xbd8c976c	-0.06864819
137	0xbd5e5a67	-0.054285433
138	0x3c96aee3	0.01839394
139	0xbcb35084	-0.021888979
140	0x3dde9232	0.10867728
141	0xbd5d5b09	-0.054041896
142	0xbb986d22	-0.0046516815
143	0x3c1a93d0	0.009434655
144	0x3bc21f45	0.005924138
145	0xbd93f0f9	-0.07223696
146	0xbd76714e	-0.06016665
147	0x3d11295b	0.03543983
148	0x3cc6ee2e	0.024283495
149	0xbca34610	-0.01993087
150	0xbc5171ba	-0.012783462
151	0xbcaf4689	-0.021395938
152	0xbb70781f	-0.0036692692
153	0xb9a9c38c	-0.00032379886
154	0x3d26458d	0.040593673
155	0xb97cd847	-0.00024113162
156	0x3db06515	0.0861303
157	0xbda944e2	-0.082650915
158	0xbc3ab3b1	-0.011395381
159	0x3ca762f8	0.020432934
160	0xbd2ca1ab	-0.042146366
161	0xbbd89e7b	-0.006610689
162	0xbd76e726	-0.060279034
163	0xbcaa2c80	-0.020773172
164	0x3ca3a5e5	0.019976566
165	0x3d0b1a8d	0.033960868
166	0x3b993648	0.0046756603
167	0x3d0da64b	0.034582417
168	0x3e49069b	0.19631426
169	0xbce8b846	-0.02840818
170	0xbdb8ff02	-0.09033014
171	0xbe2d5c78	-0.16929805
172	0xbe045213	-0.12921934
173	0x3dcf98ea	0.10136588
174	0xbe00ac16	-0.12565646
175	0xbb11f2de	-0.0022270004
176	0x3d14a413	0.036289286
177	0x3ec22c9a	0.37924653
178	0xbdc1f78e	-0.094710454
179	0xbd677257	-0.056505527
180	0x3e94d1ae	0.29066223
181	0x3c35ffd6	0.011108359
182	0x3e86b6f7	0.26311466
183	0xbd9ae2dc	-0.07562801
184	0xbe24e082	-0.16101268
185	0x3e4e6615	0.20156129
186	0xbdb471f3	-0.088107966
187	0x3cd05e2c	0.02543553
188	0x3e83773c	0.25676906
189	0x3e31c916	0.17361864
190	0x3e1c33c6	0.15254125
191	0xbe16d380	-0.14729118
192	0xbebca20d	-0.36842385
193	0xbdb75754	-0.089522034
194	0x3e395c8d	0.18101712
195	0xbd9be64c	-0.07612285
196	0x3e3a6efb	0.18206398
197	0x3dbc6730	0.09199369
198	0x3f44168b	0.765969
199	0xbeaffb45	-0.3437139
200	0x3d6b9ac6	0.05752065
201	0x3e0f4f4e	0.13995096
202	0xbe16b6da	-0.1471819
203	0x3e8558ab	0.2604421
204	0xbe1e7eaf	-0.15478013
205	0xbe8285b6	-0.25492638
206	0x3db6e327	0.089300446
207	0x3e8b7393	0.27236614
208	0xbd973d34	-0.073847204
209	0x3e4f856e	0.20265743
210	0x3ea08f59	0.31359366
211	0xbe236cb4	-0.15959436
212	0x3be65e01	0.007030249
213	0xbe5ca81c	-0.21548504
214	0xbe0dd09d	-0.13849111
215	0x3e114163	0.141851
216	0xbb1b8e7f	-0.0023736057
217	0x3df53c4c	0.11974391
218	0xbe1ade46	-0.15123853
219	0x3eeed53e	0.46647066
220	0xbeaacb72	-0.3335834
221	0xbe2b0571	-0.16701294
222	0xbd52b5ea	-0.051443018
223	0xbe368c14	-0.17826873
224	0xbd45e024	-0.04830946
225	0xbdfb39f1	-0.12266911
226	0xbde37a2f	-0.11107289
227	0x3e881bfd	0.26583853
228	0x3e90b28f	0.2826123
229	0x3d56c2ec	0.052431986
230	0x3e245faa	0.16052118
231	0x3eb1c8a5	0.34723392
232	0xbcb84523	-0.022493904
233	0xbdd16e4a	-0.10226114
234	0xbeca2677	-0.3948247
235	0x3d691baf	0.056911167
236	0x3e39bec4	0.18139178
237	0xbe51a7d2	-0.20474175
238	0x3e8c46ad	0.2739767
239	0xbe3d79ac	-0.18503445
240	0x3ed90d19	0.42392805
241	0xbec485ed	-0.38383427
242	0x3dfc2feb	0.12313827
243	0x3eb12433	0.3459793
244	0xbe28e18b	-0.16492288
245	0x3ebe2d76	0.3714406
246	0x3dbedc87	0.09319406
247	0xbde1792d	-0.110094406
248	0x3e8214d6	0.25406522
249	0x3df799c3	0.120898746
250	0x3dc3b0b3	0.09555187
251	0x3c1c6c0a	0.009547243
252	0xbcb7f075	-0.022453526
253	0x3cbcef23	0.023063248
254	0x3cacda30	0.021100134
255	0xbd4e059d	-0.050298322

32 f4 [8]
0	0xbec81b95	-0.39083543
1	0xbe4dcb94	-0.2009719
2	0x3f95c7fa	1.1701653
3	0xbeb6096e	-0.3555407
4	0xbe59e6f0	-0.21279502
5	0xbeea24f2	-0.45731312
6	0xbe30f636	-0.17281422
7	0x3ee3cb1a	0.44490892

34 f4 [14, 8, 3, 1]
0	0xbf9b875b	-1.2150682
1	0x40334842	2.8012853
2	0xc05b52c1	-3.426926
3	0xbf911eb3	-1.1337494
4	0x3fc15664	1.5104489
5	0x40d5d2d4	6.681986
6	0x3eab8b93	0.33504924
7	0xbf8889a9	-1.066701
8	0x40f49ba5	7.6439996
9	0xbe57c8a0	-0.21072626
10	0xbf44c903	-0.7686922
11	0x405eb5db	3.4798496
12	0xbf63b50d	-0.88948137
13	0xbecd00ce	-0.40039676
14	0x40bd26fd	5.9110093
15	0xc00fefe8	-2.2490177
16	0xbde95562	-0.113932386
17	0x40cfb560	6.4908905
18	0xbf30e482	-0.69098675
19	0xbf4eac85	-0.80731994
20	0xc0318c50	-2.774189
21	0xc00e129e	-2.2198863
22	0x3b81fdbd	0.0039670155
23	0x40997d06	4.7965117
24	0xbf9a65df	-1.2062339
25	0x3fac66a7	1.3468827
26	0xc08db098	-4.427807
27	0xbfec2f8d	-1.8452011
28	0x3f257d53	0.64644355
29	0x40e2d2f0	7.088249
30	0xbfb2dcdd	-1.3973652
31	0xbfdcea76	-1.7259052
32	0x410e8a04	8.908695
33	0x3f5bab30	0.85808086
34	0x3ebd81a5	0.37012973
35	0x400f73d7	2.2414453
36	0xbeae2742	-0.34014326
37	0x3b4cc791	0.003124688
38	0x40d3a0c9	6.613377
39	0xc00d9873	-2.2124298
40	0x3f03f41e	0.5154437
41	0x40f02f6c	7.505789
42	0x3bff97ad	0.0078000636
43	0x3dc66c52	0.09688629
44	0xc058b2b5	-3.3859074
45	0xbfd6595c	-1.674602
46	0x3f8db2f7	1.1070241
47	0x40aaa183	5.332216
48	0x3f5ba956	0.8580526
49	0xc00aef09	-2.1708395
50	0xc0a0fede	-5.0311117
51	0x3fe40dcd	1.7816712
52	0x3ff386d0	1.9025517
53	0x407287b7	3.7895334
54	0x3fe088b2	1.7541716
55	0xbd926476	-0.07148068
56	0x40c187bf	6.0478206
57	0x4034cee3	2.8251274
58	0x3e8dc7f7	0.27691624
59	0x40190c6a	2.3913827
60	0x3ea170af	0.31531283
61	0x3f316564	0.69295335
62	0x405fb1b4	3.4952211
63	0xbe718d08	-0.23588955
64	0x3e56cefd	0.20977397
65	0x40443028	3.0654392
66	0xbf4ebdf2	-0.80758584
67	0x3f29b3b9	0.6628986
68	0xbfffbc3d	-1.9979321
69	0x3f031174	0.51198506
70	0x3f135270	0.57547665
71	0x4010a8a3	2.2602928
72	0xc0925c54	-4.5737705
73	0xc0c43964	-6.1320057
74	0xc081135d	-4.0336137
75	0x4017738c	2.3664274
76	0x3f952b41	1.1653825
77	0x3fd0ae40	1.6303177
78	0x3fadcbaa	1.3577778
79	0x3ff0e3ee	1.8819559
80	0x40838129	4.1095166
81	0x40d0f58e	6.529975
82	0xc0604451	-3.5041697
83	0x3f7e55fe	0.99349964
84	0x3de7d1b6	0.11319296
85	0x3f8489a0	1.03545
86	0x40199fd7	2.4003808
87	0x3f90e08a	1.1318524
88	0xbf3d4a6e	-0.73941696
89	0x400b10db	2.1729038
90	0xbe913269	-0.28358772
91	0x3e1ab309	0.15107359
92	0xbfa6c963	-1.3030208
93	0xbed8979f	-0.42303178
94	0xbf84e873	-1.0383438
95	0x3ddbe33d	0.10736702
96	0xc0509d53	-3.2596023
97	0x40b213b3	5.5649047
98	0xbfed5215	-1.8540674
99	0xc0472f18	-3.1122494
100	0x3e2620ea	0.16223493
101	0x411445d8	9.267052
102	0xbfaca18f	-1.3486804
103	0xc095b837	-4.678737
104	0x41311563	11.067721
105	0xbfd11099	-1.633319
106	0x3f655ca1	0.89594465
107	0x40352a41	2.830704
108	0xc01eb962	-2.4800649
109	0xc03094eb	-2.7590892
110	0x40efe353	7.4964995
111	0xc0acd573	-5.401056
112	0xbfdda3fb	-1.7315668
113	0x41200e73	10.003528
114	0x3f651768	0.8948884
115	0xbe901d63	-0.2814742
116	0xc09fb349	-4.9906354
117	0xc0023330	-2.0343742
118	0xbf84c941	-1.0373918
119	0x40b00ba8	5.501423
120	0xbe08fd8b	-0.13377969
121	0x3f0268be	0.50941074
122	0xc0b28fbd	-5.580046
123	0xbf67f434	-0.90607
124	0x3fa1e723	1.2648662
125	0x409ec65f	4.961715
126	0xbf87d027	-1.0610398
127	0xbeb1adff	-0.3470306
128	0x40c5b433	6.178247
129	0x3fed0a57	1.851878
130	0x3f22c507	0.6358189
131	0x3ff01321	1.8755838
132	0xbf6fe3ad	-0.9370678
133	0x3fad4ca1	1.353901
134	0x40ba5d4f	5.82389
135	0xbf8200f2	-1.0156538
136	0x3f8d3de4	1.1034513
137	0x4094d743	4.651277
138	0xbea2037d	-0.31643286
139	0xbec508b3	-0.384832
140	0xc012cfd2	-2.2939343
141	0xbe2446e7	-0.16042672
142	0x4021ffc8	2.5312366
143	0x40ad825f	5.4221644
144	0xc02710aa	-2.610392
145	0x40199637	2.3997934
146	0x3f945fe3	1.1591762
147	0xbfb806e5	-1.4377104
148	0xbf63b4c6	-0.88947713
149	0x403c26e8	2.9398746
150	0xbf12c6ca	-0.5733458
151	0xbf84b337	-1.0367192
152	0x4096b394	4.709421
153	0xc0df57d9	-6.9794736
154	0x3ff80c71	1.9378797
155	0xc0541512	-3.313786
156	0xbf913584	-1.1344457
157	0xbf71056c	-0.941489
158	0x4041543a	3.0207658
159	0xc0342ed1	-2.8153574
160	0xc01d5b89	-2.4587119
161	0x4055e1da	3.34191
162	0xbf71990f	-0.94374174
163	0xbfbfbeaf	-1.4980067
164	0xbfa98b08	-1.3245554
165	0x400ac601	2.1683352
166	0x3f63e4ab	0.89020795
167	0x3f498def	0.787322
168	0xc03ecf86	-2.9814162
169	0xbf71094a	-0.941548
170	0x3f8d27d7	1.1027783
171	0x3f5eca2a	0.8702723
172	0xbd47d456	-0.048786484
173	0xbe9971fe	-0.29969782
174	0x3fd4481a	1.6584504
175	0x40268149	2.601641
176	0x4051d3a8	3.2785435
177	0xc03eacf6	-2.9793067
178	0x3bbbde71	0.005733304
179	0x4021e487	2.5295732
180	0xbf1df543	-0.61702365
181	0x3d96611f	0.07342743
182	0xbf5456c0	-0.8294487
183	0xbfcabe5e	-1.5839345
184	0x3e96ca2f	0.2945113
185	0x3f774299	0.96585995
186	0x3ea47285	0.3211862
187	0xbeb3a7e5	-0.3508903
188	0x3ee58b8f	0.44833037
189	0xbfec13b3	-1.8443512
190	0xbfd8461a	-1.6896393
191	0xbef2500e	-0.47326702
192	0xbef4a7a4	-0.4778415
193	0x3f0dd3a0	0.5540104
194	0xc08523bc	-4.160612
195	0xbf0e8fa6	-0.5568794
196	0x3f90752e	1.128576
197	0x409b15b4	4.8463993
198	0xbf4504d2	-0.7696048
199	0xbf9cc2b8	-1.2246923
200	0x409f8106	4.9845
201	0xc02d60a2	-2.709023
202	0x3f951553	1.1647133
203	0xc054888d	-3.3208344
204	0xbe6b4bb0	-0.22978091
205	0x3f7869f3	0.97036666
206	0x409df75c	4.936445
207	0xbf34f6a5	-0.7068885
208	0x3ec37fa9	0.38183334
209	0x403bc846	2.9340987
210	0xbf93c4f8	-1.1544485
211	0xbf859a68	-1.0437746
212	0xc0070c3b	-2.1101215
213	0x403eaaf3	2.979184
214	0x40162439	2.3459609
215	0x4061c6b8	3.5277538
216	0x3f89a1d3	1.075251
217	0xc062dbd4	-3.5446672
218	0xc0c6b92f	-6.2101054
219	0x3f2d319a	0.6765381
220	0x403fffee	2.9999957
221	0x40821f91	4.0663533
222	0xbf0ead78	-0.5573344
223	0x3e984320	0.29738712
224	0x408ff538	4.498684
225	0xc05db957	-3.4644372
226	0xc032aff9	-2.7919905
227	0x40370237	2.8595102
228	0xbf85f221	-1.0464517
229	0x401a3fcf	2.4101446
230	0x40851e87	4.1599765
231	0xbf452bf5	-0.770202
232	0x3fa00198	1.2500486
233	0x3fdefa84	1.7420201
234	0x3f85724b	1.0425504
235	0xbfbed9cf	-1.491022
236	0xc0723fc0	-3.785141
237	0xbd00d5cf	-0.031453904
238	0x405d5d0e	3.4588046
239	0x405c54e8	3.4426823
240	0xc004d39f	-2.0754163
241	0x3e42f65c	0.19039291
242	0xc0bfd78c	-5.995062
243	0xbfff4c75	-1.9945208
244	0x3fd0aad7	1.6302136
245	0x41010397	8.063376
246	0xbfe182e2	-1.7618067
247	0xc016f6e2	-2.3588185
248	0x4120928b	10.035777
249	0x3e8cd03c	0.2750262
250	0x3f80fa02	1.0076296
251	0x40293101	2.643616
252	0xbf4551d2	-0.7707797
253	0x3e73129f	0.23737572
254	0x40b8a119	5.7696652
255	0xc025cbe0	-2.5905685

35 f4 [14]
0	0xc1389eac	-11.538738
1	0xc14707ee	-12.439436
2	0xc15d5938	-13.834282
3	0xc100fd9f	-8.061919
4	0xc1028f3c	-8.159969
5	0xc159bf44	-13.609196
6	0xc029cde4	-2.6531916
7	0xc06341cf	-3.5508916
8	0xc11eeda3	-9.933017
9	0xc126a087	-10.414191
10	0xc13317d0	-11.193314
11	0xbda8ba40	-0.08238649
12	0xc142eec3	-12.183291
13	0xc093d62a	-4.619893
