model/model_FD004.onnx (onnx, 5356 bytes, 5 tensors)

linear_layers.0.weight f4 [1, 28]
000000 10 f2 cd 3f a3 a6 bd 3f 06 2d c1 3f a0 09 bb 3f
       1.6089497 1.4816478 1.5091865 1.4612312
000010 6a 9a ba 3f be 01 be 3f 39 53 b4 3f ca 82 c5 3f
       1.4578373 1.4844282 1.4087898 1.5430539
000020 4c 7f cf 3f f7 89 c7 3f dc 29 c9 3f c2 9f bd 3f
       1.6210723 1.5588979 1.57159 1.4814379
000030 9b e8 ca 3f 77 46 b0 3f ae 63 ca 3f 0a bb bf 3f
       1.5852236 1.3771504 1.581167 1.4978955
000040 49 6e b6 3f db 40 c7 3f cc 20 bd 3f 71 c0 bc 3f
       1.4252406 1.5566667 1.4775634 1.4746228
000050 a4 50 c3 3f be a7 c1 3f f9 8b c7 3f 1a df b1 3f
       1.5258985 1.5129316 1.5589591 1.389621
000060 03 48 c5 3f 5e a2 bf 3f 8c b1 be 3f 3f 62 c9 3f
       1.5412601 1.4971426 1.4897933 1.5733107

31 f4 [8, 1, 4, 21]
000000 13 68 8d 3c 48 c8 8c 3b df a1 90 3c 0a ab 0c 3c
       0.01726154 0.0042963363 0.017655311 0.008585701
000010 a2 d3 45 3d ff 42 b1 3b c1 6b 1a 3d a9 a0 9e bd
       0.048297532 0.005409598 0.03770042 -0.07745487
000020 6b 48 d7 3b 80 c2 ab bd fc ab e1 3c d0 97 d4 3c
       0.006569912 -0.08386707 0.027547829 0.025951296
000030 e1 7e 3e bd a5 d6 20 bd ff e6 08 bd d0 50 82 bd
       -0.04650772 -0.0392672 -0.03342342 -0.0636307
000040 1e 82 a4 3c 4f 4d 38 bd b8 cd 67 bd d3 00 1c 3b
       0.020081576 -0.044995602 -0.056592673 0.0023804202
000050 ea a8 fd bb f8 d4 5b bd c5 9d 8a 3c 86 33 e4 b9
       -0.0077410834 -0.0536699 0.016920933 -0.00043525937
000060 3e 8d 97 bb f0 eb 3f bd c7 5c 06 bd 5a f4 02 bd
       -0.0046249917 -0.046855867 -0.032803323 -0.031971313
000070 0c 0a 92 3d 75 7e 47 3c 40 85 82 bd f8 f4 18 3d
       0.071308225 0.012176146 -0.06373072 0.037342995
000080 02 17 37 bd 41 d0 91 3d ea f1 00 3d 31 f6 44 bd
       -0.044699676 0.071197994 0.031480707 -0.04808635
000090 29 a4 86 bd be 49 74 3d b6 1e 29 3d 19 c8 eb 3d
       -0.0657428 0.05964064 0.041289054 0.11512775
0000a0 86 a3 b3 bc 8e c6 95 bd bb be d1 bb 33 fe 63 3c
       -0.02192856 -0.07313262 -0.0064009107 0.013915586
0000b0 f3 41 09 3d 0e 31 0f 3d b2 a9 e4 ba 54 09 1c 3c
       0.03351016 0.03495889 -0.0017445593 0.009523708
0000c0 68 8c 23 bb 85 89 da 3c c7 c4 3d 3d 2a c6 8f bb
       -0.0024955515 0.026676903 0.04633024 -0.0043876367
0000d0 a0 9a b2 3d 47 06 da bc 51 a1 b3 3d 8c 82 58 3d
       0.08720899 -0.026614321 0.08771003 0.052858874
0000e0 e1 96 44 bd cf d4 20 3d 35 91 bd 3c 8a 09 95 3c
       -0.04799545 0.03926545 0.02314053 0.018193025
0000f0 4a 1a a7 3d 6c f7 92 3b ff d3 a7 3c d6 d9 86 bc
       0.08159311 0.0044850614 0.02048683 -0.016461294
000100 97 af 80 bc b6 ea 68 bc f4 ab 35 3d 98 4a 25 bc
       -0.015708728 -0.014216116 0.04435344 -0.010088585
000110 c2 5d d4 bc e2 f2 31 bc 8b ba 85 bc 3b 36 24 bd
       -0.025923613 -0.01086113 -0.016324302 -0.04009078
000120 ad da 6e bc 2d cb 4b 3c e0 e5 fe 3c 51 40 d9 bc
       -0.014578504 0.012438578 0.031115472 -0.026519926
000130 2c 51 23 bc e9 c7 c0 3b 49 b8 8d 3d 4d fa 5c 3b
       -0.009968083 0.005883206 0.06919915 0.0033718527
000140 0b a7 9d bd 20 13 83 bd 42 8e 0d 3d 12 4d 30 3d
       -0.076978765 -0.06400132 0.034559496 0.04304225
000150 cf 4a 0e 3c e9 d2 1e 3c e3 3e cb bc 55 5c da bc
       0.008684828 0.00969384 -0.02481026 -0.026655355
000160 7a 91 d0 bc 9b 25 68 3c c0 1b 8c 3b 30 51 a3 3b
       -0.025459994 0.014169122 0.004275769 0.0049840435
000170 40 34 84 bc 31 e5 c5 3c 5a 3f e4 3b a2 48 2b bc
       -0.016138196 0.024157139 0.00696556 -0.010454329
000180 8a 96 8a 3c ea 11 95 3c 35 d6 05 3d d3 b9 66 bc
       0.016917486 0.018197019 0.032674987 -0.01408239
000190 41 0b be bc 91 ac 61 bc 28 7e 25 bc 1f 08 3a bc
       -0.023198726 -0.013774053 -0.010100879 -0.011354475
0001a0 4f ea a9 bc d6 c6 a8 3c b4 e8 ca 3c 8b ac eb bc
       -0.02074161 0.020602625 0.024769165 -0.028768798
0001b0 30 cb a8 bc 9f cc ad 3c db 65 97 3c 0e ef 28 3d
       -0.0206047 0.021215735 0.018481186 0.041243605
0001c0 58 ea a6 3c dd 0a 62 3c 18 e5 67 3d 20 f7 a5 bc
       0.020375416 0.013796535 0.056614965 -0.02025944
0001d0 70 c0 cc 3c 25 ad 5c bc 22 3a 74 3c 75 76 a4 bb
       0.024994105 -0.013469015 0.014906438 -0.005019004
0001e0 1e 64 c5 bb 6d 9c 95 bc de 84 52 3c 37 c9 34 bb
       -0.006023898 -0.018263066 0.012849061 -0.0027585754
0001f0 c3 66 93 3c 59 2e d8 3c 4d c1 4e ba e2 97 7b bc
       0.017993337 0.026389288 -0.00078870804 -0.015356036
000200 a6 e6 a0 bc 17 96 c2 bc 70 87 8e bd 07 da 6a bd
       -0.019641232 -0.023753209 -0.069594264 -0.057336833
000210 30 03 94 bd 21 69 b2 3b a8 76 1f bc b0 c9 8c 3c
       -0.072271705 0.0054446612 -0.00973288 0.017186016
000220 2b 84 b5 bb 0d 1b bc bd a4 b3 9e 3b 3f 8c e0 ba
       -0.0055394373 -0.09184847 0.004843192 -0.001713164
000230 26 3d 96 3d 99 c1 8d bc a9 08 e5 bc 9f f5 55 3c
       0.07335882 -0.017304229 -0.027958231 0.013059049
000240 0c 98 5f bc 56 26 b2 bd 53 1b bf bd 3b 67 ac bb
       -0.013647091 -0.08698718 -0.093313836 -0.0052613295
000250 38 68 83 bc c5 2b 44 bd 22 23 a5 bc 84 3d 73 bc
       -0.016040906 -0.047893304 -0.020158354 -0.014846209
000260 59 98 69 bb 6f 62 82 bc 2e 32 ad 3c c4 25 56 bb
       -0.0035643785 -0.015916077 0.021142092 -0.0032676319
000270 0c 8c 46 3d 5c 22 3c bd a8 2f 5f 3a b2 52 18 3d
       0.048473403 -0.045931205 0.0008513876 0.03718824
000280 9c 8b 25 bc c7 d1 90 ba 15 f7 a3 ba 78 4b b0 bc
       -0.010104086 -0.0011048847 -0.0012509549 -0.021520361
000290 be 01 b5 3c 8f b7 43 3d fa 99 e9 3b 90 e3 a2 3b
       0.022095557 0.047782477 0.007128951 0.004970975
0002a0 31 55 34 bc 39 45 28 3b 37 cb d0 38 29 a0 5d bc
       -0.011006639 0.0025676026 9.9560646e-05 -0.013526955
0002b0 00 0e 39 bc 0e b4 af 3b a2 90 88 bc 4a 08 f4 3c
       -0.011294842 0.0053620404 -0.016670529 0.029789109
0002c0 0a 6b d1 3c 4f f9 18 3d 8e d0 7a 3b 7d 44 a7 3b
       0.025563736 0.037347134 0.003827128 0.0051046
0002d0 3d e6 b9 b9 ff a4 02 3c 6e 7e f0 3c 8e 00 22 bc
       -0.0003545749 0.007973908 0.029357161 -0.009887828
0002e0 94 d4 2c bc ed b2 b7 bb 60 02 e6 38 25 e7 1d 3c
       -0.010548729 -0.0056060464 0.00010967697 0.009637629
0002f0 b7 a3 12 bc 9d a7 62 3c 02 f3 91 b9 1a 29 42 bc
       -0.0089501655 0.013833907 -0.0002783761 -0.01185062
000300 3c 47 2c 3c 4c 9d 7a 3c f3 05 08 3c 31 38 9a bc
       0.0105150305 0.015296292 0.0083022 -0.018825622
000310 2d 14 bd 3b 72 72 c7 3b a1 71 b6 3c b7 7d 55 bc
       0.0057702274 0.006086641 0.02227098 -0.013030461
000320 91 e6 8a 39 8b 7f 6b 3c ae 89 91 3c 58 96 40 3c
       0.00026493196 0.01437367 0.017765846 0.011754595
000330 d7 e9 45 bd 89 75 35 bb be 5d c8 3c 97 a6 4c 3d
       -0.04831871 -0.0027688465 0.024458762 0.04996356
000340 48 fc 74 3c 6c 26 99 bc 5d 91 6b bc f9 fb ad bc
       0.014952727 -0.018695079 -0.014377919 -0.021238314
000350 5d a9 71 3c 99 1b 9c bc 86 92 45 3b 68 b1 f2 3b
       0.014749852 -0.019056128 0.003014715 0.0074064024
000360 65 9a a5 bc 2e e6 c6 3c 4e ff a5 3b 7b 4e 90 3c
       -0.020215223 0.02427968 0.005065835 0.017615547
000370 b8 6e 0c 3c 24 2f cd bc 00 2e 0e 3d 2c ae c8 3c
       0.008571319 -0.025046892 0.034711838 0.024497114
000380 0d 8b f4 3b 8d 33 82 bc 8d 25 01 3c c6 81 05 3b
       0.007462865 -0.015893722 0.007882488 0.002037154
000390 82 01 97 3c b0 97 ad 3b c0 9d 73 3b ae f7 0e bd
       0.018433336 0.0052976236 0.0037172884 -0.034904175
0003a0 65 86 68 bc 80 96 08 bd 9c 58 8d bc 0f 3f 08 be
       -0.014192198 -0.033346653 -0.017254166 -0.13305305
0003b0 17 79 9e bd d0 a0 d8 bd 92 26 8b 3c 5a cf 04 bc
       -0.0773794 -0.105775476 0.016986165 -0.008106077
0003c0 20 1c 8a bc 0b c5 c8 bc 1c 83 db bd 29 f0 bd bb
       -0.016859114 -0.02450802 -0.107183665 -0.0057964516
0003d0 df 63 90 3b d0 59 8e 3d 10 d5 15 3d 1d a4 d3 bc
       0.004406437 0.06950724 0.036580145 -0.025835091
0003e0 73 cc f6 3a 4d ea f4 bb f0 9c b0 bd b3 4b a4 bd
       0.0018829241 -0.00747422 -0.086236835 -0.08022251
0003f0 0b 26 81 3c 67 ba 14 3e f9 c6 38 be cf d8 89 be
       0.01576521 0.14524232 -0.18044652 -0.26923224

32 f4 [8]
000000 72 94 58 be e8 e4 d0 be 59 fb ae be 26 1a ce 3e
       -0.21150377 -0.40799642 -0.34176138 0.40254325
000010 33 89 a7 be 24 22 76 bf b9 6e 97 be aa 0b 4e 3e
       -0.32721862 -0.96145844 -0.29576662 0.20121637

34 f4 [14, 8, 3, 1]
000000 b6 4a 62 bf c3 64 0d bf 89 40 a6 be 0a 07 1e 3d
       -0.8839525 -0.55231875 -0.3247111 0.03858093
000010 e3 05 8e 3e 9c d8 57 3f ee 04 a6 3f d3 36 e4 3f
       0.27738866 0.84314895 1.2970254 1.7829231
000020 7d 5a 7e 3f c3 38 1f 3f 4d c2 ab 3f f5 12 29 40
       0.99356824 0.62195987 1.3418671 2.641782
000030 dc 11 03 bf e4 dc 4b bf 61 ac 47 bf d7 67 e9 bf
       -0.51199126 -0.7963393 -0.77997404 -1.8234814
000040 17 ba c7 bf 84 52 94 c0 a4 db 36 3d 82 fd 45 bd
       -1.5603665 -4.6350727 0.04464306 -0.048337467
000050 48 de c3 be 3e 07 d6 3e 89 65 5d 3f f4 f8 b9 3f
       -0.38255525 0.418024 0.86483055 1.45291
000060 4f e7 98 bf 9c cc 07 bf bd b6 9b 3d 20 7c 40 bd
       -1.194559 -0.53046584 0.07603214 -0.046993375
000070 d2 d6 56 3f 52 49 a0 3e 87 c7 06 bd 6a 67 95 3f
       0.8392154 0.3130594 -0.032905128 1.1672184
000080 0f bc 50 3f 32 17 0c 3f 9b 24 b7 3f 1d 21 1c 40
       0.81536955 0.54722893 1.4308046 2.439521
000090 f5 7b 25 bf c9 b9 06 bf 26 3d 0e bf 41 75 18 bf
       -0.6464227 -0.52627236 -0.55562055 -0.59553915
0000a0 6f 7f 9d bf 71 2b b7 c0 4e cf 52 bc 1c 7a 80 bf
       -1.2304515 -5.724053 -0.012866808 -1.0037265
0000b0 3a fe 0f bf b9 79 8f 3e 63 f7 82 3f 50 c3 54 3f
       -0.56247294 0.28022555 1.0231746 0.83110523
0000c0 c2 31 33 3f be 4b 81 be f4 04 cd be 02 22 33 bf
       0.699978 -0.252531 -0.4004284 -0.69973767
0000d0 b1 b2 1f 3e 19 9e 8b 3f 07 5c 70 3f 7a a9 d1 3f
       0.15595509 1.0907623 0.9389042 1.6379845
0000e0 14 7e fd 3f de a6 82 bf 1c 90 80 3f 43 26 70 40
       1.9804101 -1.0207174 1.0043979 3.7523353
0000f0 d9 8b 1e c0 31 7b 16 c0 43 35 3c c0 2e 66 22 40
       -2.4772856 -2.351269 -2.9407508 2.5374866
000100 d6 58 ab be 5e 2f 18 c1 7d d8 b7 bf ed 9d 53 bf
       -0.33466214 -9.511564 -1.4362942 -0.8266285
000110 79 4c a3 bf 0e 56 c3 bf 6c 96 94 3c d9 f8 f2 3f
       -1.2757713 -1.5260637 0.018138133 1.8982192
000120 38 78 8d 3f 8e c2 a3 be 5b b9 3f 3f 25 a7 f8 3e
       1.1052313 -0.3198437 0.74892205 0.4856502
000130 bc d4 f9 3e c9 1b 77 3f 75 cb 00 3f 4a 09 86 3f
       0.48795116 0.9652677 0.5031045 1.0471585
000140 81 51 8e 3f 2d b4 08 c0 a9 bd 26 bf 81 2f bc 3f
       1.1118623 -2.135997 -0.6513315 1.4701997
000150 54 2d 89 c0 b1 16 40 c0 c7 41 41 c0 a3 4f 53 40
       -4.286783 -3.001385 -3.0196397 3.3017356
000160 96 14 c2 3f ab 9e 75 c0 52 90 f7 bd 72 1b 0f 3d
       1.5162532 -3.8378093 -0.12088074 0.034938283
000170 38 6d 9d bf dc 85 d1 3d 99 53 ba 3e 11 85 41 3f
       -1.2298956 0.1023061 0.36391905 0.7559367
000180 ff 70 a5 be 0c 54 5d 3d 4d 22 9d bd 15 8c 61 3c
       -0.32312772 0.05403523 -0.07672558 0.013766308
000190 22 85 88 3e b7 3a 96 3f ef 0f 67 3f 7d 98 83 3f
       0.26664072 1.1736668 0.9025869 1.0280911
0001a0 02 d5 33 3f a0 06 e9 3e 23 f9 9b 3f 9f 3a 50 40
       0.702469 0.45512867 1.2185405 3.253578
0001b0 2d c4 c5 be d4 9f 06 bf 92 87 51 bf 62 49 0b be
       -0.38626233 -0.5258763 -0.8184749 -0.13602212
0001c0 1c 1d 89 bf ab b8 b1 c0 f9 6f 35 bf 00 2a af be
       -1.0712008 -5.5537925 -0.7087398 -0.3421173
0001d0 0e 37 5d bf 09 23 34 be 5b db 1e 3f 28 3c d2 3f
       -0.8641213 -0.1759149 0.6205346 1.6424608
0001e0 e0 9e 9f bf 30 db e4 3d 96 39 36 3e 9d ea 3d 3f
       -1.247036 0.11174619 0.17795405 0.74186116
0001f0 67 f1 9a 3e 51 5d bb 3f 54 07 05 3f 35 5d 94 3f
       0.302623 1.4637853 0.51964307 1.1590945
000200 50 63 08 40 97 eb 55 3e 85 31 b3 3e e5 0e 56 40
       2.1310616 0.20890652 0.34998718 3.344659
000210 ea 77 bc bf e0 9e 79 bf 05 c2 ea bf ad e4 bb bd
       -1.4724095 -0.9750805 -1.834046 -0.09174476
000220 e5 16 e6 be 77 0d f6 c0 2a 14 32 bf c3 24 92 bf
       -0.44939342 -7.6891437 -0.6956202 -1.1417469
000230 fc 50 73 bf e1 81 9e bd 1a 73 d1 3e a8 c6 c6 3f
       -0.9504545 -0.07739616 0.40908128 1.5529375
000240 96 a1 7e be e3 23 c5 be a9 9e 75 be c0 96 52 3d
       -0.24866328 -0.38503942 -0.23986305 0.051413298
000250 1b 7f 27 3f fb 3a 5e 3f a8 b7 56 3f 13 d7 78 3f
       0.6542832 0.8680875 0.8387399 0.9720318
000260 89 98 37 3f 62 0e 53 3f c5 74 ab 3f 5b dd 17 40
       0.71717125 0.8244382 1.339501 2.3728855
000270 7a f5 ee be 8e 7d 33 bf 60 d8 2c bf 31 80 2d c0
       -0.4667166 -0.70113456 -0.6751766 -2.7109492
000280 fb 74 ea bf 2f a4 7e c0 e0 66 cf be 43 e8 c1 bd
       -1.831695 -3.978771 -0.40508175 -0.094681285
000290 a3 b8 36 bf 15 6c 32 3e c2 c9 76 3f d1 24 9e 3f
       -0.71375483 0.17424043 0.9640161 1.2354985
0002a0 4b 21 b6 be d4 5f db bd 19 02 3e 3d 01 59 4e be
       -0.35572276 -0.10711637 0.04638872 -0.2015114
0002b0 9e 4b 80 3e 8c e1 82 3f 7f ab 7c 3f 53 20 8e 3f
       0.2505769 1.0225081 0.9869918 1.1103615
0002c0 60 07 52 3f d6 a6 db 3e 57 1c 9d 3f 10 d4 45 40
       0.82042503 0.42900723 1.2274274 3.0910683
0002d0 70 72 dd be 6d 60 18 bf 8a b5 57 bf be d3 2b bf
       -0.4325137 -0.59522134 -0.8426138 -0.6711997
0002e0 63 ac 9b bf 70 c5 b1 c0 bf ef 09 bf f9 bb a7 be
       -1.2161983 -5.5553513 -0.5388145 -0.327606
0002f0 40 9e 5f bf 8f 1a 26 be 1f 8a 36 3f 91 75 c2 3f
       -0.87350845 -0.16221069 0.71304506 1.5192128
000300 85 21 06 bf 29 87 09 bf a7 5a a5 3e b3 b3 04 3f
       -0.52394897 -0.53721863 0.32295725 0.518367
000310 41 29 0f 3f 66 19 bf 3f bc 32 c4 3e 09 79 8c 3f
       0.55922323 1.4929626 0.38319957 1.0974437
000320 35 a8 de 3f 02 7b 18 3e a7 c1 aa 3f 0d f4 5f 40
       1.7395083 0.14890674 1.3340348 3.4992707
000330 18 11 c4 bf 85 28 a0 bf 26 63 dc bf 9a e6 ed 3f
       -1.5317717 -1.2512366 -1.7217758 1.8585999
000340 de b7 1e bf 5c 0f 00 c1 e0 47 8b bf 84 a5 70 bf
       -0.6199931 -8.00375 -1.088131 -0.94002557
000350 9f 42 e9 bf e9 eb 50 bd bc 53 0c 3f 01 69 af 3f
       -1.8223456 -0.05100623 0.5481527 1.370392
000360 db f1 c1 be 76 6e a9 be 43 21 29 3d aa 99 0e be
       -0.37879834 -0.33092088 0.041291486 -0.13925806
000370 be d6 2a 3f d3 0e 79 3f fd d8 7a 3f 6c b7 b2 3f
       0.6673392 0.97288245 0.9798735 1.3962226
000380 b6 ab 60 3f 5d ae ac 3e 83 4c c0 3f 68 b1 3e 40
       0.8776201 0.3372678 1.502335 2.979578
000390 57 87 2c bf 55 e1 58 bf a6 7f 72 bf a6 09 e0 be
       -0.6739401 -0.8471883 -0.94726026 -0.4375736
0003a0 fe d2 b2 bf ea 66 bf c0 94 30 cb be ee 46 e9 be
       -1.397064 -5.9813128 -0.396855 -0.45561928
0003b0 e5 f9 77 bf 48 5f d5 3d 2f b0 69 3f 57 2d ad 3f
       -0.96865684 0.10418564 0.9128446 1.3529462
0003c0 44 63 36 be 5a 0e 2e be 6e e5 ca bd 57 ea ee 3e
       -0.17811304 -0.16997662 -0.099070415 0.46663162
0003d0 58 dd 44 3f f1 1e 84 3f 9d c8 4f 3f e9 54 72 3f
       0.76900244 1.0321943 0.81165487 0.9466081
0003e0 ba 6b 85 3f cf 58 cd 3e b0 cf 9a 3f ba 3e 3e 40
       1.04235 0.40106818 1.2094631 2.9725785
0003f0 87 97 4a bf 82 78 58 bf 7b 52 80 bf 87 25 1c be
       -0.7913746 -0.8455888 -1.0025171 -0.1524869

35 f4 [14]
000000 1f f0 12 c0 df 31 bf bf 08 67 0f 3f 41 7e 5a 40
       -2.2959058 -1.4937094 0.5601659 3.413956
000010 48 dc 10 c0 ba dc 17 bf 1c c6 f2 bf 54 fd fc bf
       -2.263445 -0.59321177 -1.8966708 -1.976481
000020 99 a2 b1 bf c9 9d 04 c0 1c 64 e4 bf a7 b4 07 c0
       -1.3877746 -2.0721304 -1.7843051 -2.1204011
000030 fc 54 84 c0 49 df 41 3f
       -4.135374 0.7573133
