model/model_FD004.pth (torch, 9919 bytes, 13 tensors)

cnn_layers.0.weight f4 [8, 1, 4, 21]
0.18178624 0.18514013 -0.12998565 -0.13907972 0.07358326 0.010710431 -0.056513395 0.13848004
-0.04638819 -0.317681 -0.21830039 -0.004717581 0.018369386 -0.18637516 -0.35338247 0.27037686
-0.06454733 0.05949847 0.07386956 0.016002258 -0.07236719 0.2674918 0.082080305 -0.12942688
-0.107301645 0.014463921 -0.15384567 0.066129625 0.23381522 -0.028671406 -0.35407993 -0.39108405
0.08415302 0.11006954 -0.55003583 -0.39058957 0.4686741 -0.20222169 0.23971409 0.17684098
-0.10815232 0.03753256 0.08794198 0.013981503 -0.045274958 -0.16945006 -0.008809219 0.04867845
0.018314263 0.029158387 -0.08831618 -0.026698273 -0.12541357 0.06750089 0.0920369 -0.15522164
-0.20154648 0.055943735 -0.09109564 0.025137153 0.069977224 0.044125315 0.021584293 -0.07513184
0.06026139 -0.044965353 -0.0875745 0.052201793 0.024029756 0.06469184 0.2816978 0.0335436
-0.028721616 -0.09640705 -0.08846753 0.10449793 -0.275565 -0.45285556 0.02083706 -0.10760071
0.0998455 0.10046153 -0.121977635 -0.013247994 0.011231225 -0.0592442 -0.07995788 -0.15230902
-0.0557054 0.13445495 0.07832241 0.0809506 0.012369901 0.33640626 -0.16399226 0.11182561
0.013443972 -0.031616654 0.15161115 -0.1989109 0.01553276 0.11826799 0.072422415 0.008886035
0.053095203 0.08947965 -0.08186244 -0.05188478 -0.12482555 -0.042395707 0.1982172 -0.027191347
0.0059294617 -0.1099803 0.38575125 -0.11762459 0.09933179 -0.03937601 -0.091398746 0.067761466
-0.10533147 0.014218174 0.1138163 0.029620191 0.08579135 0.095582165 -0.10403205 0.08358028
-0.21897164 -0.3508503 -0.44379136 -0.144206 -0.31688195 -0.020259598 -0.16305003 -0.58752406
-0.25961432 -0.20529713 0.06956236 -0.08277994 0.4109967 -0.20437612 -0.01759177 0.035680063
0.022403957 -0.2731864 -0.22753876 0.13402666 0.091835536 -0.07537474 -0.048344612 -0.08091535
-0.013876474 -0.0012245454 0.15351751 -0.0009119137 0.32572833 -0.31256998 -0.043095153 0.07727345
-0.1593895 -0.025000364 -0.22796379 -0.078560166 0.07554755 0.12843351 0.017682454 0.1307841
0.09622734 -0.013924835 -0.044277117 -0.08298481 -0.063339435 0.049686503 -0.06159301 -0.0010916085
0.017787917 0.18589523 -0.046424214 -0.02769731 0.14247388 0.0054449835 0.12897089 -0.037070576
-0.07892357 0.09879928 -0.043187875 0.012467731 0.12586047 0.08510263 0.07477113 -0.072197706
-0.18059029 -0.043881007 0.08872914 -0.03731313 0.08924229 0.045092538 0.37545493 -0.16847822
0.028194891 0.06859975 -0.072144136 0.12766089 -0.07586856 -0.12495724 0.043772392 0.13350569
-0.036197677 0.09933657 0.15371418 -0.078228354 0.0034460165 -0.10562428 -0.06788418 0.06953109
-0.0011634701 0.05869486 -0.07413258 0.22864988 -0.16351256 -0.08186472 -0.02521582 -0.08738197
-0.023679843 -0.060128704 -0.05444459 0.13030605 0.13852805 0.025700582 0.07868265 0.17020363
-0.011025835 -0.050125334 -0.1935312 0.027896142 0.08891279 -0.10035824 0.13429514 -0.090698324
0.20779677 -0.18814401 0.060358673 0.16958864 -0.08084023 0.182069 0.045680925 -0.053964965
0.12453512 0.059260927 0.04683665 0.004679771 -0.08214435 0.084374964 0.077193074 -0.1840122
00000000: 2c26 3a3e 6095 3d3e f51a 05be ea6a 0ebe
00000010: d2b2 963d ce7a 2f3c 977a 67bd b6cd 0d3e
00000020: 8b01 3ebd 16a7 a2be 238a 5fbe f095 9abb
00000030: 657b 963c 21d9 3ebe 8cee b4be d66e 8a3e
00000040: 6431 84bd abb4 733d ed48 973d 2b17 833c
00000050: 4035 94bd aff4 883e b819 a83d 7b88 04be
00000060: f7c0 dbbd 15fa 6c3c b889 1dbe f86e 873d
00000070: 426d 6f3e 4ce0 eabc f749 b5be 2b3c c8be
00000080: 6b58 ac3d 246c e13d 26cf 0cbf 5bfb c7be
00000090: 0df6 ef3e 3413 4fbe 9c77 753e cd15 353e
000000a0: f77e ddbd bebb 193d ed1a b43d ad12 653c
000000b0: 3c72 39bd 5184 2dbe 8b54 10bc 0e63 473d
000000c0: cb07 963c 92dd ee3c 1ddf b4bd 56b6 dabc
000000d0: 6a6c 00be e83d 8a3d d87d bc3d 6cf2 1ebe
000000e0: 3362 4ebe 4225 653d 5a90 babd 6eec cd3c
000000f0: 3850 8f3d bfbc 343d 8bd1 b03c b9de 99bd
00000100: a6d4 763d 972d 38bd 425a b3bd 8cd1 553d
00000110: 0dda c43c 287d 843d b23a 903e 0465 093d
00000120: 9849 ebbc 0f71 c5bd 772e b5bd 0303 d63d
00000130: db16 8dbe afdc e7be 7bb2 aa3c c35d dcbd
00000140: cc7b cc3d c6be cd3d 69cf f9bd 1d0e 59bc
00000150: 2c03 383c 0caa 72bd f5c0 a3bd e5f6 1bbe
00000160: 582b 64bd 8fae 093e 8067 a03d 6ec9 a53d
00000170: 20ab 4a3c 713d ac3e 96ed 27be d304 e53d
00000180: 1b44 5c3c 7780 01bd f43f 1b3e 4daf 4bbe
00000190: 1e7d 7e3c 7d36 f23d 3452 943d bb96 113c
000001a0: 5b7a 593d 1b41 b73d 7fa7 a7bd 2385 54bd
000001b0: 8aa4 ffbd 1fa7 2dbd 73f9 4a3e 63c0 debc
000001c0: ee4b c23b 5a3d e1bd 3081 c53e 29e5 f0bd
000001d0: 776e cb3d bd48 21bd 442f bbbd 86c6 8a3d
000001e0: 07b8 d7bd 58f3 683c 8518 e93d 0ba6 f23c
000001f0: 60b3 af3d 95c0 c33d c10e d5bd 232c ab3d
00000200: 1a3a 60be a7a2 b3be 9f38 e3be bdaa 13be
00000210: 5a3e a2be 75f7 a5bc 96f6 26be fa67 16bf
00000220: 2bec 84be 6939 52be b676 8e3d 8788 a9bd
00000230: 296e d23e f947 51be 9e1c 90bc 4225 123d
00000240: 8188 b73c 16df 8bbe ecff 68be 493e 093e
00000250: 4514 bc3d 125e 9abd 0005 46bd f2b6 a5bd
00000260: 275a 63bc ed80 a0ba b233 1d3e 7e0d 6fba
00000270: ddc5 a63e 2c09 a0be 8b84 30bd 8b41 9e3d
00000280: 0037 23be 90cd ccbc 576f 69be 27e4 a0bd
00000290: adb8 9a3d 1384 033e cbda 903c 44ec 053e
000002a0: d712 c53d fe24 64bc ec5b 35bd f1f3 a9bd
000002b0: 1bb8 81bd 1384 4b3d f448 7cbd 4e14 8fba
000002c0: f7b7 913c 525b 3e3e 5127 3ebd 78e5 e2bc
000002d0: ace4 113e d56b b23b f210 043e 51d7 17bd
000002e0: aea2 a1bd 4757 ca3d c5e5 30bd 7445 4c3c
000002f0: 91e1 003e 4a4a ae3d 9b21 993d 64dc 93bd
00000300: a9ec 38be 92bc 33bd a0b7 b53d a7d5 18bd
00000310: a9c4 b63d f4b2 383d a13b c03e 8e85 2cbe
00000320: f9f8 e63c 077e 8c3d 4ec0 93bd 89b9 023e
00000330: fa60 9bbd 95e9 ffbd ae4a 333d b7b5 083e
00000340: 0444 14bd f970 cb3d 4067 1d3e 3036 a0bd
00000350: 90d6 613b 8b51 d8bd dc06 8bbd 5166 8e3d
00000360: 947f 98ba 066a 703d d2d2 97bd 3223 6a3e
00000370: d66f 27be b1a8 a7bd 6891 cebc 51f5 b2bd
00000380: 3bfc c1bc 8449 76bd 4a01 5fbd f36e 053e
00000390: 4cda 0d3e 078a d23c 5f24 a13d dc49 2e3e
000003a0: b4a5 34bc 3950 4dbd 0b2d 46be 7386 e43c
000003b0: e917 b63d 9f88 cdbd aa84 093e 0bc0 b9bd
000003c0: adc8 543e d3a8 40be a83a 773d a5a8 2d3e
000003d0: 908f a5bd 4c70 3a3e ec1b 3b3d 5e0a 5dbd
000003e0: 450c ff3d 96bb 723d cad7 3f3d c458 993b
000003f0: 4c3b a8bd c8cc ac3d 6717 9e3d b26d 3cbe

cnn_layers.0.bias f4 [8]
0.032017004 -0.12726767 -0.13617542 0.31025654 -0.19873492 -0.4889676 -0.23406957 0.33947092
00000000: 4324 033d 7552 02be 9271 0bbe f2d9 9e3e
00000010: 2b81 4bbe f659 fabe efaf 6fbe 22cf ad3e

cnn_layers.1.weight f4 [8]
0.76684767 0.9567977 0.4044387 0.82741594 0.96077293 0.82239556 0.83973306 1.0901136
00000000: 2150 443f b2f0 743f 9712 cf3e 88d1 533f
00000010: 37f5 753f 8488 523f bff8 563f d888 8b3f

cnn_layers.1.bias f4 [8]
-0.38356948 -0.19655406 1.1874851 -0.3532959 -0.20870942 -0.4556561 -0.17550714 0.44422403
00000000: 3863 c4be 7845 49be 83ff 973f 33e3 b4be
00000010: ecb7 55be c24b e9be 25b8 33be 5571 e33e

cnn_layers.1.running_mean f4 [8]
0.037128743 -0.11056024 -0.1276858 0.31846893 -0.1878954 -0.4806528 -0.23820421 0.33883196
00000000: 4f14 183d 686d e2bd 11c0 02be 5c0e a33e
00000010: a767 40be 2018 f6be ceeb 73be 627b ad3e

cnn_layers.1.running_var f4 [8]
0.2910418 13.092998 0.03929056 9.162913 6.4975343 17.029737 1.6622889 1.0343246
00000000: 6e03 953e eb7c 5141 23ef 203d 4b9b 1241
00000010: cdeb cf40 e73c 8841 e2c5 d43f c064 843f

cnn_layers.4.weight f4 [14, 8, 3, 1]
-0.07203586 0.16607542 -0.20316681 -0.06721483 0.08954763 0.39614448 0.019863542 -0.06323984
0.45317787 -0.012492999 -0.045572255 0.20630442 -0.052733295 -0.023737699 0.35043678 -0.13333401
-0.0067545315 0.3848153 -0.040965453 -0.047862317 -0.16446902 -0.13160694 0.00023518625 0.2843633
-0.06931607 0.077398434 -0.25444332 -0.106034234 0.03714779 0.4073253 -0.08029941 -0.09917891
0.51193696 0.049309503 0.021269456 0.12880436 -0.019546287 0.00017955978 0.38003683 -0.12713698
0.029619902 0.43131915 0.0004482296 0.0055675576 -0.19457072 -0.09623078 0.06361499 0.30641505
0.07323804 -0.18528937 -0.42942443 0.15207237 0.16238998 0.323451 0.14972518 -0.006101146
0.51620436 0.2411353 0.02363585 0.20411356 0.026913144 0.05914619 0.29833034 -0.020134065
0.017905002 0.26164684 -0.06893051 0.0565809 -0.17053106 0.04369986 0.04911911 0.19292453
-0.46534005 -0.62387645 -0.4103839 0.24076271 0.11856719 0.16587016 0.13814169 0.19147208
0.41810635 0.66436625 -0.35651776 0.10107966 0.011516366 0.10534773 0.24421716 0.11515581
-0.07522903 0.22107342 -0.0288525 0.015370379 -0.13257065 -0.04303968 -0.10564214 0.010923629
-0.14005992 0.23911509 -0.079666324 -0.1337284 0.0069709765 0.39819047 -0.05795065 -0.20103788
0.47556236 -0.07018112 0.038497314 0.12163084 -0.10656444 -0.11855367 0.32211265 -0.23207477
-0.07440267 0.42983565 0.03845193 -0.012094499 -0.21443966 -0.08741382 -0.044575073 0.23638737
-0.009847853 0.037498984 -0.41076097 -0.06669805 0.09310993 0.36524412 -0.07810576 -0.02554578
0.45479602 0.13632132 0.0468042 0.13806635 -0.068979874 0.099664 0.42871094 -0.07476479
0.08122777 0.342392 -0.023293404 -0.028328434 -0.16886218 -0.011809408 0.18633059 0.39913893
-0.28044814 0.2578224 0.124536395 -0.15446077 -0.0955612 0.31584617 -0.061597545 -0.11138018
0.50595784 -0.7498415 0.2081966 -0.35601744 -0.12187945 -0.101149105 0.32453674 -0.30246863
-0.26415232 0.35903892 -0.10139113 -0.16093872 -0.14230394 0.23295563 0.09563971 0.084586136
-0.49098757 -0.15505663 0.18160847 0.14331876 -0.008034288 -0.049355034 0.27311802 0.42844516
0.53991926 -0.49064016 0.00094417576 0.41657686 -0.1016131 0.012092225 -0.13659582 -0.26084656
0.048500903 0.15906039 0.052893803 -0.05778555 0.073832236 -0.30373266 -0.2782543 -0.07793887
-0.040193938 0.046600934 -0.34997252 -0.046842262 0.09493089 0.40765792 -0.06473579 -0.103015766
0.41927436 -0.22787118 0.09797059 -0.27933407 -0.019328166 0.081623 0.41523218 -0.05946037
0.032118153 0.24680355 -0.097107165 -0.08779775 -0.1774942 0.25059593 0.19733198 0.29673922
0.0958151 -0.31586358 -0.5533795 0.060285985 0.26732817 0.3623508 -0.0496638 0.026500022
0.40087554 -0.30871433 -0.24879292 0.25480956 -0.0932488 0.21476682 0.37069348 -0.06863233
0.111391224 0.15523057 0.09290117 -0.13286425 -0.33729208 -0.002802842 0.3082124 0.30677575
-0.11493987 0.010544264 -0.3320161 -0.110459745 0.09028383 0.44656265 -0.09757167 -0.13063514
0.55579734 0.01523139 0.05580414 0.14640768 -0.042687014 0.013146247 0.3195333 -0.14346983
00000000: 8987 93bd ad0f 2a3e f60a 50be eea7 89bd
00000010: bf64 b73d 73d3 ca3e deb8 a23c e483 81bd
00000020: ee06 e83e 70af 4cbc f9a9 3abd 7741 533e
00000030: defe 57bd 9075 c2bc 736c b33e b688 08be
00000040: 1e55 ddbb 8306 c53e 64cb 27bd 470b 44bd
00000050: 916a 28be f8c3 06be 549c 7639 1198 913e
00000060: 95f5 8dbd 1283 9e3d 6546 82be 7a28 d9bd
00000070: 4828 183d f18c d03e 0474 a4bd 501e cbbd
00000080: 4d0e 033f c3f8 493d 483d ae3c 4ae5 033e
00000090: 891f a0bc 3648 3c39 3094 c23e 3230 02be
000000a0: 70a5 f23c ddd5 dc3e 5c00 eb39 0f70 b63b
000000b0: 8c3d 47be a514 c5bd 9348 823d 6fe2 9c3e
000000c0: d3fd 953d 7fbc 3dbe 85dd dbbe dcb8 1b3e
000000d0: 8f49 263e 5f9b a53e 8f51 193e 1fec c7bb
000000e0: f825 043f 2cec 763e f89f c13c 2503 513e
000000f0: f478 dc3c 4643 723d c1be 983e 32f0 a4bc
00000100: 83ad 923c 93f6 853e 702b 8dbd 60c1 673d
00000110: b29f 2ebe a0fe 323d 1f31 493d 028e 453e
00000120: 0d41 eebe 5eb6 1fbf d71d d2be 808a 763e
00000130: 5bd3 f23d ded9 293e 0475 0d3e 4211 443e
00000140: 0912 d63e e813 2a3f 7f89 b6be da02 cf3d
00000150: 24af 3c3c 8dc0 d73d 1014 7a3e cfd6 eb3d
00000160: ad11 9abd 1261 623e 145c ecbc 0bd4 7b3c
00000170: 9ac0 07be 604a 30bd e85a d8bd 05f9 323c
00000180: de6b 0fbe 96da 743e 1928 a3bd 19f0 08be
00000190: ca6c e43b 9fdf cb3e a95d 6dbd e0dc 4dbe
000001a0: e97c f33e 1ebb 8fbd 5caf 1d3d 9719 f93d
000001b0: 753e dabd 44cc f2bd f3eb a43e 02a5 6dbe
000001c0: 6d60 98bd 6b13 dc3e c57f 1d3d 0128 46bc
000001d0: 1296 5bbe 0406 b3bd 5a94 36bd 880f 723e
000001e0: e458 21bc 8998 193d 434f d2be fd98 88bd
000001f0: 6bb0 be3d 4701 bb3e eaf5 9fbd 6245 d1bc
00000200: 06db e83e d197 0b3e c3b5 3f3d 4461 0d3e
00000210: 5245 8dbd a41c cc3d 0080 db3e 481e 99bd
00000220: bf5a a63d 014e af3e cfd1 bebc 0811 e8bc
00000230: 35ea 2cbe 3f7c 41bc 72cd 3e3e f05b cc3e
00000240: e696 8fbe 4c01 843e f00c ff3d f72a 1ebe
00000250: 97b5 c3bd 97b6 a13e b54d 7cbd 4b1b e4bd
00000260: 7486 013f 9df5 3fbf 7d31 553e eb47 b6be
00000270: ef9b f9bd 4327 cfbd ae29 a63e 2bdd 9abe
00000280: f93e 87be f3d3 b73e 27a6 cfbd 1fcd 24be
00000290: 20b8 11be ec8b 6e3e c1de c33d 7f3b ad3d
000002a0: b962 fbbe 2ac7 1ebe 92f7 393e 27c2 123e
000002b0: 3fa2 03bc 8128 4abd 20d6 8b3e 2a5d db3e
000002c0: 2638 0a3f 3035 fbbe 9082 773a 9049 d53e
000002d0: 871a d0bd 781e 463c c6df 0bbe ae8d 85be
000002e0: e2a8 463d bae0 223e 2ca7 583d 8ab0 6cbd
000002f0: 5b35 973d d982 9bbe 5977 8ebe 6a9e 9fbd
00000300: 66a2 24bd 9fe0 3e3d 992f b3be acdd 3fbd
00000310: 206b c23d 8ab8 d03e 3394 84bd eef9 d2bd
00000320: 21ab d63e 1057 69be cea4 c83d e004 8fbe
00000330: 1a56 9ebc f629 a73d 5099 d43e b88c 73bd
00000340: 538e 033d 12ba 7c3e 1fe0 c6bd 4fcf b3bd
00000350: 0ac1 35be 1c4e 803e 6511 4a3e 34ee 973e
00000360: b53a c43d dfb8 a1be 47aa 0dbf 70ee 763d
00000370: 3ddf 883e 0b86 b93e 456c 4bbd 9316 d93c
00000380: 8f3f cd3e ce0f 9ebe 92c3 7ebe 6676 823e
00000390: 3af9 bebd d5eb 5b3e 89cb bd3e 1b8f 8cbd
000003a0: 1521 e43d c3f4 1e3e f842 be3d 910d 08be
000003b0: 8cb1 acbe e3af 37bb 04ce 9d3e b611 9d3e
000003c0: 9865 ebbd d9c1 2c3c 04fe a9be b838 e2bd
000003d0: bbe6 b83d dca3 e43e a8d3 c7bd 38c5 05be
000003e0: bc48 0e3f 148d 793c e292 643d e5eb 153e
000003f0: 94d8 2ebd 5b63 573c de99 a33e c1e9 12be

cnn_layers.4.bias f4 [14]
0.57549465 -0.17380975 0.020980936 0.38377398 -0.5276239 -0.39360672 0.080489285 -0.4063375
-0.030879347 0.066076085 0.75495887 0.039312016 0.50895077 0.040985513
00000000: 9e53 133f 2ffb 31be 36e0 ab3c 067e c43e
00000010: 5c12 07bf d286 c9be 91d7 a43d 780b d0be
00000020: aff6 fcbc e652 873d fc44 413f a305 213d
00000030: 994a 023f 6de0 273d

cnn_layers.5.weight f4 [14]
2.4246664 2.4271462 2.3561692 2.4121783 2.3981194 2.4566293 2.463853 2.3945708
2.4505997 2.479967 2.4676118 2.5743945 2.4495647 2.4142754
00000000: bc2d 1b40 5d56 1b40 7acb 1640 2161 1a40
00000010: ca7a 1940 6a39 1d40 c4af 1d40 a640 1940
00000020: a0d6 1c40 c8b7 1e40 5aed 1d40 e1c2 2440
00000030: abc5 1c40 7d83 1a40

cnn_layers.5.bias f4 [14]
1.8440871 1.8203055 1.7696313 1.8120301 1.806016 1.8554567 1.8444625 1.7715251
1.8574941 1.8786348 1.8611908 1.756139 1.8567301 1.8021182
00000000: 0c0b ec3f c5ff e83f 4783 e23f 9af0 e73f
00000010: 882b e73f 9b7f ed3f 5917 ec3f 56c1 e23f
00000020: 5ec2 ed3f 1b77 f03f 803b ee3f 2ac9 e03f
00000030: 55a9 ed3f cfab e63f

cnn_layers.5.running_mean f4 [14]
1.3689014 0.6456244 1.352834 1.3883594 -0.099401385 0.7447845 0.56369585 0.47017223
0.96088696 1.1614838 1.4779382 0.42700487 1.3436466 0.6969296
00000000: 2938 af3f a447 253f aa29 ad3f c3b5 b13f
00000010: f492 cbbd 32aa 3e3f 5f4e 103f 6aba f03e
00000020: b0fc 753f 80ab 943f 142d bd3f 62a0 da3e
00000030: 9dfc ab3f fa69 323f

cnn_layers.5.running_var f4 [14]
0.02065332 0.019443452 0.040434413 0.06021973 0.010607936 0.032692585 0.07005855 0.15549743
0.04248112 0.048825994 0.01866603 0.29469427 0.021197954 0.060798608
00000000: 2731 a93c e047 9f3c 8e9e 253d f7a8 763d
00000010: e9cc 2d3c a9e8 053d db7a 8f3d b83a 1f3e
00000020: af00 2e3d c4fd 473d 81e9 983c 2be2 963e
00000030: 55a7 ad3c f607 793d

linear_layers.0.weight f4 [1, 28]
1.5963305 1.5231613 1.5951962 1.713055 1.6084926 1.5651255 1.6218021 1.5502137
1.6497239 1.7386615 1.5700883 1.6473444 1.6887602 1.5667754 1.6540533 1.4979408
1.6750418 1.5328102 1.5053391 1.6859677 1.5470129 1.661357 1.7465827 1.6706166
1.6271812 1.6189036 1.7043681 1.4227003
00000000: 8f54 cc3f f3f6 c23f 642f cc3f 6345 db3f
00000010: 16e3 cd3f 0856 c83f 3697 cf3f 676d c63f
00000020: 272a d33f 768c de3f a7f8 c83f 2edc d23f
00000030: 4b29 d83f 198c c83f 05b8 d33f 86bc bf3f
00000040: c567 d63f 2033 c43f f4ae c03f cacd d73f
00000050: 8504 c63f 59a7 d43f 0690 df3f c4d6 d53f
00000060: 7947 d03f 3c38 cf3f bc28 da3f 0b1b b63f
