model/model_FD003.pth (torch, 9215 bytes, 13 tensors)

cnn_layers.0.weight f4 [8, 1, 4, 15]
00000000: 58df ff3d 55cc 963d c3ee b1bd 557a 2dbe
00000010: 11a7 9fbe 8fd0 f5bd 0610 ce3d fd67 40bd
00000020: cf6b 72be a7b9 ffbd 9739 73bd fc51 0f3d
00000030: 395d b93c 61c6 0fbe 544c 27be 7213 74bd
00000040: 864c f0bd 03c5 8ebd 6587 67be 86f7 1fbd
00000050: eac9 8b3d fbe0 1d3e 65d6 4abe f9bd dabd
00000060: fec7 4dbe 7b59 043d dfad 093e 858f 94bd
00000070: c2b8 6f3b 4d59 dfbc ed41 d33c 4c68 983d
00000080: 7966 5e3c 18bd 1cbe 7572 863d 08d2 843e
00000090: e588 b33d 4131 8cbd 971f bdbb aee4 de3e
000000a0: 0611 823e 9e2a f83d 374c a3bd f1ef 18be
000000b0: 045a b7bd 69ef 693e 53fa 7e3e 7a79 ac3e
000000c0: def4 2bbe 6ee9 373e 6bc8 a23f 45f0 d13e
000000d0: 7e4a c93e 3c53 4a3e 2679 c83f 2398 cf3e
000000e0: 5a88 6b3d b315 943e dd48 f8bd a995 29be
000000f0: 48a4 31be e293 0bbe c065 5fbe 3045 733e
00000100: da6a 22be 805e 58bd 8ba5 d5bd 09b6 36be
00000110: 14fb 4dbe 34c9 51be 7d06 a5bd 0a4a 173e
00000120: bb3e 4bbe 0b82 1ebd f270 e13c b72b bbbd
00000130: 980a f8bd 916f 97be 0395 763e 09e5 17bd
00000140: 1596 37be a1d1 a7bd c615 bbbe d052 45be
00000150: dc30 c4bd 79dd 4abe 63d4 f43d a0ad e4bd
00000160: b705 ea3c 5a14 843d edc3 16be eb16 20be
00000170: 0237 84be 9228 bc3e ff73 20be 51f4 debd
00000180: f71e 47be 5b8f 98be 6bcf 1cbe 7964 573d
00000190: 0d69 6fbd 0ec0 0a3d c4db edbd 4576 db3d
000001a0: 35b5 49bc f60a a4be c938 a6be a46e aebe
000001b0: 92ef ba3e 658d 2fbe 618e cabd 5e93 bbbe
000001c0: f5ce f6be 85f6 81be a048 edbd 168d c3bd
000001d0: 69e4 f83c 5ed8 2dbe 350a d53d 796d c33d
000001e0: 2c0d 43be 8844 29be 6569 89be a8ad 533e
000001f0: c857 8f3b 6e35 3f3a 687b 0fbe 2b83 8cbe
00000200: 44ff ad3c d1ae 293d 9901 9abd fe5f 1bbe
00000210: 7286 25be ab12 2d3e e3ef 463e 743c 93be
00000220: 38f2 51be 5d9e 9abe 1e75 873d 3945 1abb
00000230: c2a7 0bbd c026 6dbe 85f7 ddbe aa74 b4bd
00000240: 2c51 90bc 9444 86be 12dd 83bc d028 5fbe
00000250: bbfe 243d 2f57 993d 5b65 b7be 3512 5dbe
00000260: d2e8 a8be 5e58 bb3d 6c8e 54be 6d1b cf3d
00000270: c12d 9cbe 8e0a 15bf decd 0f3b ea4f d0bd
00000280: c050 a1be 4e1b 01be 104f 8ebe e650 a53d
00000290: 90db d43b cf86 a9be e276 afbe 5675 09bf
000002a0: 1fd4 543d 1f9e aebd c97f b1bd 7f92 a5be
000002b0: 81e3 2fbf af6b aabe d5bd 20be 8129 c5be
000002c0: 4184 253d 047c c0be dc75 9b3c 9026 c93d
000002d0: 247c 40be e304 233d 70ba 96be b8d0 973d
000002e0: ec14 77be 646d 10be ccbe aebe 17f7 c3be
000002f0: 04b5 67be a988 263d 742f a1be 418d 4dbd
00000300: 8600 c9bd ed3e c63d 10ac 6e3d 7148 75be
00000310: cd0d 873d 106c b3be e8af 5d3e fcb6 25be
00000320: 3668 1fbe e69d 33be 1a8b 9ebe 895f 3abd
00000330: b239 c0bc 7dd6 dabd 1a1d babd d256 8bbd
00000340: 0bbd 783d 6d95 93bc c6cb afbe 2690 06be
00000350: 3051 8cbe be05 a93c 5362 f73d 7197 92bd
00000360: 24d7 2dbe 1a73 b6be e1e1 2dbd 24d2 433d
00000370: 7c7a babd a32b 73be 5c72 e5bd f474 ee3d
00000380: d665 533e 46e6 bdbe 6f28 bdbe ccdf bdbe
00000390: fefd 663e 7cba 2b3e e19f 26bd 2945 43bd
000003a0: 1b47 d5be dd4b 063e 78a6 28bb ff28 71bc
000003b0: c073 ddbc 676c 8cbe 1acb 4e3e 7f9e fe3d
000003c0: 8101 81be 412f 7fbe 5ab2 bbbe ea82 023f
000003d0: 9cff 72be 389a 3cbe 720a 52be 7d91 bcbe
000003e0: f5cc 8bbe 19ae 69bc 7ccb f9bd de95 ba3d
000003f0: df1f 45be 35b0 ac3d e654 0ebe 30d4 1bbe
0.12493771 0.07363192 -0.08688118 -0.16941197 -0.3118215 -0.1200267 0.1006165 -0.04697417
-0.23673938 -0.12486582 -0.059381094 0.034990296 0.02262746 -0.1404052 -0.1633771 -0.059588857
-0.11733346 -0.06971171 -0.22610243 -0.039054416 0.068256214 0.15417854 -0.19808348 -0.10680766
-0.20095822 0.032311898 0.13445233 -0.07253937 0.003657863 -0.027264262 0.025788272 0.07441768
0.013574236 -0.15306509 0.065648 0.2594149 0.08766345 -0.06845332 -0.005771588 0.43533844
0.25403613 0.121175036 -0.07973521 -0.1493528 -0.08952716 0.22845234 0.24900179 0.3368643
-0.16792628 0.1796014 1.2717413 0.41003624 0.39314646 0.19758314 1.5661972 0.4054576
0.05750308 0.28922805 -0.121232726 -0.16560997 -0.17347825 -0.13630632 -0.21816158 0.23756862
-0.15861073 -0.052824497 -0.104319654 -0.17842878 -0.2011531 -0.20486909 -0.08057878 0.14774337
-0.19848149 -0.038698237 0.027519677 -0.09139197 -0.121113956 -0.29577306 0.24080281 -0.03708366
-0.17928346 -0.081942804 -0.3654005 -0.19269872 -0.09579632 -0.19811048 0.11954572 -0.11165929
0.028567178 0.06449194 -0.14723177 -0.15633743 -0.25823218 0.36749703 -0.15669249 -0.108864434
-0.19445406 -0.29796872 -0.15313499 0.052586053 -0.058449794 0.033874564 -0.116141826 0.107159175
-0.0123112695 -0.32039613 -0.324652 -0.34068787 0.36510903 -0.17143781 -0.09890438 -0.3663587
-0.4820477 -0.25383392 -0.11586118 -0.095483944 0.030382352 -0.16977069 0.104023375 0.095423646
-0.19047993 -0.16530049 -0.26838222 0.20671713 0.004374478 0.00072940334 -0.1401192 -0.27443823
0.021239884 0.041426484 -0.07519836 -0.15173337 -0.16164568 0.16901653 0.19427447 -0.2875706
-0.20502555 -0.30198947 0.06614135 -0.0023539795 -0.034095533 -0.23159313 -0.43352905 -0.088113144
-0.01761683 -0.26224196 -0.016096625 -0.21792912 0.040281992 0.07487332 -0.35819516 -0.21588977
-0.32990128 0.09147714 -0.20757455 0.10112653 -0.30503657 -0.5821923 0.0021942775 -0.101714924
-0.3150692 -0.12608072 -0.27794695 0.08072071 0.0064959005 -0.33110663 -0.34270388 -0.53694665
0.051960107 -0.08526253 -0.08666951 -0.3233833 -0.6870652 -0.3328528 -0.15697415 -0.38508227
0.04040933 -0.37594616 0.018977098 0.09821808 -0.18797356 0.039799582 -0.29439116 0.07412857
-0.24129075 -0.14104229 -0.3412994 -0.38274452 -0.22627646 0.040657673 -0.31481516 -0.05018354
-0.09814553 0.09679971 0.05826956 -0.23953415 0.06594429 -0.35043383 0.21649134 -0.16183084
-0.15567097 -0.17540702 -0.309655 -0.045501266 -0.023465011 -0.10685442 -0.09087582 -0.06803669
0.06072716 -0.018015588 -0.34335154 -0.13140926 -0.2740569 0.02063262 0.12079301 -0.071577914
-0.16976601 -0.3563469 -0.042451743 0.047807828 -0.09105393 -0.23747115 -0.11203453 0.11643401
0.20644316 -0.37089747 -0.3694491 -0.37084806 0.22557828 0.16770357 -0.040679816 -0.04767338
-0.41655812 0.13114877 -0.0025733989 -0.014719247 -0.027032733 -0.27426454 0.20194665 0.124325745
-0.2519646 -0.2492037 -0.3665951 0.5098101 -0.2373032 -0.18418205 -0.20511797 -0.3682975
-0.27304807 -0.0142626995 -0.12197015 0.09110616 -0.19250439 0.08432046 -0.13899574 -0.15217662

cnn_layers.0.bias f4 [8]
00000000: c322 48be 93d8 1abf defb 613e 639f 593e
00000010: e38f aebe 68a2 e3be 6f2d 0abe 45d4 6ebe
-0.1954451 -0.60486716 0.22068736 0.21252207 -0.34094152 -0.44459844 -0.13493894 -0.23323162

cnn_layers.1.weight f4 [8]
00000000: 6fb7 643f a75f 2e3f 9325 0a3f a0fa 593f
00000010: c5bb 423f 34e6 4c3f 29f4 313f 5c12 613f
0.893424 0.68114704 0.53963584 0.8514805 0.76067764 0.8003876 0.69513184 0.8791864

cnn_layers.1.bias f4 [8]
00000000: b753 ca3e 636b 9e3f 6622 823f ec6f 473f
00000010: 7c8c 7e3f 9c82 c23f 89c1 933f ebc5 7e3f
0.39516994 1.2376522 1.0166748 0.77905154 0.9943311 1.5196109 1.1543437 0.9952075

cnn_layers.1.running_mean f4 [8]
00000000: 98cc 85be 94f5 c6be 61e9 fc3e 40fc e53e
00000010: 227f 92bd 17fd 48be 9915 fd3d 94a7 97bc
-0.26132655 -0.38859236 0.49396804 0.44919014 -0.07153155 -0.19627796 0.12357635 -0.018512525

cnn_layers.1.running_var f4 [8]
00000000: 4b77 7441 11fd ce41 82e3 2842 b181 b241
00000010: aa25 2442 42f8 e141 0c9c a141 d618 d541
15.279124 25.873568 42.222176 22.313326 41.03678 28.24622 20.201195 26.637127

cnn_layers.4.weight f4 [14, 8, 3, 1]
00000000: b836 323d 5686 603d e86b 03bf 4cb2 7cbe
00000010: bf22 60be 2f0e 0dbd dc88 753e b400 6d3e
00000020: d902 913e 9819 b4be 85e1 bcbe cac4 c0be
00000030: fac5 9c3d a9e6 1e3e 74be 5e3e 4823 07bf
00000040: b84d a1be f0db a1bd 4ed8 bbbd 3216 aabd
00000050: 3bd8 633d 28c5 9d3e 0067 c23e 6845 9a3e
00000060: a833 253e 7578 9ebe 68a7 b3be c981 29be
00000070: 90b3 41be 5555 7bbe 3dd4 973e e3ae a93e
00000080: 29d4 873e a2cd dcbe 5828 ffbe 60f7 8fbe
00000090: aeb9 b13d 6cef 0f3e b0cd 273e cb74 0dbe
000000a0: b8cb 65be 4961 b2bd 745c ffbc b5f4 d63d
000000b0: 6761 06be eec1 e53e b5b5 fe3e 860b 073f
000000c0: ad73 c2bc 08d9 19bd 1fba aebe 52d3 8d3e
000000d0: 0277 3a3e ee5b d83e cefb 5f3e aa0d aa3d
000000e0: 16bd 283d 5378 13be 1b39 10bd e0c9 62bd
000000f0: 54a7 b2be 9829 8abe 7cbc 57be 2674 c03e
00000100: cefd 153f 8ead ec3e d848 07be 0321 45bd
00000110: 2c75 57be 5755 30be 7250 0cbe da09 133d
00000120: 605b 173e 7249 463d 9840 f5be 57c2 1abe
00000130: d154 1cbe e7aa 5abc 8cb2 b53d 22f5 833e
00000140: c876 cf3d cca3 76be a75d d4be 6a47 06bf
00000150: 4363 263d 27d9 363e 4fb2 7ebd e80e dbbd
00000160: 9901 7dbe 33ce c5bc f7f7 7abe 06fe d2bd
00000170: edad ebbd 1e25 8b3e 3d1a 1c3f 7111 0f3f
00000180: 57c4 4b3e 1a69 693c 7214 b1be c36f a53e
00000190: c97c c73e cbca 183f f6e9 d3bd 5425 93be
000001a0: a401 a7be 186b eb3a 1535 b23d 07ee 26be
000001b0: 5e44 cabe 33eb bcbe 9f75 e4be 53cd 3b3e
000001c0: 075a 693e b7c4 bb3e a10a c6be bf40 6dbe
000001d0: 0a6a b1bc cfd5 c73d 65c1 4fbe a2da d03d
000001e0: a21f 7d3e ddd5 5e3d dbdd dcbe aec7 0bbe
000001f0: 9ee9 983b d437 70bd fd31 4d3e 77aa 6d3d
00000200: 2fb3 543e 45b7 74be a0b5 d3be 3f5c bbbe
00000210: 3c9f c73c 5526 16be 8189 05be 7163 e7bd
00000220: e06c 223e f196 013e a8d7 f8bd 8690 6cbe
00000230: 6e1a 88be 4c41 cc3e 5147 f93e b56e c33e
00000240: 435d 023e d669 123e 75e3 aabe 7f29 f4bd
00000250: bd15 033d 5309 053d 77e7 953e 95cc 863e
00000260: 5582 d43e 95e9 d2be ba7d 9bbe d088 9dbe
00000270: 76c2 c93c 80fc 963b 7b92 38be 7e1f abbd
00000280: 0d9a 413c c717 b13d 694b f7bd 302e fbbd
00000290: b864 c4be 0930 cf3e fba3 e63e be34 963e
000002a0: 9650 583e 6ea6 33be 0730 8fbe 4fb4 b33e
000002b0: ba26 c93e 6377 f23e 367f 3fbd ab2e bebe
000002c0: 227f 4fbd 74e1 81ba e62a 99bd 18ae c03d
000002d0: 97b0 c1be 90a4 bdbe f83d 64be cc4d d53e
000002e0: faac b13e a823 b23e bcb3 fbbe 1c3b 07be
000002f0: 2d7a 1ebe 4178 21bd e6f2 b5bd a944 41be
00000300: 98f7 4a3e fe9d 043d 78b3 b0be dc7f babd
00000310: 84a6 1c3e fdc6 12be c944 563e 4a14 c03e
00000320: 4cd7 dc3e 28e0 dbbe 523e e6be 99c3 eebe
00000330: e468 643a 2e78 4f3d 9cc2 41be 22b6 6cbd
00000340: 9450 a2bc 41fb c33d 0c0a 7bbe a929 4ebe
00000350: 2578 6fbe 47a8 283f ac31 cd3e 144b 243f
00000360: 0f30 12be 3ee7 853d a98f a7be 1e01 533e
00000370: 5780 483e 5dea 073f 50a3 55bd e9eb 4fbe
00000380: a524 1c3d b719 c8bc d7bc 66ba ebf6 05be
00000390: 916f afbe 7605 ffbd 15c0 c1be 7ef4 c13e
000003a0: 7f2f 213f c4dc 183f d349 58be c20d 8abe
000003b0: 807c 4dbe 1bb3 9fbd 8901 a6bd 7705 83bd
000003c0: 09f1 30bd 53b3 1c3d a9d2 61be ad51 cb3e
000003d0: 48d5 d73e 86fb c83e 5cca 4cbd 5b30 4abe
000003e0: 13bb b9bc 4b3f c5bd d2b7 d3bc 629f c43d
000003f0: 0b94 63be af86 efbd 5f89 a9be 92f2 cc3e
0.043509215 0.054815613 -0.51336527 -0.2467739 -0.21888255 -0.034437355 0.23977989 0.231448
0.28322485 -0.35175776 -0.36890808 -0.37650138 0.076549485 0.15517677 0.2175234 -0.5278821
-0.31504607 -0.07903278 -0.09172116 -0.08305015 0.055626135 0.3081448 0.37969208 0.30131078
0.16132987 -0.30951276 -0.35088658 -0.16553415 -0.18916154 -0.2454427 0.29654112 0.3314124
0.26529053 -0.43125635 -0.49835467 -0.2811842 0.08677994 0.14056176 0.16387057 -0.13814084
-0.22440994 -0.08709962 -0.031172015 0.10495893 -0.13123094 0.4487452 0.49748006 0.5275196
-0.0237368 -0.037560493 -0.34126374 0.27700287 0.1820946 0.42257637 0.218734 0.083033875
0.04119595 -0.14401369 -0.03521071 -0.055368304 -0.34893286 -0.2698486 -0.21067995 0.37588614
0.585904 0.46226162 -0.13211381 -0.048127186 -0.21040791 -0.17220055 -0.13702562 0.035898067
0.1478095 0.048409887 -0.47900844 -0.15113197 -0.1526673 -0.01334641 0.08871946 0.2577296
0.101300776 -0.24085921 -0.414777 -0.5245272 0.040622007 0.17856275 -0.062181767 -0.106962025
-0.2470764 -0.024146175 -0.24508654 -0.103023574 -0.11507783 0.27176756 0.60977536 0.5588599
0.19899116 0.01424625 -0.3458591 0.3231183 0.3896239 0.5968444 -0.10347359 -0.28739417
-0.3261844 0.0017960994 0.08701531 -0.16301738 -0.39505285 -0.36898193 -0.44620988 0.18340044
0.22788249 0.3667352 -0.38679984 -0.2316923 -0.021657009 0.09757578 -0.20288618 0.10197951
0.24719098 0.054403175 -0.43138012 -0.1365039 0.004666521 -0.05864699 0.200386 0.058023896
0.20771478 -0.23898037 -0.41349506 -0.36593816 0.024367921 -0.1466306 -0.13040735 -0.11298264
0.15861845 0.12655236 -0.12150508 -0.23102006 -0.26582664 0.39893568 0.48687223 0.381704
0.12730889 0.14298186 -0.3337666 -0.11921977 0.032003153 0.032479595 0.29278156 0.2632796
0.41505685 -0.41193834 -0.3036936 -0.30768442 0.024628859 0.004607737 -0.18024628 -0.08355616
0.011816514 0.08647113 -0.1207493 -0.12264669 -0.38358092 0.40466335 0.45046982 0.29337114
0.21124491 -0.17543957 -0.2796633 0.35098502 0.3928736 0.4735671 -0.046752177 -0.3714498
-0.050658353 -0.0009909109 -0.07478885 0.09408206 -0.3783004 -0.37039614 -0.22289264 0.41660917
0.34702283 0.3479283 -0.49160564 -0.13206142 -0.15476294 -0.039421324 -0.0888422 -0.18873848
0.19821012 0.032377236 -0.34511924 -0.091064185 0.15297896 -0.1433372 0.20924677 0.3751548
0.43133008 -0.42944455 -0.44969422 -0.46633604 0.00087131397 0.05065172 -0.18921894 -0.057790883
-0.019813813 0.09569407 -0.24515551 -0.2013308 -0.23385675 0.6588177 0.4007696 0.6417706
-0.14276145 0.065382466 -0.32726792 0.20605895 0.19580208 0.53091985 -0.0521577 -0.20304836
0.038120884 -0.024426324 -0.0008801943 -0.13082473 -0.34264806 -0.124522135 -0.3784186 0.37881845
0.629631 0.5971186 -0.21121912 -0.2696362 -0.20067024 -0.077978335 -0.081057616 -0.06397527
-0.04319862 0.038256954 -0.22053017 0.3971075 0.42154908 0.39254397 -0.049997672 -0.19745009
-0.022672212 -0.09631213 -0.025844488 0.09600712 -0.22224443 -0.11695611 -0.33112618 0.40028816

cnn_layers.4.bias f4 [14]
00000000: 153c 783e d124 1cbe fa33 593d dded 093e
00000010: 8606 1bbf ddeb 283d 261a 113e 3a2c 9b3d
00000020: e9c7 9e3e 4a85 86be a1d3 b7be f553 0d3e
00000030: df59 ca3d fe6b 86be
0.2424167 -0.1524842 0.053028084 0.13469644 -0.6055683 0.04124056 0.14170131 0.07576795
0.31011894 -0.26273566 -0.35903648 0.13801558 0.09880423 -0.26254267

cnn_layers.5.weight f4 [14]
00000000: fef8 1c40 c42f 1d40 431c 1340 1a01 2540
00000010: 06a0 1c40 bdb1 2140 8fb3 1d40 d95e 2040
00000020: c226 2440 e2b0 1e40 c653 2240 4390 1d40
00000030: f409 2240 bc76 2440
2.4526973 2.4560404 2.2986 2.5781922 2.447267 2.5264733 2.4640844 2.505789
2.5648656 2.479546 2.5363631 2.46193 2.5318575 2.569747

cnn_layers.5.bias f4 [14]
00000000: f0bd ca3f 4b52 cf3f 6f2c b73f 0b5c da3f
00000010: 2e5c ca3f f9f0 d93f a55c d23f a380 d33f
00000020: adf3 dd3f c901 ce3f 3e5f d63f 879b cc3f
00000030: 4113 d63f d2ed dd3f
1.5839214 1.6196989 1.4310435 1.7059339 1.5809381 1.7026664 1.6434523 1.6523632
1.7339989 1.6094295 1.6747816 1.5984963 1.6724626 1.7338202

cnn_layers.5.running_mean f4 [14]
00000000: 046a 61bf f208 c3bd b182 d33f 1803 e3be
00000010: 2081 2ebf 0819 43bd 3559 f93e 780c eb3e
00000020: 832d 663f 6dbb 5e3f 6a2c f03e e6dc 4b3f
00000030: 8e3c 1e3f c586 60bd
-0.8805239 -0.095231906 1.6524259 -0.44338298 -0.6816578 -0.047631294 0.48700872 0.4590795
0.89913195 0.8700474 0.46908885 0.7963394 0.6181115 -0.054816026

cnn_layers.5.running_var f4 [14]
00000000: 9444 3d3d d44a 903e d1e8 5e3f 6ee0 8a3c
00000010: 2842 fa3c 8021 af3c 475e 413d 4331 d83d
00000020: e0fa 2a3e db22 0b3f 926e 723e cf3a 083e
00000030: 2ea0 1c3e 882d 0b3e
0.04620798 0.2818209 0.87074 0.01695272 0.030549124 0.021378279 0.04720905 0.10556271
0.16697264 0.5435006 0.23674992 0.13303684 0.15295479 0.13591588

linear_layers.0.weight f4 [1, 28]
00000000: 86bb c83f 4ede b33f 3bc6 c33f 606b b53f
00000010: 6a71 c93f 9b0f c63f e580 c33f 7853 c73f
00000020: 8b3a b53f 1dd1 cf3f 4486 c13f 728c c43f
00000030: 7807 ce3f 9c82 cb3f d559 bc3f 3df2 d43f
00000040: 8b44 ce3f 7f11 a53f bf0e c53f 94ef ca3f
00000050: 2164 d33f 0bbf c23f bd07 c53f 66e1 c23f
00000060: 622b c83f ad83 cc3f 9270 c03f 5c48 bc3f
1.5682228 1.4052217 1.529487 1.4173393 1.5737736 1.5473512 1.527371 1.5572348
1.4158491 1.6235691 1.51191 1.535536 1.6096029 1.5899234 1.4714915 1.6636425
1.6114668 1.2895964 1.5395125 1.5854363 1.6514932 1.5214552 1.5392987 1.5225036
1.5638239 1.5977684 1.5034354 1.4709582
