model/model_FD001.onnx (onnx, 4592 bytes, 5 tensors)

linear_layers.0.weight f4 [1, 28]
00000000: 6305 ac3f 045c c33f 6c14 ce3f a1d7 c33f
00000010: 4d3e c73f f0d3 cf3f 3165 b83f 3bf5 bc3f
00000020: 04b5 a33f 91f8 c63f 49b4 c73f 410c a73f
00000030: 7af8 ce3f 5fdb bd3f a915 c33f 1b69 bc3f
00000040: a157 ae3f 03b8 a73f b0b8 b33f f64c c63f
00000050: c158 b13f 6773 c03f 216b b33f ee58 d63f
00000060: 285f ab3f d81e cb3f 9084 bc3f 9bc3 ce3f
1.3439144 1.5262456 1.6099982 1.530018 1.5565888 1.6236553 1.4405881 1.4762338
1.2789617 1.5544606 1.5601894 1.3050615 1.6169579 1.4832572 1.5240985 1.4719576
1.3620492 1.3103031 1.4040737 1.5492237 1.385521 1.5035218 1.4017068 1.6745889
1.3388414 1.5868788 1.4727955 1.6153444

31 f4 [8, 1, 4, 15]
00000000: fb2d f1bc ab33 063d aa48 7e3e 7dc2 d43d
00000010: 1ef0 85bc c442 c23d c082 babc 9a67 a5bd
00000020: ee8d f0bd 9d6c a4bc 6ede 82bd 65e6 023d
00000030: 769a eabc 3c4d 80bd 4f4c e3bd 1a83 4f3e
00000040: 85e8 963d 7b71 b4bd 435d 19bd d8c2 16bd
00000050: f577 debd c0e5 683d c0ef 433e bf7f 30be
00000060: cf94 713e af69 873b cd70 393d 83d8 dfbd
00000070: f1fb f93d 805e d13d ab29 30bd b7b1 ef3d
00000080: 5c54 1f3d 494e f93d b9b3 c53d 7d4a 1dbe
00000090: 0042 9f3c dbe8 4c3d 971a 16be 3672 3fbd
000000a0: 0298 dd3c e46b 5a3d 8b28 afbe b25c f23c
000000b0: 5666 bebd 67b3 1c3e b9e3 853d 7761 b73d
000000c0: a7d9 77bd 6e8e 7ebe 2674 343c 52f8 19bd
000000d0: b3f9 f7bc be9b 6b3c 05dc 9f3d 2afc 923b
000000e0: 15df 093e 474b 863e 3ba3 be3d 7ae2 693e
000000f0: d1c0 3a3c fef3 56bc 7dba 05bb 4d06 863c
00000100: 9ac2 b6bc 0374 f83c 95fb 03bd 7b6d 143d
00000110: 4260 b5bc bf56 353d 0fd9 9dbd e280 20bc
00000120: 6a79 b33b a705 9c39 63b2 7bbb ad3f 68bc
00000130: 532d a0bc aa1d 85bc a336 9f3b 2a1f 2a3b
00000140: 2bd3 dd3a cc48 05bd 4ed4 c83b 7547 873b
00000150: 6692 663c 09a1 35bd bd9c e3bc 7be4 373c
00000160: c67e 65bc 455d 1cbc 4b3e 80bc 8062 05bd
00000170: a1a5 15bd 475e aa3c af30 003d d63c 8bbc
00000180: 5283 42bd ac53 1fbd 7713 3c3d 531a 03bc
00000190: e8e4 0fbd af6e c5bc 6248 96bc 9829 f23c
000001a0: 3f02 cf3c 792a 73bd c752 21bd d57e 97bd
000001b0: 6147 2f3b 631d 7a3d 1d3d 5ebd acfe 40bd
000001c0: a8dd 94bd abcf 9e3d 2de5 3dbd 26c5 19bd
000001d0: 6eec 56bd 8a00 77bd 0dfc 323d 6a8c 003d
000001e0: 9752 3a3c 9d11 873c 2091 6c3c c313 ac3d
000001f0: 3bc8 e3bc c878 833d 2dda f2bb 2857 ff3c
00000200: 2350 46bd d1ef 3e3d 01e3 c5bc d42d 41bc
00000210: d52a 1c3c 8f17 61bc 1331 a0bc 1b2d 01bd
00000220: fab0 b9bc 2448 a1bc ee0a 1139 713b 6e3c
00000230: 6a2a 263d ba20 d4bc cb09 bbbb 397b f03b
00000240: a08c 013d 4fcb c4bc 95c7 e1bc a857 913c
00000250: bbb3 a1bb aed3 32bc 2df2 16bd ce69 1abd
00000260: 57de 00bd 7244 bbbc 1c74 6a3d 1cfb 8fbc
00000270: 9989 10bc c0c2 45bd e810 633d 9071 0fbd
00000280: 199a 2abc aa7e 13bd c6b7 e9bc caae 513d
00000290: 6c53 473d 3312 8fbd 9330 57bd 10f6 5cbd
000002a0: b162 3f3d 9aba 9a3d b752 4bbd 7744 0cbd
000002b0: ef53 6abd 4910 433d c5a2 afbd 532e 16bd
000002c0: 017e 85bd 4050 15bd 4044 1f3d afb5 0d3d
000002d0: eecd c03d fdf6 db3d c2d0 323e 74e0 10bd
000002e0: 5699 f93d 9b6c 20be 1f9f ca3c a935 20bd
000002f0: a34d fbbc 60e1 793c a463 ad39 0176 35bc
00000300: 3c27 ddbd 4971 7fbd 2429 92bd 9e88 2139
00000310: c614 9cbd 447d 6ebe 2564 23be 988c b93d
00000320: 261b 63bd c8dc 3c3d 09c4 23bd 48b0 d3bd
00000330: ddbd dc3d 96f2 0cbd cdd2 23be 2f64 0bbd
00000340: 89f2 30bd a9c2 823c 4342 863d 3500 443d
00000350: aaf4 a83c c8c0 dbbc 6961 31be 3014 9ebd
00000360: 5287 ffbd 5ed2 93bd 5b94 32bd 2778 c43d
00000370: 4ba1 8dbd b3d2 c83d 6a1d 11be 41ce 7d3e
00000380: 351b b83d 06c9 333e 51ff 933d 495c 2f3e
00000390: 48a8 9a3d 01c2 95be 0ca5 173e dad1 1bbd
000003a0: 7b85 ac3e b402 ccbd bd2b 013e 4a50 7fbd
000003b0: e8c1 4f3e a2a5 f93d 558e d03d 1157 b83c
000003c0: 156a 003c 17e1 c4bb 6354 47bc f2ac e83c
000003d0: c3bd 7f3a c624 5e3c 0583 f7bc 6387 963b
000003e0: 493b 84bb 9986 b93c f0f5 e1bc e4fe 0ebc
000003f0: 51fd 6b3b 2995 3f3b e059 843b 8477 54bc
-0.02944087 0.03276412 0.24832407 0.10388658 -0.016349848 0.09485391 -0.022767425 -0.08076401
-0.11745821 -0.020071322 -0.06390081 0.031958003 -0.028638106 -0.06264731 -0.11098539 0.20264855
0.07368568 -0.08810707 -0.037442457 -0.03680691 -0.10862724 0.05685973 0.19134426 -0.17236231
0.23591922 0.0041324715 0.04527359 -0.10929968 0.12206257 0.102231026 -0.043008488 0.11703818
0.03889881 0.12173135 0.0965342 -0.15360446 0.019440651 0.050026756 -0.1465858 -0.04673978
0.027050022 0.05332555 -0.3421062 0.029585216 -0.09296863 0.15302812 0.06537575 0.08954137
-0.060510304 -0.2485902 0.01101402 -0.037590332 -0.030270433 0.014380394 0.07805637 0.0044856267
0.13464005 0.26229307 0.093084775 0.228403 0.01139851 -0.013119696 -0.0020405345 0.016360426
-0.02230959 0.030328756 -0.03222235 0.03623722 -0.022140626 0.04427218 -0.07707416 -0.009796353
0.00547712 0.0002975885 -0.0038405887 -0.014175338 -0.019552862 -0.016249496 0.004858808 0.0025958517
0.0016923895 -0.032540128 0.0061288243 0.0041283914 0.01407299 -0.04434303 -0.0277847 0.011223908
-0.014007276 -0.009543722 -0.015654704 -0.03256464 -0.03653491 0.020796908 0.03129643 -0.016996782
-0.047488518 -0.038898155 0.045917 -0.008001882 -0.03513041 -0.02410063 -0.018345062 0.02956085
0.025269626 -0.059366677 -0.039385583 -0.07397238 0.0026745426 0.06106318 -0.0542575 -0.047117874
-0.0726884 0.07754453 -0.046361137 -0.03754153 -0.05247157 -0.06030325 0.043697406 0.03138391
0.01137223 0.01648789 0.014438897 0.08402207 -0.027805438 0.064195216 -0.0074112625 0.031169489
-0.048416268 0.046615425 -0.024156095 -0.011790711 0.009531696 -0.013738527 -0.01955465 -0.031537157
-0.022667397 -0.01968772 0.00013832349 0.014540539 0.040567793 -0.025894511 -0.0057079545 0.007338908
0.03162825 -0.024022726 -0.027560988 0.017741993 -0.0049347556 -0.010914726 -0.03685205 -0.03769856
-0.03146204 -0.022859786 0.057239637 -0.017575793 -0.008821868 -0.04828143 0.055436045 -0.03502041
-0.010412716 -0.03600947 -0.028530013 0.051192082 0.04866354 -0.06985893 -0.05253656 -0.0539456
0.04672498 0.07555123 -0.04963943 -0.03424498 -0.05720895 0.047622953 -0.08575968 -0.036665272
-0.06518174 -0.036453485 0.038883448 0.034597095 0.09414278 0.10740469 0.17462447 -0.035370305
0.1218745 -0.1566643 0.024734078 -0.039113674 -0.030676669 0.0152514875 0.0003307137 -0.011075498
-0.10798499 -0.062363897 -0.07136753 0.0001540505 -0.0762115 -0.23289973 -0.15956171 0.09060019
-0.055445813 0.04610899 -0.039981876 -0.10336357 0.10778401 -0.034411035 -0.15998383 -0.03403109
-0.04320005 0.015961962 0.06555607 0.04785176 0.020624477 -0.026825324 -0.17322315 -0.07718694
-0.12476982 -0.07217859 -0.043598514 0.0959323 -0.0691553 0.09805813 -0.14171377 0.24785711
0.08989564 0.17557153 0.07226432 0.17125048 0.07551628 -0.29249576 0.14809054 -0.038041927
0.33695588 -0.09961453 0.12614341 -0.06233243 0.20288813 0.12189795 0.10183398 0.022502454
0.007837792 -0.006008278 -0.012166115 0.02840278 0.0009755755 0.013558572 -0.030213842 0.004593776
-0.0040353877 0.022647189 -0.027583092 -0.008727763 0.0036009143 0.0029233193 0.0040390342 -0.012967948

32 f4 [8]
00000000: 78cc a13d 99c7 6d3f 7cf0 2f3f 0bac a6be
00000010: 2428 5b3f e9df 503e 4f67 9b3f 65cd 533f
0.079003274 0.92882687 0.68726325 -0.32553133 0.85608125 0.20397915 1.2140902 0.8273528

34 f4 [14, 8, 3, 1]
00000000: 4aef be3f 5d31 f83f f59b 5140 4bd2 b83f
00000010: 9a25 093f 563f 1a40 e4cf 6e3f 80af 813f
00000020: a8bd 7a3f 85d0 aebf 6401 ebbf e191 70c0
00000030: f7b2 d63f 12ce e13f e996 2b40 4b66 c0bf
00000040: 04d3 1cbf c9e8 7dc0 6896 2dc0 fbeb 18c0
00000050: 278d 3cc0 016e 6fc0 0911 19c0 3446 57bf
00000060: c374 c93b ac67 b8be 57e9 e4be be03 853e
00000070: f4fd 4d3d d3a6 ed3d b390 193f 031d 963e
00000080: 7f45 2c3f 19bd c0bd 7154 d1be 0452 26bf
00000090: f74a 6d3d 4697 8d3e 9df9 613e 83ed f2be
000000a0: 413d ccbd b4b9 14be fac5 43bf 64a3 04bf
000000b0: 4fa5 a1be 8c23 633f e64e 033f 6532 1c3f
000000c0: b39b 56be f649 813d cceb adbd 5f4e 04be
000000d0: ca95 72bb e2a7 a53e 19fb 063f e395 2f3f
000000e0: f1ed 143f 31e5 3bbe 804e 18bf c5d3 31bf
000000f0: 9787 2bbe c395 23bd e3f8 ae3e ee04 93be
00000100: 4d45 07bf 29cb a8be 2b2b 5fbf b004 63bf
00000110: 7cce 05bf 14df 873f 9fff b23f 3749 813f
00000120: c4db 3940 b4c9 2a40 9372 3240 7138 ca3f
00000130: 10dd c13f 34eb 4340 be6c 6b3f de43 573f
00000140: de7c 34be 40af 01c0 f257 1ec0 4be3 48c0
00000150: 413b ee3f d506 b83f 03d8 a23f 6608 57c0
00000160: 7924 a2bf 4d6b aabf 0d83 20c0 fed8 4cc0
00000170: 8312 1ec0 4579 a13e 1ed9 e63e 316d c6bd
00000180: 1d63 1b40 de73 1140 e995 2140 9198 ba3f
00000190: 163d 973f 75f9 f53f a5c7 823e a4bb cabe
000001a0: eb65 31bf cc7b ffbf b177 f2bf afd0 12c0
000001b0: 0719 a9bb f85d 9e3f 2d20 5040 fa6e 06c0
000001c0: b64f 96bf bb7a 60c0 2862 14c0 77a5 c9bf
000001d0: baec 55c0 8fd6 a5bd 432f 9bbc 376d 613f
000001e0: c476 6040 3849 1d40 2bdd 5140 3dfa 7840
000001f0: 4de0 4740 4f3a da3f e83c db3f b845 0740
00000200: ccef 28bf e0f4 92c0 a027 f1bf 0cf8 0bc0
00000210: 6430 0a40 0191 923f fc46 3a40 0c70 52c0
00000220: c122 e5bf a72e 2cbf 0b16 5ac0 6ece 99c0
00000230: 06c5 4fc0 8be3 4f3f 2dda c4be 47b0 18bf
00000240: fbe3 11bf e99c 08bf 5e7a 23bf c0a7 993e
00000250: 8dad 353e 5c7d a23e 994d 6b3e 3a1f c23e
00000260: 7abc 893e 9cac 51bf 8f16 15bf 788c 31bf
00000270: 01a9 5b3e c126 90bd 3617 3a3e f26d 32be
00000280: 9750 edbd 2b08 8cbe 334e 23bf 9d5a 3dbf
00000290: 4c27 2dbf f345 ac3e 23e4 bb3e 63c3 013f
000002a0: 9916 14bf ea18 e3be 697f ebbe dfdf f03d
000002b0: 40fb 233e d805 533e 9b73 a13e f634 a23e
000002c0: eaa9 c43e e46e 65be 8f12 43be 4316 8dbe
000002d0: 4f93 c23c a23d 903e 097c 8f3e fce2 17be
000002e0: 2795 b6be 9e63 afbe c0c8 bfbe 9788 78be
000002f0: 70ea 90bd 3ced 283e 2fd7 0f3e a9c5 383e
00000300: 88b0 d13c b718 00be 09eb b7be a29c d93d
00000310: 71f5 a63e 8af9 233d f2ca b83e 0490 a73e
00000320: c487 cf3e 997b 75be 656f 05be b856 96be
00000330: 6f3f 0abe afb1 8c3e 906f 793e d4f0 02be
00000340: 3a99 c5be cca1 cfbe 5b4d 83be 0070 33bc
00000350: ac7b 21be 2dee c63e b6c9 bc3d 593e 0c3f
00000360: d551 d5be a5ba 32bf 14d5 dfbe 733e 7b3c
00000370: 9f08 e73e d1a6 753e 2fc0 7e3e 7214 0c3e
00000380: 1430 7f3e 1000 11bf 263a 68bf cc55 99bf
00000390: 3af5 12be aef7 09be 73c6 a43e 0608 82bf
000003a0: 1e78 0cbe be3b d8be bf54 9abf 7ea3 7abf
000003b0: f3f2 07bf 908b a2bf 89f8 c6bf 7921 cbbd
000003c0: 8ca2 0840 3e88 2040 57f3 433f 6704 1a40
000003d0: 6a47 1f40 02d6 a33f 3b5e d13f a6e4 e93f
000003e0: 2f92 f43f 02b0 d3bf 2507 72bf 414c 00c0
000003f0: d1c4 073f 0fcb a03f d6a1 eb3f f30e 12c0
1.4916775 1.9390064 3.2751439 1.4439176 0.53573 2.4101157 0.93285966 1.0131683
0.9794564 -1.3657385 -1.8359799 -3.7589037 1.6773366 1.7641013 2.6810858 -1.5031217
-0.61259484 -3.967333 -2.712305 -2.389403 -2.9461153 -3.741089 -2.3916647 -0.84091496
0.0061479523 -0.36016595 -0.44709274 0.25979418 0.050291017 0.11604085 0.5998642 0.2931901
0.6729354 -0.094110675 -0.40884736 -0.64968896 0.05793282 0.27654475 0.22067876 -0.47446832
-0.09972621 -0.14523965 -0.76473963 -0.51811814 -0.31571433 0.88726115 0.51292264 0.61014396
-0.20957832 0.06312935 -0.0849224 -0.12920521 -0.003701555 0.32354647 0.52726895 0.68588084
0.5817557 -0.18349148 -0.5949478 -0.6946376 -0.16750942 -0.039937746 0.3417426 -0.287147
-0.5284012 -0.329675 -0.87175244 -0.8867903 -0.52268195 1.0614953 1.3984259 1.0100468
2.9040384 2.668561 2.788243 1.5798475 1.5145588 3.0612307 0.919628 0.8408793
-0.17625758 -2.0263214 -2.4741178 -3.1388729 1.8611833 1.4377085 1.2722172 -3.3598876
-1.266738 -1.3313996 -2.5079987 -3.2007442 -2.4698799 0.31537834 0.45087522 -0.09688795
2.4279244 2.272697 2.5247748 1.457781 1.1815517 1.9216753 0.25542942 -0.39596283
-0.6929614 -1.9959655 -1.8942777 -2.293987 -0.005160454 1.2372427 3.2519639 -2.1005235
-1.1743076 -3.5074909 -2.318491 -1.5753621 -3.3425736 -0.080975644 -0.018943435 0.88057274
3.5072489 2.457594 3.279124 3.8902733 3.1230652 1.7049044 1.7127962 2.1136303
-0.659909 -4.592392 -1.8840218 -2.1870146 2.1592035 1.1450502 2.9105825 -3.2880888
-1.7901231 -0.67258686 -3.4075954 -4.806449 -3.2464004 0.8120658 -0.38447705 -0.5964398
-0.56988496 -0.53364426 -0.6385859 0.30010796 0.17741986 0.31736267 0.2297882 0.3791445
0.2690161 -0.81904006 -0.58237547 -0.69354963 0.21451189 -0.07038642 0.18172917 -0.17424753
-0.11587637 -0.27349982 -0.637912 -0.7396639 -0.6763809 0.33647117 0.36697492 0.5068876
-0.5784698 -0.44354945 -0.45995644 0.1176145 0.16013813 0.20607698 0.31533512 0.3168103
0.38410884 -0.22405583 -0.19050048 -0.27556047 0.023751883 0.28172022 0.2802432 -0.14832681
-0.3566067 -0.3425569 -0.37457848 -0.24270855 -0.070759654 0.16496748 0.1404693 0.18044151
0.025596872 -0.12509428 -0.35921505 0.106255785 0.32609132 0.0400329 0.36092335 0.32727063
0.40533268 -0.2397293 -0.13030775 -0.29363036 -0.1350076 0.27479312 0.24358964 -0.12787181
-0.38593465 -0.4055313 -0.25644955 -0.010951996 -0.15769833 0.3885359 0.09218161 0.54782635
-0.41663995 -0.69816047 -0.43717253 0.015334713 0.45123765 0.23989417 0.24878 0.13679674
0.24920684 -0.5664072 -0.9071373 -1.1979308 -0.14351359 -0.13473389 0.32182655 -1.0158699
-0.13717696 -0.4223308 -1.2057112 -0.9790572 -0.53105086 -1.2698841 -1.5544597 -0.09918494
2.134921 2.5083156 0.7654318 2.4065187 2.4887338 1.2799685 1.6356882 1.8272903
1.9107112 -1.6538088 -0.9454215 -2.0046542 0.53034693 1.2561969 1.8408763 -2.2821624

35 f4 [14]
00000000: fffc 0441 bd1e 093f 7021 f73e 118a 383f
00000010: 0abe 5d40 8842 413e 07c6 4340 eebd b43f
00000020: 80a1 0e3c 52cf 0f41 b5d9 f03f 2158 a240
00000030: aaf8 553f 411e 1a40
8.311767 0.5356253 0.48267698 0.7208567 3.464724 0.18873036 3.0589616 1.4120462
0.008705497 8.988115 1.8816439 5.073258 0.83582556 2.4080966
