model/model_FD004.pth (torch, 9919 bytes, 13 tensors)

cnn_layers.0.weight f4 [8, 1, 4, 21]
0	0xbd42dd2a	-0.0475742
1	0xbd44911a	-0.047989942
2	0x3d6eb4b9	0.05827782
3	0xbd05cd4e	-0.032666497
4	0xbda71353	-0.08157983
5	0x3e1722ee	0.14759418
6	0x3cdfeec2	0.027335528
7	0xbdf4af56	-0.11947505
8	0x3afc3ca5	0.0019244148
9	0x3e6ab4b6	0.22920498
10	0xbc849c73	-0.016187882
11	0x3dd88324	0.10571888
12	0xbda9ffa5	-0.083007134
13	0x3e827955	0.25483194
14	0x3e2ec3f9	0.17066945
15	0xbe5f1d2c	-0.21788472
16	0x3da6230e	0.08112155
17	0xbe1fd2be	-0.15607736
18	0xb9fc356b	-0.00048104985
19	0x3dd9d9a4	0.10637215
20	0xbd409ca4	-0.047024384
21	0x3de2e841	0.11079455
22	0xbcc00fd7	-0.023445053
23	0x3ccba189	0.0248573
24	0xbc8e62d5	-0.017381111
25	0xbd297380	-0.041369915
26	0xbc17b22a	-0.009258786
27	0x3d524838	0.051338404
28	0x3de232e0	0.1104486
29	0xbca7f81d	-0.020504052
30	0x3e4b2706	0.19839105
31	0x3c81d70b	0.01584961
32	0x3d328fe0	0.04359424
33	0x3db03c72	0.08605279
34	0x3de33c79	0.110955186
35	0x3e0e845f	0.13917683
36	0xbeb86f96	-0.36022633
37	0xbde465ef	-0.11152255
38	0xbd0e60e6	-0.03476038
39	0x3c297fca	0.010345409
40	0xbd180a8c	-0.037119433
41	0xbad0d59a	-0.0015932799
42	0xbdbdea2a	-0.09273179
43	0xbe55518b	-0.20831887
44	0xbcbfc75b	-0.02341049
45	0xbe7db4b6	-0.24775967
46	0xbea32cbe	-0.31870073
47	0x3dcf2934	0.10115281
48	0xbe2f4eb0	-0.1711986
49	0x3cdcc578	0.02694963
50	0xbdd98c95	-0.10622517
51	0x3eb7800e	0.35839885
52	0x3cf94a6b	0.030430993
53	0xbe316e05	-0.17327125
54	0xbe09a7c8	-0.1344291
55	0x3e682fcc	0.22674483
56	0x3dfa3568	0.12217218
57	0x3eb340b9	0.35010317
58	0xbde3fb11	-0.111318715
59	0x3cb6aa85	0.022298107
60	0x3cdbcca5	0.02683098
61	0xbdfd9f8d	-0.123839475
62	0xbd70059d	-0.058599103
63	0x3e55dd7a	0.20885268
64	0x3dd97b41	0.10619212
65	0x3d5d64d8	0.05405125
66	0xbd7dbe56	-0.061949097
67	0xbf08e2dd	-0.53471166
68	0x3b35e2a9	0.0027753508
69	0xbe9b1105	-0.30286422
70	0x3da421b3	0.0801424
71	0xbd495bae	-0.0491597
72	0x3dc3d65b	0.095623694
73	0xbafc6603	-0.0019256476
74	0xbe91fcb8	-0.28513122
75	0x3e0ef29c	0.13959736
76	0x3dbfe55f	0.09369921
77	0x3e103b8e	0.14085218
78	0x3e2a19d2	0.16611412
79	0xbd75036a	-0.05981771
80	0x3cd1cf2c	0.025611483
81	0xbb543e40	-0.0032385737
82	0xbe23155c	-0.15926117
83	0xbd569cd2	-0.05239565
84	0xbd096051	-0.03353912
85	0xbbc5199e	-0.0060150167
86	0x3d59228e	0.05301147
87	0x3da289c0	0.0793643
88	0x3dc780fc	0.09741399
89	0xbe2caf24	-0.16863686
90	0xbc152f13	-0.009105462
91	0x3dd56c2f	0.10421025
92	0xbe0205a2	-0.12697461
93	0xbe007cc9	-0.12547602
94	0xbc978258	-0.01849477
95	0xbc7b6f93	-0.015346426
96	0xbd17355e	-0.03691613
97	0xbee1daad	-0.4411215
98	0xbec442e6	-0.3833229
99	0xbdbec0e4	-0.09314135
100	0x3d02e656	0.031957947
101	0xbdb6d933	-0.08928146
102	0x3d89f237	0.06735652
103	0xbda8c5fe	-0.08240889
104	0x3dc0ba57	0.094105415
105	0xbd81d59f	-0.06339573
106	0x3df93660	0.12168574
107	0x3d81afd7	0.06332367
108	0x3df02f19	0.11727733
109	0xbd78c0ea	-0.060730852
110	0xbd914c68	-0.070946515
111	0xbd3e5e8f	-0.046476897
112	0xbd322dee	-0.043500833
113	0xbd8a4163	-0.06750753
114	0xbe3f333b	-0.18671887
115	0x3e7014fa	0.23445502
116	0xbb895d46	-0.0041920273
117	0x3db7f233	0.08981743
118	0xbded2635	-0.11579553
119	0xbdaf84db	-0.08570262
120	0x3e106a75	0.1410311
121	0x3e2dc51b	0.16969721
122	0x3ddb0845	0.10694937
123	0xbc12ff2c	-0.0089719705
124	0xbe269ff3	-0.16271953
125	0xbb865afe	-0.0041002026
126	0xbdd980a4	-0.106202394
127	0xbd702e00	-0.05863762
128	0x3d15777b	0.0364909
129	0x3d7c83e8	0.061649233
130	0xbcadb1c0	-0.021202922
131	0xbc84bbc9	-0.016202824
132	0xbdc4f5c4	-0.096171886
133	0xbd378665	-0.044805903
134	0xbce76be8	-0.028249696
135	0xbe87ccfb	-0.26523575
136	0x3e7a7b04	0.24460989
137	0xbe038d09	-0.1284677
138	0x3b406896	0.0029359213
139	0xbe44cd9f	-0.19219063
140	0xbe9be2c7	-0.30446455
141	0xbe3e98e3	-0.18613009
142	0x3db31301	0.08743859
143	0x3d0e816e	0.034791403
144	0xbd0bac29	-0.03409973
145	0x3d2648cb	0.040596765
146	0x3c1fad03	0.009745839
147	0xbe873a07	-0.2641146
148	0x3c948126	0.018127989
149	0x3b8b6dd4	0.004255036
150	0x3eb30521	0.3496485
151	0x3e5638de	0.2092013
152	0xbe143194	-0.14472038
153	0x3d1f7b1d	0.03893577
154	0xbc705c89	-0.0146705
155	0xbdd73f70	-0.105101466
156	0xbf0adc45	-0.54242355
157	0x3e12355a	0.14278165
158	0x3d82ce91	0.06387056
159	0x3b69b1c3	0.0035658933
160	0xbe2058f0	-0.15658927
161	0xbe85e6a4	-0.26152527
162	0xbedf32de	-0.43593496
163	0x3d0d1fde	0.03445422
164	0xbbdcf18a	-0.006742661
165	0x3c91078c	0.017703794
166	0xbd251812	-0.04030616
167	0xbdd0f429	-0.1020282
168	0x3d9e4b1a	0.07729168
169	0x3d27c9ab	0.04096381
170	0x3e6e227c	0.23255342
171	0x3e5812c8	0.21100914
172	0x3e56fa42	0.20993903
173	0x3dc43846	0.09581046
174	0x3d8c631e	0.068548426
175	0xbd46ba35	-0.048517425
176	0x3d2e6862	0.042580016
177	0xbdb40056	-0.087891266
178	0x3e5ef0d7	0.2177156
179	0xbd6cf9a5	-0.057855267
180	0xbe9eb203	-0.30995187
181	0xbe4fc0cd	-0.20288391
182	0xbe16a417	-0.14711033
183	0x3e7cfb5c	0.24705261
184	0x3e54ea9d	0.20792623
185	0xbd2822ac	-0.04104869
186	0xbe34ef19	-0.17669334
187	0x3d9134a3	0.07090118
188	0x3df321d0	0.118716836
189	0xbdf71ad0	-0.12065661
190	0xbe013aef	-0.12620138
191	0x3dd36254	0.10321489
192	0xbc7841cc	-0.015152406
193	0xbc3396b8	-0.010961227
194	0xbe4a1468	-0.19734347
195	0xbe4753c4	-0.19465548
196	0xbda7a92f	-0.08186566
197	0xbe3511e1	-0.17682602
198	0xbe274aa4	-0.16337067
199	0x3d8e0f1e	0.06936477
200	0xbc6e142e	-0.014531178
201	0x3e38bac5	0.18039997
202	0xbeb19044	-0.34680378
203	0xbe69d131	-0.22833706
204	0x3c6ef5fe	0.014585016
205	0xbcb0bc39	-0.021574127
206	0xbdea3bea	-0.11437209
207	0xbc8cb5c5	-0.017176518
208	0xbe0c6a0a	-0.13712326
209	0xbe36c283	-0.17847638
210	0xbee53078	-0.4476354
211	0xbea39085	-0.31946197
212	0xbde441b8	-0.11145347
213	0xbcbcbd52	-0.023039494
214	0x3d8d5457	0.06900852
215	0xbe09d4fe	-0.13460156
216	0x3d837dcd	0.06420479
217	0xbe370e7c	-0.17876619
218	0xbe20d3bc	-0.1570577
219	0xbe62b46e	-0.22139141
220	0x3e0a8456	0.13527045
221	0x3d8bc138	0.06823963
222	0x3d92e480	0.07172489
223	0xbce1c33a	-0.027558912
224	0xbe96745e	-0.29385656
225	0x3e8daf49	0.27672794
226	0xbe890252	-0.26759583
227	0xbe178543	-0.14796929
228	0x3de96a9d	0.11397288
229	0xbdcd2c02	-0.100181594
230	0xbe071489	-0.13191427
231	0xbd84ce47	-0.06484657
232	0x3ce81481	0.02833009
233	0x3d82b210	0.06381619
234	0xbcbc2881	-0.022968533
235	0xbddeb969	-0.10875208
236	0xbe5513cb	-0.20808332
237	0xbdb43718	-0.08799571
238	0x3d3c1643	0.045919668
239	0x3c7ba629	0.01535944
240	0xbec340a9	-0.3813527
241	0x3c51e97a	0.012812013
242	0xbe2cc962	-0.16873696
243	0x3d3dc505	0.04633047
244	0xbda4eed0	-0.08053362
245	0xbdccc7bd	-0.099990346
246	0xbe1d0031	-0.15332104
247	0x3d92d312	0.07169165
248	0x3d051ae2	0.03249634
249	0x3d8fc246	0.070194766
250	0xbde7ec72	-0.11324395
251	0xbe436b18	-0.19083822
252	0x3dc0eeaa	0.094205216
253	0x3db0d580	0.08634472
254	0x3c83a952	0.01607195
255	0xbe019b1c	-0.12656826

cnn_layers.0.bias f4 [8]
0	0xbefdff0b	-0.49608645
1	0x3e6694a4	0.2251764
2	0x3d8ed63e	0.06974457
3	0xbdd685c2	-0.10474731
4	0x3df85289	0.12125117
5	0xbe1e8a5b	-0.15482466
6	0xbf1b3c3a	-0.60638773
7	0x3d1a0e79	0.03761146

cnn_layers.1.weight f4 [8]
0	0x3f63cf05	0.8898776
1	0x3f28d96f	0.6595678
2	0x3eff8956	0.49909467
3	0x3f1539fa	0.5829159
4	0x3f1dc26e	0.616248
5	0x3f877b68	1.0584536
6	0x3f903ac2	1.1267931
7	0x3f9b26fb	1.2121271

cnn_layers.1.bias f4 [8]
0	0xbe91f7a3	-0.28509244
1	0x3ec1809a	0.37793428
2	0x3d8a9ee5	0.06768588
3	0x3f941ee9	1.1571933
4	0xbef6b8ea	-0.48187953
5	0xbf892320	-1.0713844
6	0xbc99c043	-0.018768435
7	0xbf06c17d	-0.5263899

cnn_layers.1.running_mean f4 [8]
0	0xbefe75ff	-0.496994
1	0x3e60bcb1	0.2194698
2	0x3daac71d	0.08338759
3	0xbdbc04f0	-0.09180629
4	0x3df97841	0.1218114
5	0xbe200cc9	-0.15629877
6	0xbf183f7c	-0.5947187
7	0x3ca45728	0.02006109

cnn_layers.1.running_var f4 [8]
0	0x3fd1c827	1.6389207
1	0x3f5fc2ff	0.87406915
2	0x40d45075	6.6348214
3	0x3d04200e	0.032257132
4	0x409480d1	4.6407247
5	0x3d05f35c	0.03270279
6	0x4007ba67	2.120752
7	0x3d2e0194	0.042481974

cnn_layers.4.weight f4 [14, 8, 3, 1]
0	0x3e1c7a04	0.1528092
1	0x3e4661dd	0.1937327
2	0x3e01611d	0.12634702
3	0xbca1e02d	-0.019760216
4	0xbdd60103	-0.10449412
5	0xbe80b26c	-0.25136125
6	0xbdba67bf	-0.09101819
7	0xbe304f96	-0.1721786
8	0x3cd5052e	0.026003446
9	0xbdb2d4e0	-0.08732009
10	0xbdc0d81b	-0.09416219
11	0x3e771fea	0.24133268
12	0x3e6a519f	0.22882698
13	0x3e1c55d2	0.15267113
14	0x3f1266f8	0.5718837
15	0xbd480eb7	-0.04884216
16	0xbd0ce8f5	-0.034401853
17	0xbed02f5a	-0.40661126
18	0xbc8027f8	-0.015644059
19	0x3daff19a	0.08591004
20	0x3e79b47c	0.24385256
21	0xbe768c72	-0.24077013
22	0xbec9c533	-0.39408264
23	0xbf2892fc	-0.6584928
24	0x3e6ed7a5	0.2332445
25	0x3dfaec97	0.12252157
26	0x3e34d03a	0.17657557
27	0x3d6a490c	0.05719857
28	0xbe02fce5	-0.12791784
29	0xbe863744	-0.2621404
30	0xbe0730ea	-0.13202253
31	0xbde56b5d	-0.112021185
32	0xbd79b89d	-0.060967077
33	0xbdcef5c0	-0.10105467
34	0xbccf8ff4	-0.025337197
35	0x3ef375ca	0.47550803
36	0x3cbcb7b0	0.023036808
37	0x3e922ae1	0.2854834
38	0x3e758804	0.23977667
39	0x3e0b86e5	0.13625677
40	0xbe0213c8	-0.12702858
41	0xbf5af673	-0.855323
42	0xbcd87ab5	-0.026425699
43	0x3e2c8b37	0.16849981
44	0x3eafbdbd	0.34324446
45	0x3eabf94c	0.33588636
46	0x3bf5003e	0.0074768355
47	0xbf4cd05e	-0.80005443
48	0x382de615	4.1460695e-05
49	0x3de1c548	0.110239565
50	0x3e6a9c03	0.22911076
51	0xbc79b989	-0.015241989
52	0xbdc66bff	-0.09688567
53	0xbe09fa6e	-0.13474438
54	0xbdf178a1	-0.11790586
55	0xbe0bc439	-0.13649072
56	0x3db3dc01	0.08782197
57	0xbe7ff4f8	-0.24995792
58	0xbf0a5f97	-0.5405211
59	0x3edd7b77	0.4325826
60	0xbcb20ad2	-0.021733675
61	0xbe4e0c2c	-0.2012183
62	0x3ed14b66	0.40877837
63	0x3e8c58a4	0.27411377
64	0x3ed2e13a	0.4118746
65	0xbf6230c4	-0.8835566
66	0xbe382cc4	-0.17985827
67	0xbccca501	-0.024981024
68	0x3ed061ed	0.4069971
69	0x3d0a969c	0.03383504
70	0xbde3b001	-0.111175545
71	0xbe6321a3	-0.221808
72	0x3e1a098a	0.15042701
73	0x3e60c7db	0.21951239
74	0x3da2a5ae	0.07941757
75	0x3bde0f57	0.006776731
76	0xbd62a494	-0.055332735
77	0xbe636736	-0.2220734
78	0xbe3f2184	-0.18665129
79	0xbe3f1b29	-0.18662705
80	0xbe2815bf	-0.16414545
81	0x3d9405b9	0.07227654
82	0x3cc5d738	0.024150476
83	0x3f169503	0.58821124
84	0x3dcaed0b	0.099084936
85	0x3c50f7fa	0.012754435
86	0x3e724c22	0.23661855
87	0xbe3d6ad2	-0.1849778
88	0xbda6d441	-0.08145953
89	0xbf72005d	-0.94531804
90	0xbc557cf0	-0.013030276
91	0x3dd410a3	0.10354736
92	0x3e913913	0.28363857
93	0x3e1126ff	0.14175032
94	0x3e894529	0.26810578
95	0xbecdbf19	-0.40184858
96	0xbd93f919	-0.07225246
97	0x3e042eea	0.12908521
98	0x3e0e64f5	0.139057
99	0xbe541a91	-0.2071326
100	0xbd9fb4dd	-0.07798169
101	0xbe6a8383	-0.2290173
102	0xbe9ecb09	-0.3101428
103	0xbc341880	-0.010992169
104	0xbdf316c2	-0.11869575
105	0x3e10308c	0.14081019
106	0xbe3f1680	-0.18660927
107	0x3e3c1c56	0.18370184
108	0xbafb2c20	-0.001916293
109	0x3e7a7397	0.24458157
110	0x3c8fe883	0.017566925
111	0xbf86ee0d	-1.0541397
112	0x3f05328b	0.5203025
113	0xbe9227c7	-0.28545973
114	0xbdd991fc	-0.106235474
115	0x3d1ac07e	0.03778123
116	0x3e4c8a2c	0.19974583
117	0xbf35993b	-0.70936936
118	0x3e9dfb70	0.30855894
119	0xbe20624e	-0.156625
120	0xbd04a0fd	-0.032380093
121	0x3ddfcfb1	0.10928286
122	0x3d94b4a6	0.072610185
123	0xbdf5c15a	-0.119997695
124	0xbe1b8871	-0.15188767
125	0xbe53b916	-0.20676073
126	0xbe2522d4	-0.16126567
127	0xbdbf25e3	-0.09333398
128	0xbd5ea7e2	-0.054359324
129	0x3e4d7bc1	0.2006674
130	0x3d8d6833	0.0690464
131	0x3ef7b8a1	0.48383048
132	0x3cd9e4fe	0.02659845
133	0x3d55622b	0.052095573
134	0x3e4bb10a	0.19891754
135	0xbf581d22	-0.84419453
136	0xbe77c4ed	-0.24196215
137	0xbf7b43f1	-0.98150545
138	0xbd7570f9	-0.059922192
139	0x3da4e0a2	0.08050658
140	0x3e746a83	0.23868756
141	0xbe286625	-0.16445215
142	0x3e84fe8f	0.25975463
143	0xbd2eed40	-0.042706728
144	0x3e36a821	0.17837574
145	0x3dbd0747	0.09229904
146	0x3d615638	0.055013865
147	0xbe06f778	-0.1318034
148	0xbea0ad50	-0.31382227
149	0xbe71acb2	-0.23601034
150	0xbe2ace65	-0.16680296
151	0xbe4116f9	-0.1885642
152	0x3d16b1e8	0.03679076
153	0xbd3e8822	-0.046516545
154	0x3e1c3320	0.15253878
155	0x3e02b398	0.12763822
156	0x3e1c9548	0.15291321
157	0x3dc3f8c6	0.09568934
158	0x3e85b3c9	0.26113728
159	0xbf169407	-0.5881962
160	0xbd45d17e	-0.04829549
161	0x3dcbaaec	0.0994471
162	0x3d5d9330	0.054095447
163	0x3e2abe04	0.16674048
164	0x3e12abc7	0.1432334
165	0xbf181f17	-0.5942244
166	0xbf24a952	-0.6432086
167	0xbf0fbff9	-0.561523
168	0x3e03a204	0.12854773
169	0x3e7cdb66	0.24693069
170	0x3e613163	0.21991496
171	0xbda2a239	-0.07941098
172	0xbdd7c5b7	-0.10535758
173	0xbe4594d5	-0.19295056
174	0xbe4a4d02	-0.19755939
175	0xbe42a779	-0.19009198
176	0xbd8a5f17	-0.06756418
177	0xbde5b255	-0.11215655
178	0xbe86b836	-0.26312417
179	0x3db22418	0.086982906
180	0x3e0a38ba	0.13498202
181	0xbcdf69ba	-0.027272094
182	0x3e7d3296	0.24726328
183	0xbf4588cb	-0.77161855
184	0x3e93f414	0.28897154
185	0xbde045ec	-0.109508365
186	0x3b4158fe	0.0029502506
187	0x3dbf6856	0.093460724
188	0x3e7dc1ef	0.24781011
189	0xbf49caba	-0.7882496
190	0xbe799b77	-0.24375711
191	0xbf1d5370	-0.6145544
192	0xbdef30bb	-0.116792165
193	0x3d727072	0.059189267
194	0x3debb4ee	0.11509119
195	0xbc6c4db7	-0.014422826
196	0xbdca6f0a	-0.0988446
197	0xbe6d9284	-0.23200423
198	0xbcf45ecc	-0.029830359
199	0xbcee74fe	-0.02910852
200	0x3cc39b5a	0.023877788
201	0x3e19459f	0.14967965
202	0xbe10deee	-0.14147541
203	0x3f2c70cf	0.6735963
204	0xbdddd924	-0.10832432
205	0x3c9a95fc	0.018870346
206	0x3e86ca36	0.2632615
207	0xbe2b45f7	-0.16725908
208	0xbe3d1085	-0.18463333
209	0xbfc069bd	-1.5032269
210	0xbdda8c40	-0.10671282
211	0x3da39df8	0.079891145
212	0x3ebcc49b	0.36868748
213	0x3d6de5d5	0.058080513
214	0x3d8f26b9	0.06989808
215	0xbd9b9d53	-0.075983666
216	0xbdd433e7	-0.10361462
217	0x3da29844	0.079391986
218	0x3dbe71ca	0.09299047
219	0x3cc4e50c	0.024035
220	0xbc4f9468	-0.01266966
221	0xbe22c29e	-0.15894553
222	0xbc82ff7a	-0.015990961
223	0xbd9841d0	-0.07434428
224	0x3cd8fb70	0.026487082
225	0x3d868c83	0.06569769
226	0xbe34395b	-0.17600004
227	0x3f09c260	0.5381222
228	0xbdedaec5	-0.116056
229	0x3cca1dfb	0.024672499
230	0x3e92f792	0.28704506
231	0x3da817af	0.08207642
232	0xbe40f3be	-0.1884298
233	0xbfb73e55	-1.4315897
234	0xbdf75da8	-0.120784104
235	0x3de217b0	0.11039674
236	0x3ea344c5	0.31888404
237	0x3d7ab799	0.06121025
238	0x3df4376c	0.119246334
239	0xbd8afc27	-0.067863755
240	0xbda5fea1	-0.08105207
241	0x3d3dc5ca	0.046331204
242	0x3e3756ff	0.1790428
243	0x3d1d1d68	0.038358122
244	0xbcfbd42c	-0.03074082
245	0xbe0cfeb2	-0.13769034
246	0xbdb1bc30	-0.08678472
247	0xbd85e36b	-0.06537517
248	0x3d562d9b	0.052289587
249	0xbe073019	-0.13201942
250	0xbefc37b4	-0.49261248
251	0x3ef3e2fa	0.47634107
252	0xbdaf65be	-0.08564328
253	0xbc201e36	-0.009772828
254	0x3ee8905b	0.45422634
255	0x3e025281	0.12726785

cnn_layers.4.bias f4 [14]
0	0xbf1781a5	-0.59182197
1	0x3e5a7321	0.2133298
2	0x3df9603f	0.121765606
3	0xbec3653a	-0.38163167
4	0x3e83c481	0.25735858
5	0xbdf5dce2	-0.12005021
6	0xbd8050be	-0.062654
7	0x3d8efb07	0.069814734
8	0x3df4e423	0.11957576
9	0xbe72548c	-0.23665065
10	0x3f2e7393	0.681451
11	0x3e1a2dc6	0.15056524
12	0xbe6e3df9	-0.23265828
13	0xbe0c093f	-0.13675402

cnn_layers.5.weight f4 [14]
0	0x4025718d	2.5850556
1	0x4024f093	2.5771835
2	0x4026934d	2.6027405
3	0x40241484	2.5637522
4	0x40271573	2.6106842
5	0x40274861	2.6137927
6	0x4020d80f	2.5131872
7	0x4025a1fa	2.5880113
8	0x40262d5c	2.5965185
9	0x40226d87	2.537935
10	0x4027c931	2.6216547
11	0x401c7ac0	2.444992
12	0x402888af	2.6333425
13	0x4021e35b	2.5295017

cnn_layers.5.bias f4 [14]
0	0x3fe1fcb5	1.7655245
1	0x3fe27f03	1.7695011
2	0x3fe702ae	1.8047693
3	0x3fe0dacd	1.7566773
4	0x3fe80984	1.8127904
5	0x3fe862af	1.8155116
6	0x3fdaed6b	1.7103704
7	0x3fe5279d	1.7902714
8	0x3fe6ae1f	1.8021888
9	0x3fdfc219	1.7481109
10	0x3fe97164	1.8237729
11	0x3fcc23f2	1.594847
12	0x3fe9bc73	1.8260635
13	0x3fdc9c04	1.7235112

cnn_layers.5.running_mean f4 [14]
0	0xbf5102da	-0.81644976
1	0x3f0a31eb	0.5398242
2	0xbecd9fc3	-0.4016095
3	0x3e912fd5	0.28356805
4	0xbc23d52c	-0.009999555
5	0x3ed57515	0.4169089
6	0xbed8769c	-0.42277992
7	0xbf2d1f8d	-0.6762627
8	0x3f331239	0.6994968
9	0x3e64895e	0.22318026
10	0x3f05976e	0.5218419
11	0x3e8ba308	0.2727282
12	0x3ea092a0	0.31361866
13	0xbf194b28	-0.59880304

cnn_layers.5.running_var f4 [14]
0	0x3ed8b3b6	0.4232461
1	0x3ea3895c	0.31940734
2	0x3d3ac5c0	0.045598745
3	0x3eb3c005	0.35107437
4	0x3e7152ce	0.23566744
5	0x3f1ca018	0.61181784
6	0x3f53e600	0.8277283
7	0x3eff8121	0.49903205
8	0x3f090b58	0.53532934
9	0x3ea86106	0.32886523
10	0x3d855a7c	0.06511399
11	0x3f6b6edd	0.9196604
12	0x3e680cc4	0.2266112
13	0x3f4f0405	0.8086551

linear_layers.0.weight f4 [1, 28]
0	0x3fbc2b0a	1.4700634
1	0x3fdc0485	1.7188879
2	0x3fc1e552	1.5148108
3	0x3fcf2550	1.6183262
4	0x3fb1af16	1.3881557
5	0x3fde6ef7	1.7377614
6	0x3fcacf4f	1.5844516
7	0x3fc5a522	1.544102
8	0x3fdc4603	1.7208866
9	0x3fb7532c	1.4322257
10	0x3fd8b2cf	1.6929568
11	0x3fbab766	1.4587219
12	0x3fdcda5d	1.7254139
13	0x3fb8cb3e	1.4437025
14	0x3fdab894	1.7087579
15	0x3fb60336	1.421973
16	0x3fcad724	1.5846906
17	0x3fc32e58	1.5248518
18	0x3fcc41e3	1.5957607
19	0x3fdc36fd	1.7204281
20	0x3fbb2521	1.4620706
21	0x3fd78231	1.6836606
22	0x3fd1cd9f	1.6390876
23	0x3fce609f	1.6123236
24	0x3fc1bf1c	1.5136447
25	0x3fccae7a	1.5990746
26	0x3fd8cae6	1.693692
27	0x3fbc8a69	1.472974
