model/model_FD001.pth (torch, 24319 bytes, 14 tensors)

cnn_layers.0.weight f4 [8, 1, 4, 15]
00000000: a7c3 e6bd b389 27be f0b6 c03d 46b0 b83d
00000010: cd6a 0cbe 5abe c33d 6588 c93c 6f4f 803c
00000020: 69db 6d3d a4c6 38be 236a 78be d34d 333e
00000030: 336c 0cbd 4e6e 123e fc8d e3bc 4bf7 aabd
00000040: 653e 2f3d 1273 483c f4a1 a4bd 6c2e 10be
00000050: 043a 4e3d 13f0 4f3b fd35 8b3d 8e24 68be
00000060: 5930 0e3c 0d0c b1bd f1ff 033e 1838 3f3e
00000070: ba96 7e3d 853a 82bc 62ba 363d 1436 943c
00000080: 3277 003c 676c 0bbd b842 9ebd e4d0 1bbe
00000090: a620 3bbe 3abc 2abe 08b9 8cbd f7aa d5bd
000000a0: 2daa 19be 5c09 0b3e c4f3 1bbc 1047 aa3e
000000b0: e90b c03d 2893 b0be bf32 3dbe 312a 73bd
000000c0: 2aa2 c33d 6d9f 7ebb 6555 9dbe 8523 8cbe
000000d0: d358 a6be 155f 51bd 8dd2 debe a369 a9bc
000000e0: 3757 03be 8496 46be a13e 0d3e a3af c9bd
000000f0: 7d99 413d c61b ddbd 177c b63d f261 763c
00000100: 78d8 593e eb51 b0be 4713 94bc 7b0e 2ebe
00000110: a5f8 943d 108f 323d 5f39 d9bc 929f 103c
00000120: 949d 213e 6f55 96bc 6fd7 ba3d 095a 593d
00000130: 08c6 31bc b327 9f3d 14ce d63c 9c24 8bbc
00000140: 7f61 bfbd a249 59be 05e5 41bd 5f38 eabd
00000150: 2ff6 233e 7279 06be 151e 80be 2226 2bbe
00000160: 0ff1 973d 17ee edbc 7a72 ff3d d387 693d
00000170: 4372 1fbc 98ee e4bc c1a9 c53d 1857 98bd
00000180: 21f0 06be 0e9e 633d 504b 7f3d b489 15bd
00000190: 24cd 69be 9523 cbbd 3024 f63b 6484 96be
000001a0: f1b2 48be 70b9 673d 4959 93bd 67e5 fbbd
000001b0: 7955 5ebd 9ee8 193f 8576 6fbe a266 06be
000001c0: 8d13 35be ce8a 973e bf54 44be 9f4b 2fbd
000001d0: 7a24 dbbe b360 cfbd 78af 143e 2f1a 9e3d
000001e0: 3412 cc3b 7501 c33d 044c db3c 7da3 87bd
000001f0: 3da7 863e 0daf 8b3c 9b50 93be 253e 1e3e
00000200: b631 0c3d 4a60 d1be 4410 90be f168 acbd
00000210: dd5d 153d 8470 82be 4584 f23d b469 d93d
00000220: 2745 81be fe5e 51be 168b dd3d a033 3f3d
00000230: 8400 263d a2c0 b53d fa9a 5bbe 56da 75bd
00000240: 4b25 693d a1d6 583e 028f 4f3e 9cd7 74bc
00000250: 08ad a9be 3230 02bd dae2 24bd f438 0e3d
00000260: 97cb 12bd 0a81 293e 9234 13be e62b 533e
00000270: 9d6f b1be f635 38bd 80f1 a53e ec08 d3bd
00000280: 72e5 9e3e a263 5c3e 8a28 ddbd 0396 7d3d
00000290: bc62 743d 84ac c3bd be5a b5bc 7bcd ccbb
000002a0: 236c 93bd fe5b d8bd 0387 84be 1df5 8e3e
000002b0: 1386 923e 82f8 2fbe d98b a4bd e084 b23e
000002c0: 7a04 573e 0fcd fc3c 38e1 cc3e 0d54 a5bd
000002d0: a45f 38bd 8d72 85be c9da c83c c163 693c
000002e0: a7a1 63bd 6e78 90be cb8b 04bf 3c72 80be
000002f0: 953e 843e 314a 95bc 7d9d 4f3e c6c9 64be
00000300: 2226 9abd 4924 bf3d 8057 93be 565d 923d
00000310: 8a30 013e 4495 fc3e 9ffb c4bc 57ab 633e
00000320: e40e 3ebe 941c fabe ef0e 46bd 1626 80be
00000330: 70c8 ebbd a550 383e 309f d83b 9244 3e3e
00000340: 62b0 d43d 6c85 253e 9e61 91be 2f60 45be
00000350: 94d1 123d 5e4b 0d3e 362d 5d3e 9f63 9c3e
00000360: ad86 30be d530 aebc 4357 96bd bd93 83bc
00000370: d122 ae3e 3b2e a7bd 574f ddbd b1cd 4cbd
00000380: 1c0c b83d f973 0b3e 518c b63e 8755 1abe
00000390: 3e93 02be bfc4 f93e 58ce bdbd fbc2 42be
000003a0: 7a3d 003d df35 7ebd b235 c3bd a83b db3d
000003b0: 0db0 d5be 2a12 123e f136 9abe 789f 3cbe
000003c0: efc1 963c 1751 153d 97fb 2abe 9760 93bd
000003d0: 0ec4 8a3e 940c 49bc 5b2f f6bb b7c4 efbd
000003e0: 168f e93d f806 35bd 3a62 8fbd 6a44 873e
000003f0: a84e bbbd d8d0 083e 2255 48bc 6699 eebd
-0.112677865 -0.16361122 0.094098926 0.090179965 -0.13712616 0.09557791 0.02460117 0.015662877
0.058070574 -0.18044525 -0.24259238 0.17510156 -0.034282874 0.1429989 -0.027777664 -0.08347949
0.042784113 0.012234466 -0.080387026 -0.14080209 0.050348297 0.0031728789 0.06797407 -0.22670195
0.008678519 -0.08644877 0.12890603 0.18673742 0.062155463 -0.015897045 0.044611342 0.018092193
0.007840918 -0.034038927 -0.07727569 -0.15216404 -0.18274173 -0.16673365 -0.068712294 -0.104329996
-0.15006323 0.13577789 -0.0095185675 0.3325734 0.09377272 -0.3448727 -0.1847639 -0.05936641
0.09552415 -0.003885235 -0.30729213 -0.2737085 -0.32489643 -0.051116068 -0.43520012 -0.020680254
-0.12826239 -0.19393355 0.13793422 -0.09847953 0.04726552 -0.10796313 0.08910387 0.015038
0.21273983 -0.34437498 -0.018075598 -0.16997711 0.07273988 0.043593466 -0.026516614 0.008827107
0.15782768 -0.018351285 0.09123122 0.05306438 -0.010850437 0.07771244 0.026221313 -0.01698523
-0.09344768 -0.21219495 -0.04733755 -0.11436533 0.1601188 -0.13132265 -0.2502295 -0.16713765
0.07419025 -0.029044194 0.124730065 0.057014298 -0.009731832 -0.027945802 0.096515186 -0.07438487
-0.1317754 0.055570655 0.062327683 -0.036508277 -0.22832161 -0.09918896 0.007511638 -0.2939788
-0.1959951 0.05657333 -0.07194764 -0.122996144 -0.05428073 0.6012057 -0.23385055 -0.13125089
-0.1768324 0.29598087 -0.19172953 -0.042796727 -0.42801267 -0.10125866 0.14520061 0.07719838
0.006227756 0.09521762 0.026769646 -0.0662298 0.26299468 0.017051244 -0.28772435 0.15453394
0.034227096 -0.40893775 -0.2813741 -0.084184535 0.036466468 -0.25476468 0.11841635 0.106158644
-0.25248072 -0.20446393 0.10817544 0.046680093 0.040527835 0.088746324 -0.21445838 -0.060022675
0.05692033 0.21175624 0.20269397 -0.014943983 -0.33139825 -0.031784244 -0.040255405 0.034722283
-0.03583869 0.16553131 -0.14375523 0.20622215 -0.34655467 -0.044973336 0.32410812 -0.10304436
0.31034428 0.21522382 -0.10798748 0.06191064 0.059664473 -0.09554389 -0.022137996 -0.006250081
-0.0719836 -0.10564421 -0.25884256 0.27921382 0.28617916 -0.17184642 -0.08034486 0.34867
0.20997801 0.030859498 0.40015578 -0.08072672 -0.045013085 -0.26063958 0.024518387 0.014244975
-0.055574086 -0.2821688 -0.5177581 -0.25087154 0.25828996 -0.018223854 0.20274921 -0.22342595
-0.075268045 0.09333093 -0.28777695 0.07146709 0.12616172 0.4933263 -0.024045764 0.2223333
-0.18560368 -0.48849928 -0.048354086 -0.25029057 -0.1151284 0.17999513 0.0066107735 0.18580845
0.10385205 0.16164178 -0.28394789 -0.19274972 0.0358444 0.13798282 0.21599278 0.30544755
-0.17238875 -0.02126352 -0.073408626 -0.016061658 0.34010938 -0.08163115 -0.108061485 -0.05000085
0.08986685 0.13618459 0.35653928 -0.15071689 -0.12751481 0.48782918 -0.092678726 -0.19019692
0.03130863 -0.062063094 -0.09531726 0.10704738 -0.4173588 0.14264742 -0.30120042 -0.18420208
0.018403022 0.036454286 -0.16697536 -0.071961574 0.27102703 -0.012271065 -0.0075129694 -0.11707442
0.114042446 -0.0441961 -0.07001157 0.26419383 -0.09145862 0.13360918 -0.0122273285 -0.11650352

cnn_layers.0.bias f4 [8]
00000000: ad40 f23d 199b 2e3d 8d30 c13d 38e9 173e
00000010: a25c 06bd 15ad 6c3e 82e0 1dbe 71bd 43be
0.11828742 0.04262838 0.094330885 0.1483506 -0.032803185 0.231129 -0.15417674 -0.19115235

cnn_layers.1.weight f4 [8]
00000000: d74f 413f db6a 343f 557d 543f 7c2e 713f
00000010: 14ad 8b3f f59d 823f dd65 663f 35f7 4a3f
0.7551245 0.7047555 0.8300374 0.94211555 1.0912194 1.0204455 0.8999918 0.7928346

cnn_layers.1.bias f4 [8]
00000000: 9cc7 523f 6c3d 603f 05c5 b7be 2121 dfbe
00000010: b483 ce3d 754d 843e c086 be3e b790 a93e
0.8233583 0.8759372 -0.358925 -0.43579963 0.10083714 0.25840345 0.3721218 0.3311822

cnn_layers.1.running_mean f4 [8]
00000000: f4dc 253e 701f fc3d bd64 f93d 5e31 673e
00000010: 9883 1abd 7a8f 9a3e bb46 77be 8460 12be
0.16197568 0.12310684 0.121774174 0.22577426 -0.037723154 0.3018759 -0.24148075 -0.1429463

cnn_layers.1.running_var f4 [8]
00000000: 19a9 2c40 a8da c340 0434 623f 8d32 1640
00000010: f3db 2a40 d6c2 f33f b218 fe3f 6795 2540
2.697821 6.1204414 0.8836062 2.3468354 2.6696746 1.9043834 1.9851286 2.5872438

cnn_layers.4.weight f4 [14, 8, 3, 1]
00000000: 1427 963c 4380 8ebd b813 4fbe 6911 433d
00000010: ed71 b8be 12a7 acbe cdcb 9dbd c5a6 043d
00000020: aa97 123e fad0 a33d d137 843e 9761 de3d
00000030: ec8f 0cbc d35e 22be 07dc 243e e6a2 4a3e
00000040: 5fbf 953d 2c6b 753d 01e0 cebe 58eb bdbe
00000050: 31a7 303e f5b8 a8bd c243 453d 88ba 923e
00000060: f719 9abe 0b71 7ebe 61bd a6be ec5f babd
00000070: ded5 323e 14b2 bebe e2ae a33e 8066 883e
00000080: 673e 163e 3bd1 563e d19f 4d3d 3d5c 0e3e
00000090: b4d1 843e b0d3 f33a 95df 4f3d 2e3e b73d
000000a0: 3031 03bd 2263 a53e 0a67 9bbe 7fd3 22be
000000b0: 8507 09be a6ea c7bc ad57 213e 56ec 853e
000000c0: f9f0 09bc 71e9 55bc dadd 353d e243 833c
000000d0: b89f 2d3e 1079 1f3e 72d3 843c 69bc 1ebe
000000e0: 15aa b0bc f367 37be c469 0f3e c03a e9bd
000000f0: 9bce e8bd 2d76 07bd 9d7e 6e3b 0dc9 4dbe
00000100: 8bd2 8c3d 8401 b2be 4bf2 953e b226 1d3c
00000110: ac5d 673e bf52 583d 04d2 2a3e 2375 0ebe
00000120: 05ec 9fbd 522a 3fbe 92c7 89be 56ab 77be
00000130: 53d5 50be 1139 993d 3e4a 6b3c a36a 473e
00000140: 2c6f 003b e6a4 7d3e f9e7 bfbc 0685 aabd
00000150: 5b73 053c 2c94 acbd 1719 debe 1210 95bd
00000160: e628 dfbd 9415 92be 9dfb 8c3e 1a93 5d3e
00000170: 0760 a83d 7788 d53d d880 9abd 18f0 ac3d
00000180: fc7b 2a3e 6ec8 f03d 0bce 76bd 81e3 2a3d
00000190: 0cee b63a 8e48 d33e 81ba 52be 232a d43c
000001a0: ce4b 113e 6b52 cfbc f76e b1bb d7e9 babd
000001b0: dc4c f03d ae24 db3d 5b85 93be c5e2 8dbc
000001c0: 7dfa 85bd 8d6a 85be 1ed5 483d 0538 c63d
000001d0: 9a6a c33e aa21 2fbe 63dd 593d 7cda ebbc
000001e0: c059 34bd 5263 85bd 9b78 5bbd 3990 ce3d
000001f0: bcdc 2b3c e58f aabd 1ce1 aabe 7464 ddbe
00000200: e05c 06bf cf5f dfbe c14c 01bf 78ae c9be
00000210: 6ff7 473d 9fee e6bb 4206 4b3d ae49 6abe
00000220: b1e1 bebd 504b 7fbd e031 04be 8f69 043e
00000230: 76e2 8dbe e40d 363e 2617 90bd 75f4 b43e
00000240: e83c 0dbe 717c 8dbe 8bcb 703e a3e9 1c3e
00000250: e513 023d e5e9 e83e acc0 323e 6d57 e4bc
00000260: e2a6 2cbe 7098 fcbd c485 68be de5d 2c3e
00000270: 945f 073e b52b 69be 9aa3 a1bc 5d6d 88bd
00000280: 1b9d 19be 61c7 eb3b 9e77 6b3e 71d7 463d
00000290: 7070 fd3d a556 c8be 73aa 9a3e 3596 283e
000002a0: d45a 80be 26f6 0cbe 3e25 963e 71e8 2cbe
000002b0: 43a9 81bc 40c6 fa3a 1992 81be b4f4 07be
000002c0: df06 e3bd bfd6 a1be c8bb fabd ce2c 433e
000002d0: aaa6 dabd da97 4fbe 068d 323d 6581 b2be
000002e0: e109 41be 7317 cbbd d2df 3e3e 1676 34bb
000002f0: c54c 0c3e db6b 233d e7fd 2f3d 9a0c 56ba
00000300: 0771 363c dfaa 333e 33a1 bc3e b76e c1bd
00000310: 63ee 663e 681c 503e 32c8 213d ff33 de3d
00000320: 574b 393e c170 1a3d 03b9 30bc 4f1b c7bd
00000330: 6db8 c03d c050 323e 2429 b63e aac6 a63d
00000340: 6204 f33d 40a7 4d3e 635c cfbd f1bd 62bd
00000350: 84e8 783d b898 eabc 56b7 5ebe 56d6 b73c
00000360: 12a7 ca3e 76b4 c5bd e8a0 73bc 8562 34be
00000370: a788 2bbc 753b 223e 6174 0fbe cf7f aabd
00000380: de0d 40bd 3861 3cbd 9e7d df3d 17d8 48bc
00000390: 8465 b9bd 0d03 8bbe c14d 16bd 3719 07bf
000003a0: 7a7b 4dbd 0bc6 0e3e 6ef1 bb3e 10db 1b3e
000003b0: 1210 9ebd be10 9cbe 167d 68bd a003 17bd
000003c0: 2430 68bb 2044 4cbd 855a a1bb 66eb 5a3e
000003d0: 69d0 873e 7d3e 2c3d 7498 b03d e6a0 573e
000003e0: 4bcd 303e 15ae cc3d 21da 553d 025d 7d3e
000003f0: db7b 953e b2cc d73e 2dee b13e 7c01 263d
0.01832918 -0.06958058 -0.20222366 0.047624025 -0.36024418 -0.33721215 -0.077048875 0.032385606
0.14315668 0.079988435 0.25823835 0.108584575 -0.0085792355 -0.15856485 0.16099559 0.19788703
0.07311892 0.05991666 -0.40405276 -0.37093616 0.17251278 -0.08238403 0.048160322 0.28657937
-0.30097935 -0.2484781 -0.3256636 -0.09100327 0.17464396 -0.37245238 0.31969362 0.266407
0.14672242 0.20978253 0.05020124 0.13902374 0.2594124 0.0018602517 0.050750334 0.08947407
-0.03202933 0.32302195 -0.3035205 -0.15900992 -0.13381775 -0.024403881 0.15756102 0.26156873
-0.008419269 -0.013056145 0.044401027 0.01602358 0.16955459 0.15573525 0.016214106 -0.1550156
-0.021565476 -0.17910747 0.1400519 -0.11388159 -0.11367532 -0.033071686 0.0036391385 -0.20096226
0.068760954 -0.3476678 0.29286417 0.009591745 0.22594327 0.052813288 0.16681677 -0.13911872
-0.07808689 -0.18668488 -0.26910073 -0.24186453 -0.20393877 0.07481588 0.014360962 0.19474272
0.0019597514 0.24769935 -0.023426043 -0.083261535 0.008145179 -0.08426699 -0.43378517 -0.07278456
-0.10896473 -0.28532088 0.27535716 0.21638146 0.08221441 0.10426419 -0.07544106 0.08444232
0.16648859 0.11756979 -0.06025509 0.04172087 0.0013956442 0.41266292 -0.20578958 0.025898999
0.14189073 -0.025307855 -0.0054148394 -0.09126633 0.1173341 0.107003555 -0.2881268 -0.017320046
-0.065419175 -0.26057854 0.04903137 0.09678654 0.38167268 -0.17102686 0.053189646 -0.028790705
-0.044030905 -0.065130845 -0.053581815 0.10086102 0.010489639 -0.08328227 -0.3337487 -0.43240702
-0.52485466 -0.43627784 -0.5050774 -0.39390922 0.048819955 -0.007047489 0.049566515 -0.22879669
-0.09320391 -0.062327683 -0.12909651 0.12930892 -0.27711838 0.17778736 -0.07035665 0.35342756
-0.13792765 -0.27634004 0.23515145 0.153235 0.031757254 0.45490947 0.17456311 -0.02787372
-0.16860536 -0.12333763 -0.22707278 0.16832682 0.13220054 -0.22770579 -0.019731332 -0.066614844
-0.15001337 0.0071953987 0.22994849 0.048545305 0.123749614 -0.39128605 0.30208167 0.1646355
-0.25069296 -0.13765773 0.2932529 -0.16885544 -0.01582778 0.001913257 -0.25306776 -0.1327694
-0.11085295 -0.3160915 -0.12242848 0.1906006 -0.1067632 -0.2027277 0.04359152 -0.34864345
-0.18851425 -0.09916582 0.18640068 -0.0027536205 0.1370116 0.03989778 0.04296675 -0.000816533
0.011135346 0.17545651 0.36841735 -0.09444945 0.22551875 0.20323336 0.03949756 0.10849761
0.18095146 0.037705187 -0.010786298 -0.097220056 0.094101764 0.17413616 0.35578263 0.08143361
0.1186607 0.20083332 -0.10125043 -0.055356923 0.06076862 -0.028637275 -0.21749625 0.02244107
0.3958059 -0.09653561 -0.014869906 -0.17615707 -0.010469592 0.15842994 -0.14009239 -0.08325159
-0.046888225 -0.045991153 0.109126315 -0.012258551 -0.09052566 -0.27150765 -0.036695246 -0.5277285
-0.050166585 0.13942735 0.36707634 0.15220284 -0.07717909 -0.30481523 -0.056759916 -0.03686869
-0.0035429085 -0.049869657 -0.004924121 0.2137886 0.26526192 0.04205178 0.08622828 0.21057472
0.17265813 0.09994141 0.052209977 0.24742511 0.29196057 0.42148358 0.34752026 0.04052876

cnn_layers.4.bias f4 [14]
00000000: 9cba 81be 39d2 343d e4f8 c7bd 57da b8bd
00000010: 92e0 663e 737d 913d 0759 163e e77c b73e
00000020: 0df3 243e 249d 2cbb 2969 563e 1c11 9abe
00000030: f022 50be 57f4 bdbd
-0.25337684 0.044145796 -0.09764269 -0.0902602 0.22546604 0.07104006 0.14682399 0.3583748
0.16108342 -0.002633878 0.20938553 -0.30091178 -0.20325828 -0.0927512

cnn_layers.5.weight f4 [14]
00000000: 16b8 fd3f e9ca 1c40 3433 bb3f fadd 0240
00000010: cb9e b53f 7d2a e83f 0d24 cc3f d3db f13f
00000020: f973 2140 3c37 f13f bf8b 1640 5968 eb3f
00000030: 3ed4 0d40 4ab2 de3f
1.9821804 2.4498847 1.4625001 2.0447984 1.4189085 1.8137966 1.5948502 1.889521
2.5227034 1.8844981 2.3522794 1.8391219 2.2160792 1.739816

cnn_layers.5.bias f4 [14]
00000000: 87fb 873d 9cda 8c3f c446 c93e 610f 703f
00000010: 4c93 b63e e4db 023e bb4e ee3e 2cd3 ef3e
00000020: 62c7 f4bd c48b 053f 6cde 873e 07b7 ed3e
00000030: c098 bebd 4a17 033f
0.06639772 1.1004214 0.39311802 0.93773466 0.35659254 0.12779194 0.46544442 0.468408
-0.11952092 0.5216639 0.26536882 0.464287 -0.093064785 0.5120741

cnn_layers.5.running_mean f4 [14]
00000000: ea1d 83bf 384b 1bbf 3b3f 583e ec0f 77bf
00000010: 6bed 503f d916 22bf e047 203f 49a0 8ebe
00000020: c5dc ab3f fe37 27be c8d1 c33f 10ae b8be
00000030: 46a4 41bf 387b aebe
-1.0243504 -0.6066165 0.2111787 -0.9650867 0.8161227 -0.6331611 0.6260967 -0.27856663
1.3426749 -0.16329953 1.5298395 -0.360703 -0.75641286 -0.34078383

cnn_layers.5.running_var f4 [14]
00000000: a32a 743d ec63 783e 03c3 823d 6eaa f73d
00000010: 5329 a53d dad0 0f3e 3d19 993d 32ef 4e3d
00000020: b59a 883d 5390 cf3d dae8 703e 2e07 723d
00000030: 2bd6 1c3e cb2c da3d
0.059610974 0.24256867 0.06384852 0.12093054 0.080645226 0.14044514 0.07475517 0.050521083
0.06670133 0.101349495 0.23526326 0.05908888 0.15316074 0.10653075

linear_layers.0.weight f4 [131, 28]
00000000: dc96 c8be 3bf9 1abe 30c8 2dbe 5e06 03bd
00000010: 3024 17bf ae9f c3be 6c65 b3bf 250c ddbf
00000020: 380a d1be 6619 20bf 070b acbe 217a 8abe
00000030: c87f 13bf db39 edbe c46a 27bf c853 17bf
00000040: ffd8 a53f 99b9 b73f 1ced 3abf c970 d8be
00000050: 1488 a33e dfca 343f a5ac 07bf 16d6 93be
00000060: 6d4b 9abe fe89 02bf e493 78be 3434 a0be
00000070: e0b8 0dbe 85b0 573d 3a1c cebd c645 d6bd
00000080: 3b0a cdbe b794 bcbe b366 a6bf ef98 b8bf
00000090: 9c6d 19bf e865 29bf f5c2 24be f40d 0cb9
000000a0: f0ba 12bf b73f b6be b8cf 81bf e0b6 18bf
000000b0: f66d 7e3f e313 a13f 89e2 1fbf f6fb 46be
000000c0: dec1 033f 5d80 533f 34a7 c7be d708 23bf
000000d0: 6be7 0abf 26bb d3be bf31 a8be 3509 7bbe
000000e0: e26b 2b3e 521e 18be 6f77 ec3d 5b5b 6a3d
000000f0: 5d33 02bf 1775 04bf 33f5 7cbf 502b b2bf
00000100: 2b0b 23bf 7527 83be e176 e8bd 1073 10be
00000110: 4524 12bf 4b90 a2be bd7c 30bf 8cb5 02bf
00000120: 5e53 5d3f 81e8 983f 16eb cbbe 5af1 b4be
00000130: 987b f03e b332 233f d65f 09bf c013 75be
00000140: 8a49 aabe 03ee adbe 6f45 a6be 3f84 0fbf
00000150: b9a8 9c3e 4da4 7dbd 516c 6a3e 9941 1e3e
00000160: 2a7f 37bf 93fa c2be 88e4 4bbf 4e6e a1bf
00000170: dd50 c1be 8fcc 9bbe 8200 78be 1601 abbc
00000180: c6bc d2be 6dd0 0ebf c095 55bf 4fc4 2fbf
00000190: 9f56 473f 4b59 833f d0a6 37bf 24a9 22bf
000001a0: 8b3c f33e 5283 153f a10c f5be 9872 ccbe
000001b0: 1cfd a8be b39d bebe 27bf e8be b612 a8be
000001c0: 76f0 cf3e 8a30 373d ce6d e83e 2667 d23d
000001d0: 1617 d4be 0002 afbe bc5b 4fbf d310 8bbf
000001e0: 6566 cbbe 23a8 80be 0a8d bcbe 7473 08be
000001f0: 7047 f7be 3900 06bf 2bcf 18bf 36ac dabe
00000200: 3685 2d3f 781d 5d3f 0096 66be f41b 5bbe
00000210: 6636 db3e e79e 1b3f ca12 cebe 2c8e 9dbe
00000220: 9675 10bf 2916 e1be 8afd 9cbe 0262 06bf
00000230: 3c7a ec3e d5af 963d 1ba6 db3e 3a75 7b3e
00000240: 3f51 00bf 70b0 0abf fdd4 1fbf 3611 7dbf
00000250: 8e6f 2ebf bf0e b6be 7718 81be 4907 92be
00000260: de9b 22bf 53e6 d4be 4a0a 42bf cac8 06bf
00000270: 3fbb 0a3f 3a71 433f e652 1fbf d542 9cbe
00000280: 65d2 143f 9f35 ff3e 4135 0fbf 46c6 0abf
00000290: 3aeb 07bf 8c09 05bf 58e1 d8be 546b ecbe
000002a0: be23 f23e e11e a03e 98f8 ea3e 9d9c 813e
000002b0: 366b 9cbe 5f20 bcbe 15cc 19bf 096a 5bbf
000002c0: eefb c5be f625 1abf fba6 9bbe 88c6 01be
000002d0: a78e fabe f1c6 b3be 97c8 2bbf ad3d a9be
000002e0: 9528 053f 2fd1 213f 0dbe 24bf 87b9 70bd
000002f0: fdaf 0b3f 5dde 013f 8b38 a0be 8396 19bf
00000300: ba9c 3bbf 63bd b7be f41a f0be e039 9cbe
00000310: 0000 e13e 2163 c73e 6e6a db3e 1b47 bf3e
00000320: ec9d 02bf 88e1 34bf 3b80 10bf ff7f 2dbf
00000330: fc66 f4be 3d76 a0be 1c01 acbe 6713 92be
00000340: d3fa fdbe d24f 78be 6065 4bbf 8a70 11bf
00000350: 5af8 c33e 298a 0a3f 6688 26bf c3f1 e7be
00000360: f5f4 093f 1b93 103f 2737 ddbe abcb 05bf
00000370: a103 f7be dbb3 ecbe f02e 01bf 1945 a3be
00000380: e84b 0b3f 19a2 bf3e 1f43 f53e 6ae7 ed3e
00000390: faed 62be d1ce 8ebe b6ee e8be 6963 3ebf
000003a0: f56e 82be e93e 09bf 4944 59be ee48 85be
000003b0: 2a35 c0be 63b1 90be a051 54bf 1ac6 c8be
000003c0: 919e b03e c02b fb3e d91f 14bf a3bf dabd
000003d0: d26e 0e3f b0c6 d33e a85a fabe 88f6 09bf
000003e0: ad74 0dbf 5343 fbbe bc1a 57be fa72 59be
000003f0: 7d32 343f 478f d93e 8798 b73e 8102 003f
-0.39177597 -0.15134136 -0.16970897 -0.031988494 -0.5903959 -0.38207763 -1.4015326 -1.7269331
-0.4082811 -0.62538755 -0.33602163 -0.27046302 -0.57616854 -0.46333203 -0.65397286 -0.59112215
1.2956847 1.4353515 -0.7301805 -0.42273548 0.31939757 0.70622057 -0.5299781 -0.28874272
-0.3013567 -0.5099181 -0.24275166 -0.31289828 -0.13840055 0.052658577 -0.100639775 -0.10462527
-0.40046868 -0.3683221 -1.3000091 -1.4421672 -0.59932876 -0.6617112 -0.16089995 -0.00013356638
-0.57316494 -0.35595486 -1.0141516 -0.59654045 0.9938654 1.2584194 -0.6245504 -0.19432053
0.5146769 0.8261774 -0.38994753 -0.63685364 -0.54259366 -0.4135372 -0.32850453 -0.24515231
0.16740373 -0.14855316 0.11546218 0.05721603 -0.50859624 -0.51741165 -0.98811644 -1.3919468
-0.63688916 -0.2561604 -0.11350799 -0.14106393 -0.5708659 -0.31750712 -0.68940336 -0.5105827
0.86455333 1.1945955 -0.39827794 -0.35340387 0.46969295 0.63749236 -0.5366186 -0.23933315
-0.3325923 -0.3397065 -0.3247485 -0.56061167 0.30597475 -0.061924268 0.22892882 0.15454711
-0.7167841 -0.38081798 -0.79645586 -1.2611787 -0.37757006 -0.30429503 -0.24218944 -0.020874541
-0.41159648 -0.5578678 -0.83431625 -0.6865892 0.7786655 1.0261625 -0.7173891 -0.6353934
0.47507128 0.58403504 -0.47861198 -0.39931178 -0.33005607 -0.3722969 -0.45458338 -0.32826775
0.40613145 0.044724025 0.45396274 0.1027358 -0.41423863 -0.34181213 -0.8099935 -1.0864509
-0.39726558 -0.25128278 -0.36826354 -0.13325292 -0.4829669 -0.5234409 -0.59691113 -0.42709512
0.6778139 0.8637309 -0.22518158 -0.21397382 0.4281494 0.6078934 -0.4024871 -0.3077253
-0.5642942 -0.4396222 -0.30662185 -0.524933 0.46187007 0.07357756 0.42900166 0.24556437
-0.5012397 -0.5417547 -0.6243437 -0.98854387 -0.6813897 -0.35558125 -0.25213978 -0.28521183
-0.63519084 -0.41581973 -0.7579695 -0.5265013 0.54191965 0.76344645 -0.6223587 -0.3051974
0.58133537 0.49845597 -0.55940634 -0.5420879 -0.530933 -0.5196769 -0.42359424 -0.46175635
0.47292894 0.3127356 0.45892787 0.253148 -0.30550545 -0.36743447 -0.6007703 -0.8570867
-0.3866877 -0.60214174 -0.30400833 -0.1267339 -0.4893696 -0.35112718 -0.6710295 -0.33054867
0.5201505 0.63209814 -0.64352494 -0.058770683 0.5456541 0.50729924 -0.3129314 -0.5999529
-0.7328602 -0.35886678 -0.46895564 -0.30512905 0.43945312 0.38942817 0.42854637 0.37358937
-0.5102222 -0.70656633 -0.56445664 -0.6777343 -0.4773482 -0.3134021 -0.33594596 -0.28530428
-0.49605426 -0.24249199 -0.7945156 -0.56812346 0.38275415 0.54117066 -0.6505188 -0.45301637
0.538894 0.56474465 -0.4320614 -0.522639 -0.48244956 -0.4623097 -0.50462246 -0.31888655
0.544127 0.37428358 0.47902772 0.46465617 -0.22161093 -0.27892163 -0.45494622 -0.7437044
-0.25475278 -0.5361162 -0.21217455 -0.26032203 -0.3754056 -0.28260335 -0.8293705 -0.3921364
0.34495977 0.49056816 -0.57861096 -0.10681083 0.5563785 0.41362524 -0.4889729 -0.538918
-0.5525616 -0.49074802 -0.21006292 -0.21235266 0.7038954 0.42492124 0.35858557 0.5000382

linear_layers.0.bias f4 [131]
00000000: 19dd 98bf 41ed 83bf 96fb 72bf 5d75 45bf
00000010: ff23 19bf e710 04bf b10a e3be da3c 05bf
00000020: 750f cdbe 7ffb 02bf a17a 9ebe 31ed b8be
00000030: aad6 74be e9a1 73be 40de 27be c366 e2be
00000040: 08c3 10be 4200 dfbd 0ac7 84bc f908 2abd
00000050: d0d1 eebd 049e 49be 7c8d 4bbd efc0 2f3d
00000060: 42f6 43bc 4ea7 2abe 2d67 293e b709 3d3d
00000070: 844d b63d f81e 613e f616 043e 264e 043a
00000080: 9ecb d73d cde0 563d 862d f1bd b34f 0fbe
00000090: 805f 323d 8e02 a03d bd58 2dbe 220f 013e
000000a0: a873 4dbd 91b6 6f3e 78a6 ad3d f170 643e
000000b0: 2593 903d 9106 7e3e ed08 703e 7589 1b3e
000000c0: 9bd1 1b3d 8c16 20bd c16d 583d 6143 8b3d
000000d0: 573a 6e3d 4092 053e 90eb 2a3e 44c2 83bd
000000e0: 5e2d fabd 757e 33be ebd6 8ebd 9bd8 28bd
000000f0: bc91 1a3e 9d8f b03e 0c90 693e 041a fa3e
00000100: 6de3 0f3f dcc6 ce3e 4e37 543f ea7c dc3e
00000110: 9851 043f 57f7 1b3e 744e ad3e 932f 8a3d
00000120: 148f 413e 247e 233e 1015 b43d 3cf2 efbc
00000130: 3e52 e93e 2731 b03d 2442 8d3e 3e52 9b3d
00000140: 47ce 8d3e 903c c73d 7c8c b13d f08b d03e
00000150: df5b 1b3f f49b 413f a3ec 983e 9139 233e
00000160: dd30 343f 9baf 253f c429 3c3e 6eda a13e
00000170: 1144 913e 4bd0 453f a5e8 963e 3486 cb3e
00000180: 6362 af3d 208a 2bbe 1c0c 9c3e 5e45 31bc
00000190: 5265 073e c3e4 d9bd ed7e 973e cb6e 03be
000001a0: ec03 9dbd 86e1 143d 16ce 22bd 87ca 1c3e
000001b0: a670 043e 4838 123e 9ac8 1fbe 3a4f 303d
000001c0: cf9b c4be 409d 52be 79ff b8be a010 e7bb
000001d0: ce34 1cbd 0df8 d1bd e804 64be 3aee d9be
000001e0: aa9b 87be c475 a6be 30e0 4ebe bac4 fbbb
000001f0: 140c 1dbf 4806 b2be 9c27 23bf be3f e4be
00000200: a2ef 0abf 75dd 1ebf ef7f 3b3e
-1.1942474 -1.0306779 -0.9491514 -0.7713221 -0.5982055 -0.5158829 -0.44344094 -0.5204598
-0.40050855 -0.51165 -0.30952933 -0.36118463 -0.23910013 -0.23792233 -0.16393375 -0.44219026
-0.14136899 -0.10888721 -0.01620819 -0.041512463 -0.11661112 -0.19689184 -0.049695477 0.042908605
-0.011960568 -0.16665384 0.16543265 0.046151843 0.08901504 0.2198447 0.12899384 0.00050470454
0.10536884 0.05246048 -0.11776261 -0.13995247 0.043548107 0.07812987 -0.16928382 0.12603429
-0.050159127 0.23409487 0.08479017 0.22308709 0.070593156 0.24807192 0.23440905 0.15189154
0.038041692 -0.039084002 0.052839044 0.06799961 0.058161106 0.13044071 0.16691422 -0.064335376
-0.12215684 -0.17528708 -0.06974586 -0.041222196 0.15094656 0.34484568 0.22808856 0.48847973
0.562064 0.40386093 0.8289689 0.43064052 0.51687 0.15231071 0.33848917 0.06747355
0.18902236 0.15966088 0.0879308 -0.029290311 0.45570558 0.08603125 0.27589524 0.07584046
0.2769644 0.09728348 0.086693734 0.40731764 0.6068706 0.7562859 0.2986804 0.15939929
0.7038706 0.6472108 0.18375307 0.3161196 0.28372243 0.77270955 0.2947437 0.39750826
0.08563688 -0.1675191 0.3047799 -0.010819761 0.13222244 -0.10639336 0.29589024 -0.12835233
-0.07666764 0.03634789 -0.03974732 0.15311633 0.12933597 0.14279282 -0.15603867 0.043044306
-0.38400123 -0.20567799 -0.3613241 -0.0070515424 -0.038136296 -0.1025239 -0.22267497 -0.42564565
-0.2648595 -0.32511723 -0.20202708 -0.0076833637 -0.61346555 -0.34770417 -0.63732314 -0.4457988
-0.542719 -0.62056667 0.18310522
