model/model_FD001.pth (torch, 9215 bytes, 13 tensors)

cnn_layers.0.weight f4 [8, 1, 4, 15]
00000000: a52a 71bd d031 863d 2645 fe3e 8cbf 543e
00000010: 44ee 05bd 1540 423e 2c80 3abd 5165 25be
00000020: 9b8a 70be 576a 24bd 9fdc 02be 96e4 823d
00000030: 3897 6abd 764b 00be 2b49 63be 3c80 cf3e
00000040: 6fe6 163e fc6e 34be 245b 99bd c2c0 96bd
00000050: e274 5ebe 88e2 e83d 0bed c33e 4e7d b0be
00000060: 7891 f13e d067 073c 3d6e b93d 6bd5 5fbe
00000070: 7cf8 793e 9b5b 513e 3c27 b0bd 67ae 6f3e
00000080: 2852 9f3d d74a 793e fdb0 453e 5048 9dbe
00000090: cc3f 1f3d 06e6 cc3d 8418 96be 906f bfbd
000000a0: f294 5d3d df68 da3d 1f26 2fbf 5859 723d
000000b0: b463 3ebe 3cb1 9c3e dfe1 053e ee5e 373e
000000c0: 3ad6 f7bd e98a febe a771 b43c 31f6 99bd
000000d0: 45f6 77bd 7c98 eb3c cfd9 1f3e 22fa 123c
000000e0: 2ddd 893e 6c49 063f 98a0 3e3e 3edf e93e
000000f0: 5698 8b3d 8eac a0bd 7aeb 47bc d15c c83d
00000100: 3f9c 08be ffb6 393e 5e4f 45be 09e5 5d3e
00000110: 6193 07be 458c 873e 45fa ebbe 95f2 6fbd
00000120: 7927 063d 833f e93a b023 bcbc 2e9a adbd
00000130: ab75 efbd 0801 c7bd e004 ee3c 9e53 7e3c
00000140: 83cf 253c 8441 47be e31d 163d f03c ca3c
00000150: 4d59 ac3d cdc3 87be f622 2abe ed74 893d
00000160: 478b abbd 7ec2 69bd 40b8 bfbd f167 47be
00000170: b0b7 5fbe f8b1 fe3d e8a3 3f3e e727 d0bd
00000180: 3765 91be 4830 6ebe 7895 8c3e 9dfe 43bd
00000190: 031e 57be dc93 13be 00ab e0bd 3c03 353e
000001a0: 5dbc 1a3e 3fc3 b5be 5f2c 71be 1c7b e2be
000001b0: a604 833c f5f4 ba3e b41e a6be b542 90be
000001c0: bb8c debe f16a ed3e 95f1 8dbe a8e1 65be
000001d0: e7a6 a0be 53a1 b8be c4c9 853e 0a2d 403e
000001e0: a41b 343d 4e90 823d 28ad 643d 7356 a63e
000001f0: 452f dcbd 5e2c 7e3e 89c0 eabc e2d2 f63d
00000200: ceb2 3fbe 7891 383e 5049 bfbd 55bc 3abd
00000210: 5ef5 163d 9295 59bd 3fd9 9abd 38bc f9bd
00000220: 6b7f b3bd 02e7 9bbd 7534 0c3a 4049 663d
00000230: 949f 203e 6f0d cdbd bbcc b4bc d475 e83c
00000240: e374 fa3d f23a bebd b93f dabd a07e 8c3d
00000250: 024f 9cbc bcdc 2cbd 4ce9 11be 5143 15be
00000260: f223 f9bd 6e05 b5bd 2fa2 623e b42d 8bbd
00000270: 70b7 0bbd 222a 3fbe 107e 5b3e bea8 0abe
00000280: 62e9 24bd 4193 0ebe 21ec e1bd 60b0 4a3e
00000290: 71ad 403e 8f4c 8abe 2303 50be 5897 55be
000002a0: 8300 393e 6c91 953e 9a8a 44be c496 07be
000002b0: 1583 62be b38e 3c3e 12c7 a9be fa2b 11be
000002c0: 280a 81be 4f55 10be 53f4 193e abfb 083e
000002d0: e2c0 7b3e e79b 8f3e c87c e93e 122c bdbd
000002e0: d2f4 a23e 2379 d1be 3c49 843d 6431 d1bd
000002f0: ab11 a4bd da23 233d f366 623a 18f1 ecbc
00000300: 8962 90be 7cc5 26be 41d9 3ebe fceb d239
00000310: 5ecd 4bbe 01b4 1bbf e658 d5be ac47 723e
00000320: 7545 14be 309b f63d 1cd6 d5bd a834 8abe
00000330: be1d 903e aa0a b8bd 64e9 d5be 7402 b6bd
00000340: 580c e7bd 60bd 2a3d ce4e 2f3e 58ed ff3d
00000350: f69c 5c3d 8378 8fbd 1f9d e7be 2469 4ebe
00000360: dfd3 a6be 7d04 41be e92d e9bd fb44 803e
00000370: caee 38be a31c 833e ab7b bdbe e9b3 253f
00000380: 5965 703e f4c0 ea3e 2e3f 413e e3f9 e43e
00000390: 6ef1 493e aa8b 43bf 6502 c63e fc75 cbbd
000003a0: dd44 613f 6231 85be 0baa a83e f1af 26be
000003b0: 9fa3 073f d9fc a23e 1629 883e 82b3 703d
000003c0: 6bdd 653d 9935 30bd 0967 b2bd 5d3f 503e
000003d0: 3fe4 e43b 41d2 c63d af86 5dbe a6b9 063d
000003e0: a3b2 ecbc 400c 263e d43c 4abe 3df7 7fbd
000003f0: aa36 d33c 0678 ab3c 64e9 ec3c 1429 bebd
-0.05887856 0.0655247 0.4966213 0.20776194 -0.03269793 0.18969758 -0.04553239 -0.1615193
-0.23490374 -0.040140476 -0.12779473 0.063912556 -0.05727312 -0.12528786 -0.2219588 0.40527523
0.14736341 -0.17620462 -0.07488087 -0.073609844 -0.21724275 0.113713324 0.38266787 -0.344706
0.47181296 0.008264497 0.090542294 -0.21858756 0.24411196 0.20445101 -0.08601233 0.23406373
0.07779342 0.24344955 0.19305797 -0.30719233 0.0388792 0.10004811 -0.2931558 -0.09347451
0.054097123 0.10664534 -0.68417543 0.059167236 -0.18592721 0.3060397 0.13074444 0.17907307
-0.12101407 -0.49715355 0.02202685 -0.075176604 -0.060537595 0.028759234 0.15610431 0.008970769
0.26926556 0.5245578 0.18615949 0.45678133 0.06816165 -0.07845412 -0.012202138 0.09783328
-0.13340853 0.18136214 -0.19268557 0.21669401 -0.13239814 0.26474205 -0.46089378 -0.058580954
0.032752488 0.0017795417 -0.022966236 -0.08476673 -0.11692365 -0.097169936 0.029055059 0.015522866
0.010120275 -0.19458586 0.036649596 0.02468726 0.0841547 -0.26516572 -0.16614899 0.06711755
-0.083761744 -0.057070248 -0.09361315 -0.19473244 -0.21847415 0.124362886 0.18714869 -0.10163861
-0.28397533 -0.23260605 0.27457786 -0.04785024 -0.21007542 -0.14411873 -0.10970116 0.17677015
0.15110917 -0.35500523 -0.23552082 -0.4423455 0.015993427 0.36515012 -0.324453 -0.28175893
-0.43466744 0.46370652 -0.27723375 -0.22449362 -0.31377336 -0.3606058 0.26130497 0.18767181
0.043971673 0.0637518 0.055829197 0.3248783 -0.107512034 0.24821612 -0.028656261 0.120519415
-0.18720552 0.18024242 -0.09340155 -0.045589764 0.036855094 -0.053121157 -0.07560968 -0.12194103
-0.087645374 -0.076124206 0.0005348393 0.0562222 0.15685874 -0.10012328 -0.02207028 0.028376497
0.122293256 -0.09288587 -0.106566854 0.06860089 -0.019080643 -0.042202696 -0.14249152 -0.1457646
-0.12165059 -0.08838926 0.2213218 -0.067958266 -0.034110487 -0.18668416 0.21434808 -0.13540933
-0.040261634 -0.1392336 -0.11031366 0.19793844 0.18816163 -0.27011535 -0.20313697 -0.20858514
0.18066601 0.2921251 -0.19193497 -0.13241106 -0.22120316 0.1841381 -0.3315969 -0.14176932
-0.2520306 -0.14095043 0.15034609 0.13377254 0.24585298 0.28048632 0.45603013 -0.09236921
0.31827408 -0.40912732 0.06459281 -0.10214499 -0.080111824 0.039829113 0.00086365564 -0.028923556
-0.28200176 -0.16286272 -0.18637563 0.00040230143 -0.1990256 -0.6082154 -0.41669387 0.23660153
-0.14479621 0.120413184 -0.10441229 -0.269933 0.2814769 -0.08986409 -0.41779625 -0.08887187
-0.11281651 0.04168451 0.17119905 0.124964416 0.053860627 -0.07005408 -0.4523706 -0.20157295
-0.3258352 -0.18849368 -0.1138571 0.25052628 -0.18059841 0.25607786 -0.37008414 0.64727646
0.23476161 0.45850337 0.18871757 0.44721898 0.19721004 -0.76384985 0.38673702 -0.09934613
0.879957 -0.2601424 0.32942232 -0.16278054 0.5298404 0.31833532 0.26593846 0.058764942
0.056119364 -0.043019865 -0.08711059 0.20336671 0.006985217 0.097080715 -0.21633409 0.032891892
-0.028893774 0.1621561 -0.19749767 -0.062491644 0.025782902 0.020931255 0.028919883 -0.09285179

cnn_layers.0.bias f4 [8]
00000000: 1835 d5bd e3d0 e13d cece 80be 7180 f8be
00000010: 2d0e 13be 1cb4 b9be b838 bc3e 0b9b 7bbd
-0.104105175 0.1102617 -0.2515778 -0.48535493 -0.14360876 -0.36270225 0.36762023 -0.061427157

cnn_layers.1.weight f4 [8]
00000000: 3908 a23f 95d6 3c3f f6af 303f 8e41 903f
00000010: 391b 1b3f 2743 603f 72fc 683f 914b 7a3f
1.2658759 0.73764926 0.69018495 1.1270006 0.60588413 0.87602466 0.910102 0.97771555

cnn_layers.1.bias f4 [8]
00000000: 8607 873c d1b1 733f 9b2d 353f b9f7 abbe
00000010: 4bc7 603f 757f 423e b21c a13f 0512 563f
0.01648308 0.951932 0.70772713 -0.33587435 0.87804097 0.18993933 1.2586882 0.83621246

cnn_layers.1.running_mean f4 [8]
00000000: 5da3 6abe bf63 7e3e 6797 30be 652a 03bf
00000010: 003c 5f3c 6e80 ccbe 2d43 2c3f 8201 28bd
-0.2291388 0.24842738 -0.17245255 -0.51236564 0.013625145 -0.39941734 0.6729 -0.041017063

cnn_layers.1.running_var f4 [8]
00000000: 1217 cd40 a6a8 9b41 25e5 e340 1698 0a41
00000010: 1f8f 9641 06f0 a740 903d 1b42 8457 a240
6.409066 19.457348 7.1217217 8.66213 18.819883 5.2480497 38.81012 5.073183

cnn_layers.4.weight f4 [14, 8, 3, 1]
00000000: 5c0c 453e e311 803e 1a52 d83e 41bd 3e3e
00000010: c889 8d3d b02f 9f3e 6975 f63d 85d6 053e
00000020: 7a62 013e 7569 34be b587 72be ce45 f8be
00000030: d592 5d3e f808 693e 6915 b13e 5f8f 46be
00000040: 7dd8 a1bd 0705 03bf 4925 b3be 77d1 9dbe
00000050: b096 c2be 9618 f7be b5f7 9dbe c92a debd
00000060: 6926 823b b744 6ebe 33e3 93be 07de 2b3e
00000070: 9814 053d b888 993d ad6b c63e def5 413e
00000080: 3f97 de3e 4d09 79bd a23c 87be c4e6 d6be
00000090: 5f4d 193d dbf2 363e 8cfd 113e 53f1 9cbe
000000a0: b6f2 83bd c62a c0bd 19f5 fcbe 8861 abbe
000000b0: 82dc 50be 07be 123f 96a9 a93e 27d2 c93e
000000c0: da9a eabd f355 0d3d 6b20 3ebd 55a2 90bd
000000d0: 2598 04bb 5917 353e dc8e 933e 36f2 bf3e
000000e0: 6dce a23e 2667 cdbd 8b7f a6be 9165 c2be
000000f0: 2b83 bbbd d5d3 b2bc 9546 3f3e dab7 20be
00000100: fadf 93be 7985 38be 84f6 f3be dd2b f8be
00000110: 3d46 92be 1588 143f 5cad 433f 2355 0d3f
00000120: c8c3 ab3e 47d6 9d3e 75ea a43e d5e2 3a3e
00000130: ae29 333e ed0f b53e 8d92 d93d 07f1 c63d
00000140: 25cd a6bc 7eb3 6fbe 1956 92be 8da7 b9be
00000150: 942a 5c3e 6912 2a3e cd7e 163e 11ba c6be
00000160: e1d8 15be 097f 1dbe 1c57 94be 6250 bdbe
00000170: ee15 92be a83a 153d c557 553d 3b61 37bc
00000180: da58 983e 5d9b 8e3e 9a6c 9e3e fef1 363e
00000190: 9a47 143e 7c29 713e a138 003d 3ec4 46bd
000001a0: 69ed adbd 327c 7abe 48b9 6dbe 5af1 8fbe
000001b0: 18ca 25ba c844 1b3e c50d cc3e a9cd 83be
000001c0: df5e 13be 6a16 dcbe f97a 91be 83b3 45be
000001d0: 46bd d1be f397 22bc 0326 18bb 2804 dd3d
000001e0: 3b39 b53e 2ef9 7d3e a36f a93e ce03 c93e
000001f0: 525f a13e 5030 303e 1801 313e 696d 5a3e
00000200: 9c64 88bd 4c4b edbe f9b2 42be d602 62be
00000210: 1423 5f3e 09aa ec3d a464 963e 39e6 a9be
00000220: d3fe 38be 6903 8bbd 0813 b0be ce5a f8be
00000230: c6be a7be 6ad7 a73d 52ee 1ebd bf8c 76bd
00000240: dcc6 b3be 2058 a8be 0573 c9be 5458 3d3e
00000250: 67e0 df3d 3f3b 483e 8bfa 103e 0536 6f3e
00000260: 7cba 293e 1530 01bf 91b7 b7be cac9 dabe
00000270: 2b57 073e 38a2 31bd 7350 e53d a3df dbbd
00000280: d937 92bd af8e 2cbe 983c c9be e455 e9be
00000290: 455f d5be 9549 543e 6f88 673e 4fe7 9f3e
000002a0: 8ced 23bf 4a63 fbbe e757 02bf bf51 053e
000002b0: 6385 353e 1198 693e 78b8 b23e 828e b33e
000002c0: f5b2 d93e 3af9 7dbe 07f0 57be 802d 9cbe
000002d0: 2b63 d73c 3bab 9f3e edd4 9e3e f121 28be
000002e0: a01c cabe 1e26 c2be 2e4c d4be f78e 89be
000002f0: 856a a0bd c8fe 3a3e d339 1f3e 1689 4c3e
00000300: 1f23 a93c b4a5 cebd 8859 94be 0187 af3d
00000310: 92ab 863e 6643 043d 240e 953e 4028 873e
00000320: 4265 a73e 1f02 46be 7442 d7bd 5b87 72be
00000330: ff05 dfbd 46f8 623e 6132 493e 4e3c d3bd
00000340: 6d62 9fbe 417a a7be 92d1 53be 53bc 10bc
00000350: e440 02be 7075 a03e 1c47 983d 363e e23e
00000360: 40fe 25be a613 8bbe 6d2c 2ebe f180 c33b
00000370: f7c6 333e ed26 bf3d 823b c63d 1901 5a3d
00000380: 9492 c63d 6da9 61be b5b4 b4be 1fa2 eebe
00000390: 61b5 64bd 84b7 56bd f937 003e ad5d cabe
000003a0: 389c 5abd ad42 28be e52e f0be 5d08 c3be
000003b0: 5593 53be 7bf7 fcbe e7d3 1abf 9310 1ebd
000003c0: 1023 943e bf0b ae3e 1e72 d43d 82fb a63e
000003d0: e9af ac3e b6a0 313e 29fe 623e 1995 7d3e
000003e0: 5f94 843e ec81 65be 7333 03be 1a19 8bbe
000003f0: aa32 933d 3054 2e3e c377 7f3e 8a5a 9ebe
0.19242996 0.25013646 0.4225014 0.18626882 0.06911045 0.3109107 0.12034113 0.13070114
0.12635222 -0.17618354 -0.2368458 -0.48490757 0.21638043 0.22757328 0.34586647 -0.19390629
-0.0790262 -0.51179546 -0.34989384 -0.30823871 -0.3800559 -0.48260945 -0.30853048 -0.10848004
0.003971864 -0.232684 -0.28884277 0.16783915 0.032490343 0.0749678 0.38754025 0.18941447
0.43474767 -0.060799886 -0.26413447 -0.41972935 0.037427302 0.1786608 0.14256877 -0.30652866
-0.06442778 -0.093831584 -0.49405745 -0.33472848 -0.20396617 0.5732121 0.33137196 0.39418146
-0.11455317 0.034505796 -0.046417635 -0.070622124 -0.0020232287 0.17684688 0.2881993 0.3748948
0.31798115 -0.1002944 -0.32519183 -0.37968114 -0.09155878 -0.021829525 0.18679269 -0.15695134
-0.28881818 -0.18019666 -0.47649014 -0.48470965 -0.28569213 0.58020145 0.764364 0.55208033
0.33547807 0.30827543 0.32210127 0.18250592 0.17496368 0.35363713 0.106236555 0.09713941
-0.020361492 -0.23408315 -0.28581312 -0.36260644 0.21500617 0.16608585 0.14696808 -0.38813832
-0.14633514 -0.15380491 -0.2897271 -0.3697539 -0.28532356 0.036432892 0.052085657 -0.011192615
0.29755288 0.27852908 0.3094223 0.1786575 0.14480439 0.23550981 0.031304006 -0.048526995
-0.08492548 -0.24461439 -0.2321521 -0.28113824 -0.0006324365 0.15162957 0.39854255 -0.25742844
-0.14391659 -0.4298585 -0.28414133 -0.1930676 -0.40964717 -0.009923923 -0.0023216016 0.10791808
0.35395226 0.24802086 0.33092985 0.39260715 0.31518036 0.1720593 0.17285573 0.21330799
-0.06659815 -0.4634651 -0.19013585 -0.22071394 0.21790725 0.11555869 0.29373658 -0.33183458
-0.18065958 -0.0678776 -0.3438952 -0.48506778 -0.32762736 0.08195384 -0.0388015 -0.06019282
-0.35112655 -0.32879734 -0.39345565 0.18490726 0.10931473 0.1955385 0.14158075 0.2336045
0.16575044 -0.5046399 -0.35882238 -0.42732078 0.13216846 -0.043367594 0.11196985 -0.10736015
-0.07139558 -0.16851304 -0.39304042 -0.45573342 -0.41674247 0.20731194 0.22610639 0.31231162
-0.6403434 -0.4909919 -0.5091538 0.13019465 0.17726664 0.22811915 0.34906363 0.35069662
0.42519346 -0.24802104 -0.21087657 -0.30503464 0.026292404 0.31185326 0.31021824 -0.16419198
-0.39474964 -0.37919706 -0.4146437 -0.26866886 -0.07832817 0.18261254 0.15549402 0.19974169
0.02064663 -0.10090199 -0.28974557 0.08570672 0.26302773 0.03229084 0.2911235 0.26397896
0.3269444 -0.19336747 -0.10510722 -0.23684447 -0.108898155 0.22165021 0.19648124 -0.103142366
-0.3112978 -0.3271046 -0.20685413 -0.0088339625 -0.12720066 0.31339598 0.07435438 0.44188088
-0.1621027 -0.27163428 -0.17009135 0.0059662987 0.17556368 0.093335964 0.09679319 0.053223703
0.09695926 -0.22037287 -0.3529412 -0.46608064 -0.05583704 -0.052421108 0.12521352 -0.39524594
-0.053371638 -0.16431685 -0.46910778 -0.38092318 -0.20661671 -0.49407563 -0.6047959 -0.038590025
0.28933 0.33993337 0.103733286 0.3261376 0.3372796 0.17346463 0.22167267 0.24763907
0.25894448 -0.22412843 -0.12812595 -0.27167588 0.07187398 0.17024302 0.24948029 -0.3092845

cnn_layers.4.bias f4 [14]
00000000: 071a 403e 9586 cdbd 062c 013e 1cdf e83d
00000010: 9379 1cbe fa9f 903e 28ef 1f3d bd17 123e
00000020: 2634 713e 9cf4 2e3f 4ee9 1abe 3d45 91be
00000030: 426c 443d 1089 173e
0.18759929 -0.10035435 0.1261445 0.1137068 -0.15280752 0.28247052 0.039046437 0.14266868
0.2355505 0.68341994 -0.15128061 -0.28373137 0.047954805 0.14798379

cnn_layers.5.weight f4 [14]
00000000: bfcb 2240 bbf6 1a40 9b38 2040 e712 2040
00000010: ab66 2240 df93 2140 ec2f 1f40 ce14 1d40
00000020: 255d 0d40 67c4 1240 5f91 2040 fc2d 2140
00000030: bbdf 2040 2d9d 1e40
2.5436857 2.4213092 2.503455 2.5011537 2.5375164 2.5246503 2.4873 2.4543948
2.20881 2.2932374 2.5088727 2.5184317 2.5136554 2.4783432

cnn_layers.5.bias f4 [14]
00000000: e1c7 d53f 5d7e b83f 4243 be3f 1ee5 cf3f
00000010: e745 d33f 8669 d23f 7261 c63f 8c1b ba3f
00000020: 97f1 a33f 1c89 bd3f 172e d23f 67ba c63f
00000030: 5df4 ce3f feb0 ca3f
1.6701623 1.4413563 1.4864275 1.6241796 1.6505708 1.6438453 1.5498488 1.4539657
1.2808102 1.4807467 1.6420316 1.5525635 1.6168324 1.5835264

cnn_layers.5.running_mean f4 [14]
00000000: 9c4f 2bbf 6836 f83e 9abe 2c3f 0f4b 5f3e
00000010: 5a12 c0be f7cf db3e a309 64bf 109c 413e
00000020: 6a7d a13f ea32 0fc0 e029 3cbe 0d39 b6bf
00000030: 6dad 053e c6a5 8d3d
-0.6691835 0.4847901 0.67478335 0.21805976 -0.37514 0.42932102 -0.89077204 0.1890719
1.2616398 -2.2374825 -0.18375349 -1.423616 0.13054438 0.069163844

cnn_layers.5.running_var f4 [14]
00000000: 7480 dc3d f69a 1c40 d3aa ef3f 87f4 aa3d
00000010: 290b c63d fced 843d 504f 1640 6236 ec40
00000020: c626 4b40 40cb 4b3f 9dbd ec3d 2533 2a3f
00000030: 21af 903d 9ed6 653d
0.10766688 2.446958 1.8724006 0.08347421 0.096700974 0.064907044 2.3485909 7.3816385
3.1742415 0.7960701 0.11559603 0.6648429 0.07064653 0.056112878

linear_layers.0.weight f4 [1, 28]
00000000: 6305 ac3f 045c c33f 6c14 ce3f a1d7 c33f
00000010: 4d3e c73f f0d3 cf3f 3165 b83f 3bf5 bc3f
00000020: 04b5 a33f 91f8 c63f 49b4 c73f 410c a73f
00000030: 7af8 ce3f 5fdb bd3f a915 c33f 1b69 bc3f
00000040: a157 ae3f 03b8 a73f b0b8 b33f f64c c63f
00000050: c158 b13f 6773 c03f 216b b33f ee58 d63f
00000060: 285f ab3f d81e cb3f 9084 bc3f 9bc3 ce3f
1.3439144 1.5262456 1.6099982 1.530018 1.5565888 1.6236553 1.4405881 1.4762338
1.2789617 1.5544606 1.5601894 1.3050615 1.6169579 1.4832572 1.5240985 1.4719576
1.3620492 1.3103031 1.4040737 1.5492237 1.385521 1.5035218 1.4017068 1.6745889
1.3388414 1.5868788 1.4727955 1.6153444
