model/model_FD001.pth (torch, 9215 bytes, 13 tensors)

cnn_layers.0.weight f4 [8, 1, 4, 15]
0.3861307 0.25314423 0.13169938 0.041065946 -0.12417495 0.21648788 0.28343037 0.14363493
-0.27724338 0.22101934 0.14185926 0.37503782 0.10477697 -0.11613343 -0.16057335 0.029045887
0.058568325 0.1079029 0.06789687 0.05139779 0.06928245 0.10445017 0.028012363 -0.05529027
0.27118495 0.23452759 -0.009396874 -0.034525532 -0.1291255 -0.05963276 0.15517159 -0.05722901
0.008388327 -0.13571844 -0.07751174 0.08224636 0.29340726 -0.08006614 -0.037546158 -0.08630281
0.0389258 0.042338934 -0.034923874 0.039025992 0.07601737 0.13997024 0.39723766 0.21243806
0.25190476 -0.104513906 -0.1954432 0.18223847 0.10454884 -0.16077107 0.039277792 0.10710043
0.20777571 0.18197139 -0.25673074 0.04693579 0.029917412 0.28884903 0.19611621 -0.048539806
0.40108153 -0.2701633 0.02065955 -0.06768527 0.07207008 -0.17667037 -0.023197517 -0.023755953
-0.111710675 0.075698644 0.19673525 -0.13460779 -0.038936853 -0.033733655 -0.07865915 -0.12333948
-0.05228607 0.10591238 -0.06710164 -0.0762562 0.07269553 0.18542096 -0.01892108 -0.29097205
-0.32546186 0.21109639 0.24682204 -0.2859531 -0.04943037 -0.085776284 0.46077022 0.10445703
0.07060119 -0.40259984 -0.18047264 0.029618556 0.014396349 0.35481635 -0.15809262 -0.13918088
0.09999019 0.27007362 0.5125152 0.4109935 0.43884102 -0.65429354 -0.03296063 0.17266943
0.49595937 -0.2533665 -0.10811672 0.30125183 0.28721735 0.24786404 0.085201375 -0.0095595475
-0.052342452 -0.087919936 0.13357796 -0.05044725 -0.03468753 0.18220618 -0.18614675 0.2238775
-0.21701531 0.10914456 -0.3123774 -0.041453682 -0.07769405 0.03710013 -0.054219544 -0.061923783
-0.10836859 0.045498494 -0.098234385 -0.03867576 0.087928765 -0.22814362 0.06440571 -0.03261419
0.055454146 -0.16238225 -0.11287517 -0.03387625 -0.01808813 -0.051563956 -0.068865314 -0.15019074
-0.12761718 -0.018573241 0.07450781 -0.15314284 -0.22003207 -0.13602309 0.15302525 -0.14041972
-0.2853968 -0.16772231 -0.13288265 0.14064679 0.10862992 -0.24851094 -0.26684466 -0.32116276
-0.09518694 0.28064007 -0.27908328 -0.1210998 -0.19358373 0.431103 -0.41402608 -0.10565353
-0.23803964 -0.34759673 0.32100663 0.119193465 0.1792519 0.21208219 -0.55515724 -0.020530604
0.30638087 -0.34842375 0.034519475 -0.05443957 -0.19370542 -0.027354898 -0.054935325 -0.053944964
0.32236782 -0.4718688 -0.060314566 -0.016849969 -0.060172882 0.35138598 0.12086345 -0.09537367
-0.17127 0.10872824 0.012736721 -0.00235792 0.37588155 -0.13353187 -0.3828757 -0.15840496
0.22899306 0.45761138 0.17736647 0.15552883 -0.009472908 0.052592345 -0.32540622 0.13825448
-0.11970664 -0.23181391 -0.2500661 0.31044534 -0.147918 -0.030025471 0.05643987 0.07085236
-0.09226504 0.072205804 -0.31218407 0.19281013 -0.34712514 -0.5000605 0.60458773 -0.12759168
0.42063025 0.22210847 0.7089635 -0.21983103 0.53975326 0.16036332 0.15698522 -0.24002725
0.08841146 -0.17089935 0.30595037 -0.2186775 0.060726102 -0.31472176 0.121821806 0.1472182
-0.12225547 0.36909187 0.15371537 0.38619196 -0.5717635 0.44805282 -0.45066792 -0.05244597
00000000: ecb2 c53e 1f9c 813e 34dc 063e c434 283d
00000010: 704f febd 00af 5d3e c91d 913e 0915 133e
00000020: d8f2 8dbe e552 623e 8e43 113e f504 c03e
00000030: 4f95 d63d 5dd7 edbd 576d 24be a4f1 ed3c
00000040: 57e5 6f3d 32fc dc3d 840d 8b3d 7d86 523d
00000050: f5e3 8d3d f9e9 d53d 2f7a e53c 0d78 62bd
00000060: c1d8 8a3e 0028 703e 59f5 19bc a56a 0dbd
00000070: 7a39 04be 7b41 74bd 4de5 1e3e f768 6abd
00000080: 326f 093c c6f9 0abe 7abe 9ebd c870 a83d
00000090: 7a39 963e b7f9 a3bd 00ca 19bd 87bf b0bd
000000a0: a970 1f3d 976b 2d3d 560c 0fbd b8d9 1f3d
000000b0: ffae 9b3d 5c54 0f3e bc62 cb3e 5d89 593e
000000c0: a9f9 803e 630b d6bd 4322 48be b99c 3a3e
000000d0: b41d d63d 2ca1 24be c0e1 203d 7857 db3d
000000e0: 28c3 543e b556 3a3e 3672 83be be3f 403d
000000f0: 5c15 f53c 05e4 933e b0d2 483e add1 46bd
00000100: 8f5a cd3e d852 8abe 373e a93c 939e 8abd
00000110: 7a99 933d 14e9 34be b808 bebc d89b c2bc
00000120: 91c8 e4bd e407 9b3d f774 493e a0d6 09be
00000130: 407c 1fbd 4d2c 0abd 0c18 a1bd 6999 fcbd
00000140: eb29 56bd 97e8 d83d 966c 89bd 362c 9cbd
00000150: 65e1 943d fede 3d3e 6100 9bbc 4afa 94be
00000160: f0a2 a6be a729 583e ebbe 7c3e 7268 92be
00000170: 8077 4abd 7aab afbd 13ea eb3e 91ed d53d
00000180: 5b97 903d 9121 cebe d2cd 38be 9da2 f23c
00000190: aade 6b3c 7daa b53e 08e3 21be 6f85 0ebe
000001a0: a8c7 cc3d 1747 8a3e 3234 033f bd6d d23e
000001b0: c5af e03e c87f 27bf ba01 07bd 41d0 303e
000001c0: 63ee fd3e 41b9 81be 4d6c ddbd ae3d 9a3e
000001d0: 270e 933e 12d0 7d3e 0f7e ae3d a69f 1cbc
000001e0: 0a65 56bd 5e0f b4bd a9c8 083e c7a1 4ebd
000001f0: 8314 0ebd 4294 3a3e 419d 3ebe 2540 653e
00000200: 4339 5ebe 2f87 df3d eeef 9fbe 56cb 29bd
00000210: 0f1e 9fbd 4ef6 173d 5015 5ebd cba3 7dbd
00000220: 5af0 ddbd a15c 3a3d 1c2f c9bd 796a 1ebd
00000230: ff13 b43d 7b9e 69be 24e7 833d 7596 05bd
00000240: e323 633d 8847 26be 192b e7bd d3c1 0abd
00000250: 8f2d 94bc ba34 53bd 4209 8dbd 9acb 19be
00000260: 14ae 02be e926 98bc 8d97 983d 7ad1 1cbe
00000270: 1650 61be a349 0bbe a7b2 1c3e 30ca 0fbe
00000280: 881f 92be 66bf 2bbe 6412 08be b605 103e
00000290: 5d79 de3d a779 7ebe dd9f 88be 726f a4be
000002a0: 5ff1 c2bd 0eb0 8f3e 01e4 8ebe 2c03 f8bd
000002b0: d03a 46be 88b9 dc3e 3afb d3be e160 d8bd
000002c0: aac0 73be 33f8 b1be fb5a a43e b41b f43d
000002d0: cf8d 373e 132c 593e c91e 0ebf cc2f a8bc
000002e0: f4dd 9c3e 9964 b2be 4b64 0d3d 07fc 5ebd
000002f0: b75a 46be 6117 e0bc dd03 61bd 65f5 5cbd
00000300: 650d a53e ca98 f1be 680c 77bd f208 8abc
00000310: d777 76bd dde8 b33e 4287 f73d 4553 c3bd
00000320: 6761 2fbe e9ac de3d aead 503c 5587 1abb
00000330: 8c73 c03e 94bc 08be 4908 c4be e934 22be
00000340: 287d 6a3e 0a4c ea3e 8e9f 353e f342 1f3e
00000350: 4234 1bbc 126b 573d a59b a6be 9592 0d3e
00000360: c128 f5bd a060 6dbe aa08 80be b1f2 9e3e
00000370: d177 17be faf7 f5bc 7e2d 673d 0b1b 913d
00000380: 74f5 bcbd a3e0 933d 97d6 9fbe 0570 453e
00000390: 63ba b1be f703 00bf 43c6 1a3f 65a7 02be
000003a0: d95c d73e 6770 633e a27e 353f 631b 61be
000003b0: 452d 0a3f 4836 243e bcc0 203e b4c9 75be
000003c0: 1111 b53d 3d00 2fbe 87a5 9c3e ffec 5fbe
000003d0: efbb 783d 3623 a1be b67d f93d 5ec0 163e
000003e0: 1361 fabd 9cf9 bc3e 9067 1d3e f4ba c53e
000003f0: 185f 12bf 2e67 e53e f2bd e6be 96d1 56bd

cnn_layers.0.bias f4 [8]
0.16610847 0.23685916 -0.12688413 0.50394046 -0.05844129 0.01120439 -0.2956288 0.16352876
00000000: 5718 2a3e 358b 723e eaed 01be 3e02 013f
00000010: 2260 6fbd 9e92 373c a85c 97be 1574 273e

cnn_layers.1.weight f4 [8]
0.49463633 1.1638093 0.7075996 0.8558211 1.5488399 1.3615583 0.924183 0.45115608
00000000: f940 fd3e b4f7 943f 3f25 353f 1717 5b3f
00000010: 6340 c63f 8b47 ae3f 4297 6c3f eefd e63e

cnn_layers.1.bias f4 [8]
1.11352 -0.005323614 0.36246234 -0.4410914 -0.1485199 -0.166796 -0.040382206 1.3001657
00000000: d387 8e3f b671 aebb aa94 b93e bbd6 e1be
00000010: 9a15 18be 92cc 2abe d067 25bd d46b a63f

cnn_layers.1.running_mean f4 [8]
-0.036200676 0.23336428 -0.040445115 0.44104466 -0.09357645 0.028959895 -0.36299893 0.20506053
00000000: 2947 14bd 0cf7 6e3e c7a9 25bd 9bd0 e13e
00000010: 03a5 bfbd 4d3d ed3c ffda b9be 63fb 513e

cnn_layers.1.running_var f4 [8]
14.801684 3.2995827 12.578534 9.143052 5.272468 2.972207 4.0174937 8.509083
00000000: b3d3 6c41 5d2c 5340 ad41 4941 f149 1241
00000010: 0fb8 a840 a438 3e40 4f8f 8040 3425 0841

cnn_layers.4.weight f4 [14, 8, 3, 1]
0.4900346 0.32561874 0.19174032 -0.20732775 -0.082290664 -0.05593072 0.2646798 0.0530823
0.08756109 -0.3110602 -0.13555408 -0.2963397 -0.20189305 -0.103579395 -0.02820529 0.07171696
0.022322563 0.08619906 0.3387455 0.25267366 0.17851897 0.24505447 0.19399329 0.18330917
0.5465034 0.20937495 0.42830327 -0.1637043 -0.1237012 -0.09468063 0.33448845 0.12811813
0.20724364 -0.34296033 -0.13400556 -0.26560315 -0.11783157 -0.17310944 -0.2113842 0.135093
0.09790222 0.12985559 0.25110537 0.30994052 0.1689858 0.07219806 0.09458896 0.30724004
0.07714987 -0.23086558 -0.10565719 -0.37357056 -0.4262201 -0.37953874 0.29072645 0.46576756
0.32097813 -0.2654034 -0.43364748 -0.056588393 -0.41644484 -0.1943835 -0.24373887 -0.27218428
-0.51208574 -0.29530156 0.20902054 -0.15503444 0.024973491 0.063206695 0.14097753 0.32726818
0.050768565 -0.048913978 -0.0790433 -0.04110903 -0.278233 -0.2540043 0.28456047 0.045306165
0.23518854 -0.15705086 -0.14070131 -0.3933298 -0.44653884 -0.32000577 -0.36848328 -0.21057335
-0.36477333 -0.60227126 -0.10855765 -0.11479729 -0.31771687 -0.061124265 -0.013661607 0.37781203
0.6143033 0.37714058 0.06702717 -0.26084015 -0.044512358 -0.010213305 -0.02025057 -0.08370647
0.054793473 -0.2933675 -0.28723612 -0.4109795 -0.14217393 -0.15291326 -0.005371687 0.06683623
0.21738991 0.075394146 0.2580232 0.22689366 0.20064706 0.3791489 0.23545359 0.18407252
0.46100712 0.32247233 0.3350636 -0.20092916 -0.11170676 -0.24923915 0.114339255 -0.044019576
0.2927168 -0.2020976 -0.19066034 -0.3155621 -0.17591079 -0.031878445 -0.12658389 0.21477172
0.063206844 -0.003514852 0.42793587 0.20370683 0.18996102 0.14288759 0.25586596 0.2905505
0.2968649 0.20713189 0.05019732 -0.18350689 -0.07018212 -0.5438773 -0.02016811 0.331347
0.3667528 -0.114893965 -0.12683712 -0.17053579 -0.10079135 -0.04724313 -0.6112349 0.098226726
-0.07608848 -0.23428768 0.22844376 0.037574112 0.1392066 0.31168294 0.17480764 0.32099307
0.18613073 -0.016143123 0.08350899 -0.11665954 -0.19064039 -0.10199105 0.08985458 0.17645621
0.2563798 -0.07397315 -0.08647148 -0.3787739 -0.45718658 -0.5241593 -0.46135595 -0.091830984
-0.3687854 -0.3660652 -0.24859771 -0.06267227 -0.29540178 0.2583451 0.15688372 0.3033338
0.45632955 0.36632642 0.33939904 -0.17148371 -0.14225781 -0.11396735 0.18426557 0.2874584
0.25718194 -0.08097235 -0.25643376 -0.15039657 -0.20614408 -0.159638 -0.17853175 0.16215765
0.10385477 0.09546593 0.22216487 0.23485562 0.1492416 0.074517764 -0.0034306224 0.19944017
0.20580588 0.062275216 -0.13657022 -0.08545241 -0.049319487 -0.07383529 0.019270316 0.003860557
0.08676419 -0.14326611 -0.031209828 -0.36216623 -0.33246678 -0.50903726 -0.6765626 -0.39668489
-0.08159211 -0.32728356 0.118607946 -0.19042541 -0.0024736219 0.1925632 0.12244933 0.3676501
0.44438174 0.45006087 0.28101936 -0.19431691 -0.13004412 -0.16536215 0.14081122 0.08771652
0.31703183 0.046543445 -0.44578543 -0.4511372 -0.08780971 -0.123103365 -0.1657258 0.15592243
00000000: d1e5 fa3e 80b7 a63e 9357 443e ba4d 54be
00000010: 0288 a8bd 9c17 65bd 1c84 873e d36c 593d
00000020: 3b53 b33d 4843 9fbe b0ce 0abe d6b9 97be
00000030: 0dbd 4ebe 6f21 d4bd c80e e7bc 57e0 923d
00000040: cfdd b63c 2289 b03d 0d70 ad3e 715e 813e
00000050: adcd 363e 8fef 7a3e 2da6 463e 66b5 3b3e
00000060: a6e7 0b3f 6366 563e 914a db3e 1aa2 27be
00000070: 0e57 fdbd ebe7 c1bd 1242 ab3e 6631 033e
00000080: ad37 543e 7f98 afbe c138 09be 23fd 87be
00000090: ae51 f1bd 9a43 31be 1a75 58be d255 0a3e
000000a0: f680 c83d ddf8 043e e290 803e 86b0 9e3e
000000b0: 9d0a 2d3e 94dc 933d dbb7 c13d 914e 9d3e
000000c0: c000 9e3d 0768 6cbe cc62 d8bd a444 bfbe
000000d0: 8539 dabe e752 c2be 19da 943e 1679 ee3e
000000e0: 3f57 a43e f4e2 87be 0b07 debe 3bc9 67bd
000000f0: 4238 d5be 780c 47be af96 79be bd5b 8bbe
00000100: 0d18 03bf c431 97be 7b09 563e 59c1 1ebe
00000110: 3595 cc3c 8372 813d 6a5c 103e b28f a73e
00000120: b3f2 4f3d 065a 48bd 74e1 a1bd f161 28bd
00000130: 8e74 8ebe da0c 82be e9b1 913e f592 393d
00000140: 44d5 703e f1d1 20be 0114 10be 8662 c9be
00000150: bda0 e4be ccd7 a3be d7a9 bcbe 8aa0 57be
00000160: 92c3 babe 732e 1abf 7953 debd d71a ebbd
00000170: c9ab a2be 705d 7abd efd4 5fbc 9470 c13e
00000180: fb42 1d3f 9218 c13e 8a45 893d d78c 85be
00000190: 9752 36bd b555 27bc 86e4 a5bc 4c6e abbd
000001a0: 1f6f 603d 4434 96be 9d10 93be e86b d2be
000001b0: 0b96 11be 4b95 1cbe fa04 b0bb 6fe1 883d
000001c0: 769b 5e3e 3f68 9a3d 9e1b 843e d056 683e
000001d0: 6c76 4d3e ce1f c23e bf1a 713e 827d 3c3e
000001e0: 2009 ec3e 181b a53e 758d ab3e 60c0 4dbe
000001f0: 84c6 e4bd 8c38 7fbe b32a ea3d df4d 34bd
00000200: fade 953e acf2 4ebe 773c 43be 5b91 a1be
00000210: f521 34be f992 02bd 359f 01be 1eed 5b3e
00000220: 9772 813d 6e59 66bb 691a db3e 8698 503e
00000230: 2485 423e 2051 123e dd00 833e 09c3 943e
00000240: adfe 973e 621a 543e b49b 4d3d 3be9 3bbe
00000250: a5bb 8fbd 8b3b 0bbf 9837 a5bc 50a6 a93e
00000260: 06c7 bb3e 874d ebbd 97e1 01be efa0 2ebe
00000270: b26b cebd 0382 41bd e479 1cbf 182b c93d
00000280: 47d4 9bbd 1ce9 6fbe 29ed 693e 50e7 193d
00000290: 2d8c 0e3e e894 9f3e c600 333e 3459 a43e
000002a0: 0e99 3e3e 953e 84bc c306 ab3d 32eb eebd
000002b0: 3c37 43be afe0 d0bd ae05 b83d f0b0 343e
000002c0: 3744 833e 3c7f 97bd f617 b1bd a7ee c1be
000002d0: 5c14 eabe 4e2f 06bf d936 ecbe e211 bcbd
000002e0: 71d1 bcbe e66c bbbe 6690 7ebe 525a 80bd
000002f0: e73e 97be cf45 843e 20a6 203e 914e 9b3e
00000300: 07a4 e93e 238f bb3e b6c5 ad3e 6d99 2fbe
00000310: 08ac 11be b767 e9bd 1db0 3c3e bf2d 933e
00000320: 5aad 833e d5d4 a5bd 494b 83be 8f01 1abe
00000330: 6f17 53be 2578 23be 07d1 36be a80c 263e
00000340: cfb1 d43d a483 c33d 307f 633e fe7d 703e
00000350: cad2 183e c59c 983d 4bd4 60bb 0b3a 4c3e
00000360: c7be 523e 4c14 7f3d 10d9 0bbe ac01 afbd
00000370: 3b03 4abd f536 97bd c8dc 9d3c 6601 7d3b
00000380: 6cb1 b13d 5ab4 12be c1ab ffbc da6d b9be
00000390: 1639 aabe 4450 02bf 3533 2dbf 481a cbbe
000003a0: c419 a7bd b691 a7be b9e8 f23d e1fe 42be
000003b0: 7d1c 22bb 4a2f 453e b7c6 fa3d a23c bc3e
000003c0: 0186 e33e 616e e63e c5e1 8f3e 03fb 46be
000003d0: 492a 05be b254 29be d130 103e b8a4 b33d
000003e0: ff51 a23e 57a4 3e3d fd3d e4be 75fb e6be
000003f0: 94d5 b3bd 9e1d fcbd 06b4 29be 21aa 1f3e

cnn_layers.4.bias f4 [14]
0.36201897 -0.0037743454 0.4383863 -0.15206069 -0.186996 0.2160421 -0.24713399 0.097203776
-0.105139785 -0.07292252 -0.23490512 -0.044885505 0.32585573 -0.26842234
00000000: 8d5a b93e 025b 77bb 2b74 e03e ccb5 1bbe
00000010: e17b 3fbe 243a 5d3e b110 7dbe c612 c73d
00000020: 8753 d7bd 6758 95bd f88a 70be ddd9 37bd
00000030: 90d6 a63e a76e 89be

cnn_layers.5.weight f4 [14]
2.485547 2.5365565 2.4717183 2.4971664 2.5410326 2.5161338 2.4861774 2.4916482
2.5574024 2.4491174 2.5412018 2.3822167 2.5137494 2.4157567
00000000: 3413 1f40 f156 2240 a230 1e40 93d1 1f40
00000010: 47a0 2240 5608 2140 881d 1f40 2a77 1f40
00000020: 7bac 2340 57be 1c40 0da3 2240 3d76 1840
00000030: 45e1 2040 c29b 1a40

cnn_layers.5.bias f4 [14]
1.5936731 1.6027443 1.5019563 1.5158349 1.6652658 1.6136962 1.5125302 1.5031224
1.633865 1.4615387 1.6198312 1.4065214 1.6608477 1.3943076
00000000: 7bfd cb3f ba26 cd3f 1b40 c03f e106 c23f
00000010: 6e27 d53f 998d ce3f 979a c13f 5166 c03f
00000020: 7d22 d13f b313 bb3f a156 cf3f e508 b43f
00000030: a896 d43f ac78 b23f

cnn_layers.5.running_mean f4 [14]
2.403672 2.1300144 -0.21020669 -1.3242191 1.949369 2.3999817 0.9320518 -0.090373024
1.7326865 -0.43803695 1.9151925 -2.9542599 2.0557592 0.5637094
00000000: c3d5 1940 2852 0840 6c40 57be 0380 a9bf
00000010: ec84 f93f 4d99 1940 f29a 6e3f 7e15 b9bd
00000020: acc8 dd3f 6146 e0be 0725 f53f 9812 3dc0
00000030: 8f91 0340 424f 103f

cnn_layers.5.running_var f4 [14]
0.030356316 0.033052605 6.8340898 6.6008787 0.034833398 0.07099262 1.797721 6.304693
0.029443832 4.61177 0.059065863 7.8091516 0.09595979 2.1743207
00000000: cfad f83c 2b62 073d ddb0 da40 663a d340
00000010: 77ad 0e3d 9464 913d b91b e63f 0cc0 c940
00000020: 3134 f13c 9f93 9340 0cef 713d 92e4 f940
00000030: 9186 c43d 1228 0b40

linear_layers.0.weight f4 [1, 28]
1.5591596 1.2629422 1.4575505 1.4907384 1.558242 1.4453552 1.4413589 1.6640431
1.5948344 1.2529927 1.3747393 1.5403816 1.3939261 1.5623153 1.4304172 1.6490487
1.3730154 1.5078276 1.4163724 1.6140475 1.3182788 1.5804751 1.4554422 1.5001987
1.2846483 1.5978411 1.5034513 1.5549773
00000000: 8b92 c73f 17a8 a13f 0491 ba3f 84d0 be3f
00000010: 7974 c73f 6601 b93f 737e b83f 5dff d43f
00000020: 8923 cc3f 1162 a03f 75f7 af3f 392b c53f
00000030: 2c6c b23f f3f9 c73f e917 b73f 0714 d33f
00000040: f8be af3f 7f00 c13f b14b b53f 1c99 ce3f
00000050: 5cbd a83f 024d ca3f ee4b ba3f 8306 c03f
00000060: 5b6f a43f 0f86 cc3f 1871 c03f 7f09 c73f
