model/model_FD003.pth (torch, 9215 bytes, 13 tensors)

cnn_layers.0.weight f4 [8, 1, 4, 15]
000000 e4 eb 25 be 4d 1f 44 be d5 e1 23 be 96 f3 4f 3e
       -0.16203266 -0.19152565 -0.16004117 0.20307764
000010 c2 9f f2 3d 40 bf 68 3c 80 dd 28 bd 27 b3 d9 bd
       0.11846878 0.014205754 -0.041226864 -0.10629874
000020 33 1e 49 3e f2 c8 f6 ba f5 a6 34 bc 3f 26 fb bd
       0.19640426 -0.0018828197 -0.011026134 -0.12263154
000030 21 ce 10 be 17 f6 0e 3e c0 c0 dd 3d 1f 53 61 be
       -0.14141132 0.13961063 0.1082778 -0.22004364
000040 88 0c 52 be a7 28 74 be 5f 06 7c 3e d3 77 a2 3a
       -0.20512593 -0.23843633 0.24611805 0.001239533
000050 13 8c 45 3d e1 7a 34 be 55 6b 68 be 5d 69 e9 bc
       0.04822929 -0.17625 -0.22697194 -0.028492624
000060 aa 73 fe bc a2 89 cd bd 35 ac 7a bd 99 9b 41 be
       -0.031061012 -0.10036017 -0.061199386 -0.18907012
000070 9a a1 cf 3d 33 50 10 3e a2 5d 8f be bd 64 3f be
       0.10138245 0.14093094 -0.28001124 -0.18690772
000080 f3 c8 a4 be 25 74 44 3e ce ee 47 be a4 c4 b1 bd
       -0.32184562 0.1918493 -0.1952469 -0.08680084
000090 34 1d 57 be 14 c4 d9 be e3 a1 3c be be 58 02 be
       -0.21007234 -0.42532408 -0.1842113 -0.12729165
0000a0 91 df e0 bd 70 3a fb bb 13 cb 7a be d3 23 c1 3d
       -0.10980142 -0.0076668784 -0.24491529 0.09430661
0000b0 6d 23 0a 3e 96 65 a9 be 5a 4d ad be 03 85 02 bf
       0.13490076 -0.33085316 -0.33848077 -0.5098421
0000c0 8f d3 32 3e 3f 57 5c be 25 21 3f 3c c9 3d 99 be
       0.17463516 -0.21517657 0.011665617 -0.2992995
0000d0 41 04 0a bf 04 84 86 be f0 29 af bd cb 26 52 be
       -0.5391274 -0.26272595 -0.08552921 -0.20522611
0000e0 04 45 11 bc b3 e4 9b be d1 a0 bc 3d 3e f8 ef 3d
       -0.008866552 -0.3044792 0.09210361 0.1171727
0000f0 8c 1a 18 3d bc d7 2e bd 91 07 2e 3b ff b7 8b bd
       0.037134692 -0.04268621 0.0026554803 -0.06822204
000100 4a e9 da 3e f3 22 b2 3e f5 e5 bc 3e ff 91 2c 3d
       0.4275611 0.3479229 0.36894193 0.04213142
000110 75 5f 1b 3f 23 e1 15 3e 2e bd 5b 3e 46 90 2f bd
       0.6069253 0.14636664 0.21458885 -0.0428622
000120 9c 95 82 3d 77 79 9c 3d 52 2e 38 3d 49 46 c8 bc
       0.06376192 0.07640355 0.04496605 -0.024447577
000130 25 d1 38 3d 84 13 90 ba c0 b9 2d bd ae c6 ae 3d
       0.04512133 -0.0010992144 -0.042413473 0.08533989
000140 e8 98 85 bc bb a2 2c 3c bb 63 65 bd 6e cf 84 3e
       -0.016308263 0.010536845 -0.056003314 0.25939506
000150 80 dd b4 3c 5c 97 a7 bc d5 0c 16 3d e9 95 5a bd
       0.022078276 -0.020457916 0.03663333 -0.05336562
000160 f7 65 a3 bc 4e 7b 0c bd fa ed 6a bd a0 72 e2 bb
       -0.019946082 -0.03429728 -0.05735586 -0.006910637
000170 3f f2 f6 bd fa a1 8c bb 2d 0b 35 3d dc 4d ea bd
       -0.120579235 -0.00429177 0.04420011 -0.11440632
000180 71 6f 16 be e3 5a a7 bd ac 26 31 3e 34 0f 7a bd
       -0.14690949 -0.08171632 0.17299908 -0.061049655
000190 99 36 bd bd d4 0f 3f bc ea e3 4f 3d 3c 60 0d 3d
       -0.09238929 -0.011661489 0.050754465 0.034515604
0001a0 c2 b3 7a 3d 35 33 a1 3c d5 1f 95 3c cb 4b 17 be
       0.061206587 0.019677738 0.018203655 -0.14775006
0001b0 17 97 69 be 57 8e 05 3f 31 2a a0 3d 42 7e 96 3e
       -0.22811542 0.5217032 0.07820547 0.29393202
0001c0 72 46 21 be 39 15 2e 3f 14 ef 7d bb 17 20 c6 3e
       -0.15749529 0.68001133 -0.0038747238 0.38696358
0001d0 b4 57 19 be 41 40 a6 bd df 12 47 3d e8 21 da 3d
       -0.14974862 -0.08117724 0.04860198 0.10650998
0001e0 6b ce db bd 02 c3 01 be 9c af d3 be ee 95 ce 3d
       -0.107327305 -0.12672046 -0.41344917 0.100871906
0001f0 2b 5e 34 bd a5 fd 3b be 1e 83 0e be 7c 71 cf be
       -0.044035118 -0.18358476 -0.13917205 -0.4051627
000200 b3 47 e4 3d b3 3c d2 bd 60 a2 39 be 77 0f 5e be
       0.11146488 -0.10265484 -0.18128347 -0.21685587
000210 68 d5 70 be 70 ca b3 3d a7 e2 97 3d ea 47 3a be
       -0.23518908 0.08778846 0.074162774 -0.18191496
000220 20 93 26 be 95 b1 ad be 32 2e 62 3e 72 64 29 3c
       -0.16267061 -0.33924547 0.22087935 0.010338889
000230 91 ae 70 bd 16 d8 82 be f9 9e b1 be 79 50 16 3e
       -0.05876023 -0.25555485 -0.346916 0.14679135
000240 94 08 cb bd b3 3b 3a 3a be 1a 6a bd d7 34 87 be
       -0.099137455 0.0007104233 -0.05715441 -0.264075
000250 db 32 b3 3d b9 6d 54 3e 42 c2 c3 be 77 13 85 be
       0.08749934 0.20744981 -0.38234144 -0.25991413
000260 db f7 82 be cc 8f e4 3d 77 fa 16 3e 70 31 15 be
       -0.25579724 0.111602396 0.14743982 -0.1456964
000270 8a b4 0b be 2a 03 c7 be 4c bf 11 3e 70 1b 5d be
       -0.13643089 -0.388696 0.1423313 -0.21592498
000280 af d0 67 be d5 b0 cd bd b1 fe 27 be 25 4e 5a 3e
       -0.226382 -0.10043494 -0.16405751 0.21318872
000290 e1 f9 41 3e 45 ba 79 be 96 84 9b be a4 0c 8f be
       0.18942977 -0.24387462 -0.30374593 -0.27939332
0002a0 6e 60 08 3d ac 14 1a 3e 23 9d d7 bd cf 10 0d be
       0.033295088 0.15046948 -0.10528018 -0.13775943
0002b0 72 1c a0 be 3a de 2f 3e 3f 66 28 be a6 2a e4 ba
       -0.31271702 0.17174616 -0.16445254 -0.001740773
0002c0 ad ae 48 bd aa 9d 82 be 74 0c 04 3e 03 29 cd 3d
       -0.04899471 -0.25510913 0.12895375 0.10017588
0002d0 96 4d 8c be 3c 61 43 be 5c d3 90 be e2 fd ab 3e
       -0.27402943 -0.1908006 -0.28286254 0.33592135
0002e0 bc a8 1f be f3 31 93 3c 22 ca 4b be f0 6f b5 be
       -0.15591711 0.017968154 -0.19901326 -0.35436964
0002f0 2b 73 c1 be 4f df ac 3d fc f2 12 be 65 06 63 bd
       -0.3778318 0.0844103 -0.14350504 -0.05542602
000300 0a 95 15 be dc 70 0f 3e 15 5a 2b 3e da 6c 6c be
       -0.14607635 0.14007896 0.16733582 -0.23088399
000310 93 5b 4e be 2c c9 a7 be 9f 99 35 3e d9 63 3d be
       -0.2015212 -0.3277067 0.17734383 -0.1849512
000320 1d 1b 4b 3d d6 11 1d be 1c e0 81 be 9f fa ad be
       0.049586404 -0.15338835 -0.25366294 -0.3398027
000330 80 c9 fd 3c ee fe 8d bd 9d e7 05 3d 9a c2 f8 bd
       0.030979872 -0.069333896 0.032691587 -0.12146492
000340 cc 38 a0 3d 06 8b ac 3d 21 7c 04 be 92 c7 0e be
       0.07823333 0.08424954 -0.12937976 -0.13943318
000350 14 13 56 be 0f 5c 72 3e 0f 19 0d be 3d 07 88 bb
       -0.20905715 0.2366793 -0.1377909 -0.0041512535
000360 58 76 04 be ef d0 70 be cf f6 3e be 25 0f 59 3d
       -0.1293577 -0.23517202 -0.18648838 0.05299296
000370 b1 91 a0 bc d9 82 fb bd cf a8 6e be 5e 74 a7 3d
       -0.019600721 -0.122808166 -0.23306583 0.08176492
000380 93 16 96 bc 9c 74 99 be 05 05 23 be 7c fb c1 be
       -0.018321311 -0.29971778 -0.15919884 -0.3788718
000390 1f 3e 81 3e 8c 2e f6 bd 3c e3 06 3d 2f 57 6f bd
       0.25242707 -0.12020597 0.03293155 -0.058432754
0003a0 24 24 c8 be 68 b4 15 be fc b0 4d 3c fc bb b8 bc
       -0.39090073 -0.14619601 0.012554403 -0.022550575
0003b0 77 5a ec 3b 17 a0 75 be 74 1f 3c 3d 2e a1 18 3e
       0.0072129327 -0.2398685 0.045928434 0.14905235
0003c0 d9 63 ae 3d ea 72 ca 3c 26 d1 4d 3e d6 57 97 3d
       0.08515138 0.024712998 0.20099315 0.073898
0003d0 f9 4a a8 be 5e f1 93 3e 10 ec f6 3d 1a ff 89 3e
       -0.328697 0.28895086 0.12056744 0.2695244
0003e0 d9 ec 58 be 6f 21 31 3d 21 c2 81 bb 80 db 7e 3c
       -0.211841 0.043244775 -0.0039599095 0.015555263
0003f0 98 25 25 3e ac 99 f0 bd e6 d0 f9 3b 0d 0d 46 bc
       0.16127622 -0.117480606 0.0076237796 -0.0120880725

cnn_layers.0.bias f4 [8]
000000 1b 07 5d bf 57 a8 6c bd 52 d7 65 3d 3e 73 98 3c
       -0.8633897 -0.05777773 0.05611355 0.01860964
000010 0b d5 83 be c7 c5 ad bd 45 10 96 be d7 fe cb 3e
       -0.25748476 -0.08484989 -0.29309288 0.39842865

cnn_layers.1.weight f4 [8]
000000 14 e2 74 3f 2c 2c b1 3f b1 b7 67 3f 5d 38 79 3f
       0.9565747 1.3841605 0.90514666 0.9735163
000010 9a 4a 6a 3f fa d7 79 3f 79 87 2f 3f ca 9b 1d 3f
       0.9152008 0.9759518 0.6856609 0.6156584

cnn_layers.1.bias f4 [8]
000000 2c 67 8b 3f 5e 10 4d 3e 4f 38 8d 3f 47 ae b2 3f
       1.089086 0.20025775 1.1032809 1.3959435
000010 14 f4 1b 3e c7 ac 0f 3e fb b2 75 3f ec d2 7e 3f
       0.15229827 0.14030753 0.9597623 0.9954059

cnn_layers.1.running_mean f4 [8]
000000 ac a4 29 bf 90 cd f9 bd e5 b4 9b 3e 0b 4b 5c 3e
       -0.66266894 -0.12197411 0.3041145 0.21513002
000010 41 84 9e be 77 7b 06 be 43 49 43 be 4b b5 33 3f
       -0.30960277 -0.13133036 -0.19070916 0.70198506

cnn_layers.1.running_var f4 [8]
000000 de e1 bf 41 b8 f6 6c 41 34 cc e2 41 ab 3e 97 41
       23.985287 14.810234 28.349709 18.9056
000010 d0 92 c2 40 3c 81 03 41 18 ff 20 41 44 d5 4b 42
       6.0804214 8.219051 10.062279 50.958267

cnn_layers.4.weight f4 [14, 8, 3, 1]
000000 c7 08 f7 3e 1d 60 72 3e 28 33 cb 3e 41 05 c0 3e
       0.48248884 0.23669477 0.39687467 0.37504008
000010 02 66 81 3c b5 b2 9b be ab ec 9b be db e3 b7 be
       0.015795711 -0.3040978 -0.30454 -0.35916027
000020 47 13 b6 be 50 f4 6d be 4d cc 8a be 42 38 28 be
       -0.35561582 -0.23237729 -0.27108994 -0.1642771
000030 c4 ca 94 3e e1 a8 54 bd 71 d4 84 be e9 22 28 3d
       0.29060948 -0.051918868 -0.2594333 0.041048918
000040 6d 2c 65 3d c4 39 95 be d5 fd 42 bc ea 3a 2c 3b
       0.05595057 -0.29145634 -0.011901339 0.0026280233
000050 60 90 74 3c 5d 89 8b 3e 9d 88 3e 3e 71 79 ce 3e
       0.014927 0.27253237 0.18606801 0.40327027
000060 a0 52 a1 be 02 2f b9 bd 88 4d 6a be 78 8f 06 3e
       -0.3150835 -0.09042169 -0.22881138 0.13140666
000070 52 d8 3f be b0 2a 85 be 25 26 1c 3f ad f8 c0 3e
       -0.18734863 -0.2600913 0.60995704 0.37689725
000080 c5 94 9c 3e f0 c9 c2 be d0 cc bc be 3a 8a 04 be
       0.30582252 -0.3804469 -0.3687501 -0.12943354
000090 f1 bd 59 be ac f5 d3 bd cb 8d a0 be 2e 96 a1 3e
       -0.21263863 -0.103495926 -0.3135818 0.3155989
0000a0 56 a4 da 3d 17 de 10 be af 47 af be cc 56 b0 be
       0.10675876 -0.1414722 -0.34234378 -0.3444122
0000b0 22 6d 83 be c2 83 03 3f e2 4b 3d 3f 1f 91 de 3e
       -0.256692 0.5137292 0.73943913 0.43470094
0000c0 c8 11 87 3e 22 54 35 3e e0 1b 9e 3e ea a8 d0 3e
       0.26380754 0.17707875 0.30880642 0.4075387
0000d0 ff cd d9 bd 3f 97 ae be 02 4f aa be f5 61 95 be
       -0.10634994 -0.34099767 -0.33263403 -0.29176298
0000e0 e6 7c 94 be 07 b0 ad be 38 41 26 be 08 eb 07 be
       -0.2900154 -0.3392336 -0.16235816 -0.13273251
0000f0 c0 01 48 3e 4b 17 2b 3c cb 2f b2 be 9a ee 18 3e
       0.19531918 0.010442565 -0.34802088 0.1493477
000100 ab 98 25 bc f7 e0 84 be 66 03 66 bd 0b 22 19 be
       -0.0101072 -0.25952885 -0.056155585 -0.14954393
000110 50 97 9d 3d 1f b1 55 3e 0d 06 5c 3e 1d 2e a5 3e
       0.07694876 0.20868348 0.21486683 0.32261744
000120 93 31 5d 3d c7 98 83 bd f5 0c 93 3b de a6 95 bd
       0.054002356 -0.06425624 0.0044876286 -0.07307218
000130 8d 15 91 be 4b 0c 4d be 2f 82 d4 be 6b 2c 0a bf
       -0.28336754 -0.2002422 -0.41505572 -0.53974026
000140 77 82 0a bf 59 2c 20 3f 8a 93 05 3f 9f 8d 49 3f
       -0.54105324 0.6256767 0.5217825 0.7873172
000150 f0 df 27 bd 99 e9 ab bd aa 67 06 be 21 88 19 be
       -0.040985048 -0.083941646 -0.13125482 -0.14993335
000160 db bf 00 be d1 d8 c3 be 34 5e e3 3e 43 63 90 3e
       -0.12573187 -0.38251355 0.4440781 0.2820073
000170 cb ff af 3e 94 fa bf be e6 2f 2b be 13 ff 96 be
       0.34374842 -0.37495863 -0.1671749 -0.2949148
000180 64 d8 9f 3e e9 81 a0 3e 98 92 fc 3e d2 39 96 3e
       0.3121978 0.31349114 0.49330592 0.29340988
000190 3d f5 55 3d 12 c6 73 be 8e a8 57 be 81 6e 8c be
       0.05223583 -0.23806027 -0.21060392 -0.27428058
0001a0 1d 18 be be 82 0d 43 be bb 8b f8 bd 61 d3 97 be
       -0.37127772 -0.19048122 -0.121360265 -0.29653457
0001b0 b7 b1 86 3e 36 af b6 3d a1 c7 c8 be 36 ea 0c 3e
       0.2630746 0.089201376 -0.39214805 0.1376122
0001c0 98 76 2a 3c 28 16 dd be d3 26 ac 3d aa a7 28 3b
       0.0104042515 -0.43180966 0.08405843 0.0025734701
0001d0 9f 5d 6a bd c7 76 3a 3d 30 cf 97 3e d9 f0 d5 3d
       -0.05721819 0.04552343 0.2965026 0.10446329
0001e0 f7 8a a9 3e 40 ec c8 3e 3e 3e d5 3e 7c 7d a0 3e
       0.33113834 0.39242744 0.4164905 0.31345737
0001f0 0c 39 b8 3d 90 a9 f0 be 67 8c 36 bd 6c 7f 02 be
       0.08995256 -0.47004366 -0.04456749 -0.1274392
000200 9d 57 e1 be 50 b7 87 be ca c3 18 be d2 e9 9d be
       -0.44012156 -0.26507044 -0.14918438 -0.30842453
000210 5b 55 8d bc a9 ec ee 3d 0b ad ca be 7a 49 8f 3e
       -0.017252615 0.11666233 -0.39585146 0.27985746
000220 c8 3b f3 bd 32 8f b0 be 01 69 2e be f4 df 9f ba
       -0.11876637 -0.3448425 -0.17032243 -0.001219748
000230 f6 62 fd 3c d3 78 70 bc c6 a5 bc bd d9 a8 a7 3c
       0.030930977 -0.014677244 -0.09211306 0.020466255
000240 27 0e 66 3e a8 b1 9a 3e fa 43 b3 3e 2a 1d 82 3e
       0.22466336 0.30213666 0.350128 0.25412875
000250 a2 00 0d be 95 63 fc be a2 cc 93 3e aa ba 6e 3e
       -0.13769773 -0.49294725 0.2886706 0.23313394
000260 70 eb 87 3d cb 62 0e bf 7d 50 f9 be e0 13 b8 be
       0.06636703 -0.55619496 -0.4869422 -0.35952663
000270 af 39 b7 bd 68 12 70 be 99 ce 13 be 5e 0b 4a 3e
       -0.08946549 -0.23444521 -0.1443428 0.19730899
000280 44 27 74 bd d2 9f c7 bd 60 09 d9 be 33 f4 ec be
       -0.05960776 -0.0974728 -0.42389965 -0.4628006
000290 ee 82 98 be 3c 58 cd 3e 03 13 05 3f a2 3b cc 3e
       -0.2978739 0.4010638 0.51982135 0.39889246
0002a0 8c b9 ed 3e 13 ad cb 3e 12 50 0d 3f 2f 60 dc 3e
       0.46430624 0.39780483 0.552003 0.43042132
0002b0 b8 8b 18 3e a1 74 e5 be 48 09 4a be 68 ad a8 bd
       0.14897048 -0.44815543 -0.19730103 -0.082361996
0002c0 c5 59 c8 be 84 77 a8 be e5 32 0f be ba 4f 9b be
       -0.3913099 -0.32903683 -0.13984258 -0.30334264
0002d0 fe 33 5d 3e 30 b5 b8 3c 8d fa ab be 5f d0 4c bd
       0.21601865 0.022547334 -0.33589593 -0.050003406
0002e0 04 f0 fc bc e5 8b 9e be 2f cb 2c bc ab b5 1d 3e
       -0.030876167 -0.30966106 -0.01054649 0.15401332
0002f0 ec ab 6d bd eb cf 8e bc 26 b9 ec 39 9e ec f5 bd
       -0.058025286 -0.017433127 0.00045151374 -0.12008022
000300 c4 05 05 3f 0c 50 bd 3e 84 e6 ac 3e 36 a1 a7 3e
       0.5196192 0.36975133 0.3376962 0.32740182
000310 cf e3 c2 3c d6 fe b2 be 80 f2 b9 be 08 c8 a2 be
       0.023790268 -0.3496005 -0.36317825 -0.31793237
000320 51 7d 77 be cb 38 44 be f6 54 a3 be ef c8 77 be
       -0.24168898 -0.1916229 -0.31900758 -0.24197744
000330 c7 1f 33 3e 2c 99 d5 bd ea 39 9d be b5 f1 2a 3c
       0.17492591 -0.10429606 -0.30708247 0.010433604
000340 eb 4c cf 3d a1 b9 be be 14 f0 ee bc c0 aa 8e 3d
       0.10122093 -0.37251 -0.029167213 0.06966162
000350 75 7b e3 bc 63 01 f5 3c 7b 98 64 3e 2c 00 e6 3d
       -0.02776883 0.029907888 0.22323792 0.112305015
000360 22 5f 07 3f 0c 1b cd 3e 38 2b b2 3e dc 40 ce 3e
       0.52879536 0.40059698 0.34798598 0.4028386
000370 34 f5 dc 3b e6 a3 9d be 4c 61 bf be 78 e1 99 be
       0.0067430977 -0.30789107 -0.3737892 -0.30054832
000380 0a b7 a5 be 37 4c c7 be 8e 6b 0a be 10 a2 47 be
       -0.3236621 -0.38925335 -0.13517591 -0.19495416
000390 f4 15 6d 3d 71 89 39 3d 6d b9 10 be e2 37 58 3e
       0.057882264 0.04529709 -0.14133234 0.21115068
0003a0 0f 57 ad bd 31 17 af be 4b 7b 9c 3c 74 a5 8a bc
       -0.08463871 -0.3419738 0.01910176 -0.016924597
0003b0 11 3c 9f 3c 2a 0f 75 3e 8f 90 4b 3e 52 57 a4 3e
       0.019437822 0.23931566 0.19879363 0.3209787
0003c0 cc 4b 52 39 a6 c3 a7 bb 8b 05 05 3e 91 cc 94 be
       0.00020055397 -0.0051197587 0.12990396 -0.29062322
0003d0 16 cb 0d be ef c4 67 be 64 9b 05 bf 4b 7a 4e be
       -0.13847002 -0.22633718 -0.5219023 -0.20163839
0003e0 4d 89 04 bf f6 78 9c 3e bd 47 b6 3e 33 09 e7 3e
       -0.51772004 0.30561036 0.35601607 0.45124206
0003f0 39 fe 3e bc c4 b1 1c be e0 21 95 be 38 8c f4 be
       -0.011657291 -0.15302187 -0.29127407 -0.47763228

cnn_layers.4.bias f4 [14]
000000 12 5f 85 be c9 6d 5d 3e 0e 89 aa bb 35 3f 03 be
       -0.26049095 0.21623911 -0.0052043265 -0.1281708
000010 8f 46 ed 3c b4 85 4e bd f2 19 1a be cb 96 22 3d
       0.028964309 -0.050420478 -0.1504896 0.03969459
000020 cc 38 8a be 7e e4 29 3e 03 28 b1 3d ed f8 39 be
       -0.26996458 0.16591069 0.0865021 -0.18161364
000030 99 77 43 bd eb 7b 0b 3e
       -0.04772148 0.1362149

cnn_layers.5.weight f4 [14]
000000 52 12 27 40 ff 12 1b 40 09 2a 28 40 aa 23 21 40
       2.6104932 2.4230344 2.6275656 2.5178018
000010 71 b1 24 40 45 0c 29 40 56 ee 18 40 08 f9 23 40
       2.5733302 2.6413739 2.3895469 2.5620747
000020 19 5b 23 40 12 55 1f 40 df 6e 19 40 cd 3c 1b 40
       2.5524352 2.4895673 2.397392 2.425586
000030 8c 6a 1a 40 5e b6 24 40
       2.412753 2.5736308

cnn_layers.5.bias f4 [14]
000000 d0 1d e0 3f 7e a7 b6 3f 9e c8 dd 3f 6f 2b d2 3f
       1.7509098 1.4269865 1.7326849 1.6419505
000010 4f 9a da 3f 82 9b df 3f be f4 b3 3f 3b e8 d6 3f
       1.7078341 1.7469332 1.4059064 1.6789621
000020 1d 6a d8 3f d2 aa cf 3f 75 f2 c7 3f 79 41 bd 3f
       1.6907383 1.6224005 1.5620867 1.4785606
000030 eb 7a bd 3f 3f 24 dd 3f
       1.4803137 1.7276686

cnn_layers.5.running_mean f4 [14]
000000 2a 9b 8d be 5b ae ab 3d f5 ea 24 bf 15 9e ea 3e
       -0.27657443 0.08382865 -0.64421016 0.45823732
000010 b2 66 15 be 49 6d 76 bf 4e 75 45 bf 2c 92 ce be
       -0.14589956 -0.96260506 -0.7713212 -0.40345895
000020 7c aa 57 bf b8 c9 42 3e d2 e2 04 3e 65 43 51 3f
       -0.84244514 0.19022262 0.1297715 0.8174346
000030 05 0e 52 3f 6e 6f a3 3e
       0.8205264 0.31920952

cnn_layers.5.running_var f4 [14]
000000 7b ba 0d 3d ed 19 a4 3f a5 1d 7f 3c 77 84 54 40
       0.03460167 1.2820412 0.015571033 3.320585
000010 4b 41 0b 3d 1b 75 81 3c e7 95 8d 3f 05 0e 0b 3d
       0.033997815 0.01580291 1.1061372 0.033948917
000020 bc fe f3 3c 76 f7 69 3d 34 47 71 40 ed d1 82 3f
       0.029784553 0.057120763 3.769971 1.0220314
000030 73 26 8c 3f 2b 48 b9 3d
       1.0949234 0.09046968

linear_layers.0.weight f4 [1, 28]
000000 28 0e c0 3f 3f be bc 3f d4 f3 bf 3f c7 06 c5 3f
       1.500432 1.4745559 1.4996285 1.5392693
000010 c1 ce b2 3f 3a d7 d0 3f a6 bf da 3f 6f 9f cc 3f
       1.3969346 1.6315682 1.7089736 1.5986155
000020 0c 83 b9 3f b7 1f d1 3f 32 ae bb 3f 25 f7 d5 3f
       1.4493117 1.6337804 1.4662535 1.6716048
000030 de cf c8 3f 01 44 be 3f d2 ac d8 3f dd da b3 3f
       1.5688436 1.4864503 1.692774 1.4051167
000040 16 94 b8 3f 6e 01 cf 3f 1e 58 cb 3f ea ff c2 3f
       1.4420192 1.6172311 1.5886266 1.5234349
000050 c6 6d bd 3f 2c 88 c1 3f a9 6a cd 3f 7f ee cd 3f
       1.4799125 1.5119681 1.6048175 1.6088408
000060 95 b5 bc 3f 44 59 c9 3f 71 07 c7 3f f2 75 bd 3f
       1.4742914 1.5730367 1.5549146 1.4801619
