model/model_FD001.onnx (onnx, 4588 bytes, 5 tensors)

linear_layers.0.weight f4 [1, 28]
00000000: 8b92 c73f 17a8 a13f 0491 ba3f 84d0 be3f
00000010: 7974 c73f 6601 b93f 737e b83f 5dff d43f
00000020: 8923 cc3f 1162 a03f 75f7 af3f 392b c53f
00000030: 2c6c b23f f3f9 c73f e917 b73f 0714 d33f
00000040: f8be af3f 7f00 c13f b14b b53f 1c99 ce3f
00000050: 5cbd a83f 024d ca3f ee4b ba3f 8306 c03f
00000060: 5b6f a43f 0f86 cc3f 1871 c03f 7f09 c73f
1.5591596 1.2629422 1.4575505 1.4907384 1.558242 1.4453552 1.4413589 1.6640431
1.5948344 1.2529927 1.3747393 1.5403816 1.3939261 1.5623153 1.4304172 1.6490487
1.3730154 1.5078276 1.4163724 1.6140475 1.3182788 1.5804751 1.4554422 1.5001987
1.2846483 1.5978411 1.5034513 1.5549773

31 f4 [8, 1, 4, 15]
00000000: 4057 4b3d 034f 053d 73b5 8a3c a101 ad3b
00000010: adc8 82bc 8d02 e43c f641 153d 9347 973c
00000020: e0ff 11bd 59c8 e83c cf68 953c cb7f 453d
00000030: fdb4 5c3c f5a0 74bc 981e a9bc fcbb 743b
00000040: f2bd f63b a54a 633c 6505 0f3c 8688 d83b
00000050: 91f0 113c c304 5c3c ad06 6c3b 90ee e8bb
00000060: 20cf 0e3d 8202 f73c 1f5a 9eba ca73 91bb
00000070: 78ff 87bc f039 fbbb 256e a33c 7e19 f1bb
00000080: 405b 8d3a 16f1 8ebc 3646 23bc 5b3f 2d3c
00000090: f982 1a3d aba7 28bc 892d 9ebb ccca 35bc
000000a0: 7bfd a33b 8c5e b23b 6721 93bb 8a69 a43b
000000b0: 5f20 203c 7b6b 933c 9c30 513d 9ebe df3c
000000c0: eaa7 043d 2127 5cbc 61d8 cdbc 0ef0 bf3c
000000d0: f839 5c3c e853 a9bc 1b79 a53b e999 613c
000000e0: 88d5 da3c 0aa8 bf3c 8432 07bd 41bc c53b
000000f0: 1b06 9d3c 7c81 3d3e 98aa 003e d2c3 febc
00000100: b891 833e 223f 31be d1dd 583c 2ca0 31bd
00000110: f721 3d3d 28d1 e7bd 0782 73bc b25e 79bc
00000120: 9d94 92bd b4a7 463d 9012 013e f69f b0bd
00000130: f35c ccbc bf0d b1bc 9f6c 4ebd d6d6 a1bd
00000140: b736 09bd eaf8 8a3d 1518 30bd 471e 48bd
00000150: 28c6 3e3d 8f4c f33d 149e 46bc 0fe6 3ebe
00000160: c686 55be 957e 0a3e deee 213e 1a9b 3bbe
00000170: 35b8 01bd 0b1a 61bd 3526 973e 0d10 893d
00000180: 2447 393d 3911 84be 60ce ecbd 8d74 9b3c
00000190: e61e 173c fec8 683e b970 cfbd 1aa0 b6bd
000001a0: 9933 833d 1230 313e 9c1f a83e 19d2 863e
000001b0: a8f4 8f3e c3a1 d6be 15ff acbc 3491 e23d
000001c0: 4cb1 a23e 093a 26be 60dd 8dbd 97a4 453e
000001d0: 706f 3c3e df9d 223e cf97 5f3d 33b2 c8bb
000001e0: 3d19 2bbc 9ab2 8fbc 6352 da3c 4be7 24bc
000001f0: 79c6 e2bb 78e6 143d db1e 18bd 52f4 363d
00000200: b758 31bd 3463 b23c f446 7fbd 4a81 07bc
00000210: f9f7 7dbc 4c8c f23b 073c 31bc 176b 4abc
00000220: 871e b1bc 13ba 143c 468e a0bc 56d9 fcbb
00000230: 4cb6 8f3c d070 3abd 0588 523c 7238 d5bb
00000240: 2b45 353c 33b3 04bd 217c b8bc af78 ddbb
00000250: 1382 6cbb c68d 28bc e81b 61bc 5879 f5bc
00000260: 5694 d0bc e0d9 72bb aa8d 733c 894c fabc
00000270: d6cf 33bd 7451 debc 561b fa3c 0d81 e5bc
00000280: 7a3a 69bd 5e10 09bd 772f d9bc 0fe0 e53c
00000290: df8b b13c c315 4bbd 4511 5abd 733a 83bd
000002a0: 3193 9bbc 5757 653d a711 64bd 66ed c5bc
000002b0: b532 1ebd 7a26 b03d 302c a9bd 85ae acbc
000002c0: 1d87 42bd 8207 8ebd 1e2a 833d c4cf c23c
000002d0: adce 4f3d 1bde 753d 1fe6 20be da68 bebb
000002e0: 1c98 b13d e4f6 c9bd fd12 203c aa72 7cbc
000002f0: 3790 60bd 75b3 fdbb 30bf 7ebc 8127 7abc
00000300: 6ddc ba3d 81c2 08be 83d8 8bbc 1846 9cbb
00000310: 6a84 8bbc 75ae cb3d 0e1e 0c3d 4f22 ddbc
00000320: cb8d 46bd 1819 fc3c 6740 6c3b 64f2 2eba
00000330: 60e1 d93d cfcd 1abd 3eef ddbd b0a3 37bd
00000340: 78bc 843d aaa0 043e 1d9f 4d3d 1a4e 343d
00000350: 2bb6 2fbb c6e1 733c 4d9f bcbd 6547 203d
00000360: bcc6 0abd 0f5f 86bd 84f3 90bd 3ef3 b33d
00000370: 597b 2bbd 093c 0bbc a3dc 823c 5d47 a43c
00000380: 25ed d5bc b76a a73c 41f5 b4bd 8386 5f3d
00000390: 3036 c9bd 32ee 10be a339 2f3e dfea 13bd
000003a0: acd1 f33d dcbe 803d d779 4d3e d2d9 7ebd
000003b0: 376f 1c3e e4e8 393d 56fe 353d d821 8bbd
000003c0: c444 743d eb15 ecbd 1b53 533e 3e0b 17be
000003d0: 1fc7 273d 1762 59be d449 a83d 2b5f cb3d
000003e0: 31e3 a8bd fcef 7e3e df58 d43d d75f 853e
000003f0: 8376 c5be 0ebd 9a3e 42a4 9bbe a5e6 10bd
0.049643755 0.032546055 0.016932225 0.005279735 -0.01596483 0.027833248 0.03643986 0.018466746
-0.035644412 0.028415846 0.018238453 0.048217576 0.013470885 -0.014930953 -0.020644471 0.0037343493
0.0075299675 0.013872777 0.0087293135 0.0066080717 0.008907453 0.01342887 0.0036014721 -0.007108517
0.0348655 0.030152563 -0.0012081302 -0.004438852 -0.01660131 -0.007666819 0.019949982 -0.0073577752
0.0010784641 -0.017448943 -0.00996547 0.010574187 0.03772256 -0.010293881 -0.0048272056 -0.011095714
0.0050045825 0.0054434 -0.004490066 0.005017464 0.009773343 0.017995587 0.05107175 0.027312573
0.032386698 -0.013437063 -0.025127592 0.023429897 0.013441555 -0.020669892 0.0050498373 0.013769605
0.026713148 0.023395557 -0.03300716 0.0060344045 0.01916795 0.18506426 0.12565076 -0.031099234
0.25697112 -0.1730924 0.013236479 -0.043365642 0.04617497 -0.1131919 -0.014862544 -0.015220331
-0.07157252 0.048499778 0.12604737 -0.0862426 -0.024946665 -0.021613 -0.050396558 -0.07902305
-0.033499446 0.06785758 -0.042991716 -0.048857 0.046575695 0.11879837 -0.01212265 -0.18642448
-0.20852193 0.1352485 0.15813777 -0.18320885 -0.031669814 -0.054956477 0.29521337 0.066925146
0.04523386 -0.2579439 -0.115628004 0.018976474 0.009223675 0.22732922 -0.10128922 -0.08917256
0.06406326 0.17303494 0.32836616 0.26332167 0.28116345 -0.4192029 -0.021117726 0.110628515
0.31775892 -0.16233076 -0.069269896 0.19301067 0.18401885 0.15880536 0.054588135 -0.0061247586
-0.010443029 -0.017541219 0.026650613 -0.01006491 -0.0069206324 0.036352605 -0.0371388 0.044666596
-0.043297496 0.02177582 -0.062323526 -0.008270571 -0.015501016 0.0074019786 -0.010817534 -0.012354634
-0.021621002 0.009077567 -0.019599091 -0.007716338 0.01754298 -0.045517743 0.012849812 -0.006506973
0.011063854 -0.03239746 -0.022520127 -0.0067587714 -0.0036088272 -0.010287708 -0.0137395635 -0.029965088
-0.025461357 -0.0037056133 0.014865318 -0.030554073 -0.04389938 -0.02713845 0.030530613 -0.028015638
-0.056940533 -0.033462875 -0.02651189 0.028060941 0.021673141 -0.0495813 -0.053239126 -0.06407633
-0.018991085 0.055991497 -0.055680897 -0.024161052 -0.038622577 0.08601089 -0.08260381 -0.021079311
-0.047492135 -0.06935026 0.064045176 0.023780711 0.05073421 0.06002627 -0.15712784 -0.005810839
0.08671591 -0.09861544 0.009770152 -0.015408197 -0.054825034 -0.00774234 -0.015548512 -0.0152682075
0.09124074 -0.13355447 -0.017071014 -0.004769098 -0.017030913 0.099453844 0.03420835 -0.026993899
-0.048475068 0.030773684 0.003604913 -0.0006673692 0.1063869 -0.03779393 -0.108366475 -0.04483384
0.0648126 0.12951913 0.05020057 0.044019796 -0.0026811461 0.014885372 -0.09210072 0.039130587
-0.033880934 -0.065611 -0.07077697 0.08786629 -0.04186568 -0.0084982 0.015974348 0.02005356
-0.026114056 0.020436628 -0.08835841 0.05457164 -0.098247886 -0.14153364 0.1711183 -0.036112662
0.11905226 0.062864035 0.2006601 -0.06221945 0.152768 0.045388117 0.044432007 -0.067935646
0.059635893 -0.11527618 0.20637171 -0.14750382 0.04096138 -0.21228825 0.082172066 0.09930261
-0.08246458 0.24896234 0.10368513 0.26049682 -0.3856698 0.30222362 -0.30398756 -0.03537621

32 f4 [8]
00000000: 21dc 913f b924 4abb 3ac0 b03e 71b9 d8be
00000010: c8a1 ffbd 8428 39be 68ae 18bc 5999 a53f
1.1395303 -0.0030844642 0.34521657 -0.4232898 -0.12482029 -0.18081862 -0.009318925 1.2937423

34 f4 [14, 8, 3, 1]
00000000: daaa df40 6d9f 9440 6308 2f40 1043 3dc0
00000010: 853d 96bf 7e3a 4cbf d79d 7140 ded3 413f
00000020: d8dc 9f3f 4ffa 8dc0 1a7c f7bf 4542 87c0
00000030: 034d 38c0 941b bdbf 0dfb cdbe 84ef 823f
00000040: 0805 a33e 4060 9d3f 3e9d 9a40 17a8 6640
00000050: a6f6 2240 89b3 5f40 e416 3140 1656 2740
00000060: ccf5 f340 44ee 3a40 0432 bf40 e327 12c0
00000070: bce1 dcbf fc0f a9bf f750 9540 c8c4 e43f
00000080: 2407 3940 1f19 99c0 0548 efbf a921 6dc0
00000090: a366 d2bf 818d 1ac0 80b9 3cc0 1b39 f13f
000000a0: a0d0 ae3f 01df e73f 1430 6040 a75b 8a40
000000b0: 04df 1640 dbea 803f 14e6 a83f 0c27 8940
000000c0: 0264 953d 4385 5fbe 6497 ccbd b9d7 b4be
000000d0: 7554 cebe 59bb b7be 0cbd 8c3e 7b79 e13e
000000e0: 1162 9b3e d27a 80be ebec d1be ef26 5bbd
000000f0: 0899 c9be fc32 3cbe fafb 6bbe 29c3 83be
00000100: 96e5 f7be 08f4 8ebe da5e 4a3e 1c1a 16be
00000110: 806e c13c 76c8 743d 087e 083e 946d 9e3e
00000120: bf1d 4a3d 9bbb 42bd 3d57 9dbd 0ca9 23bd
00000130: ce75 8abe 53ce 7cbe e69b 8d3e a35e 343d
00000140: 3714 6a3e 574f 1cbe 9a09 0cbe b0bc c3be
00000150: 5037 debe 7e3f 9fbe 575f b7be 7494 51be
00000160: b586 b5be 83db 15bf 4b17 d8bd ea82 e4bd
00000170: e51b 9ebe f457 73bd f18d 59bc c903 bc3e
00000180: 8acc 0541 7949 a440 3095 693f 1140 63c0
00000190: f91e 1bbf 885e 0ebe 6e24 8dbe adda 91bf
000001a0: 1af3 3e3f c196 7fc0 403f 7ac0 1407 b3c0
000001b0: 12bb f7bf c438 05c0 1ac2 95bd d9ea 683f
000001c0: 3665 3d40 d45e 833f cbcb 6040 deac 4540
000001d0: ffce 2e40 6f29 a540 0422 4d40 525e 2040
000001e0: 0d4d 8b40 7ae1 4240 777d 4a40 3bdb f2bf
000001f0: 2804 87bf 9f9f 16c0 b332 8a3f ead1 d4be
00000200: 05e6 3040 c444 f4bf de71 e6bf 66b4 3ec0
00000210: 149e d4bf 251f 9abe 6bff 98bf 30cb 0140
00000220: c1ca 183f f2f1 07bd d64e 8140 b236 f63f
00000230: 7b99 e53f 16b4 ac3f daa0 1a40 df96 2f40
00000240: 2feb 0c3f 8fa5 c43e 0ba0 be3d b637 aebe
00000250: 4742 05be 2216 81bf 6f2d 19bd 7749 1d3f
00000260: 0018 2e3f e827 5abe 43d5 70be 34e7 a1be
00000270: e060 3fbe 1668 b3bd cc12 91bf 4282 3a3e
00000280: 4179 10be 886d debe 38e1 d83e 36b0 8e3d
00000290: ec28 843e e1f3 133f 70f5 a53e 405f 183f
000002a0: 9f22 3d3e c93a 83bc c7b6 a93d d515 edbd
000002b0: bab7 41be 5746 cfbd 2a9c b63d f74d 333e
000002c0: 5742 823e 9d55 96bd 0ebc afbd ab71 c0be
000002d0: 8148 e8be b227 05bf cd66 eabe 6aa0 babd
000002e0: 815e bbbe b2fc b9be 4d9c 7cbe 56bc 7ebd
000002f0: c715 96be f541 833e 876a 1f3e 761d 9a3e
00000300: 5299 d940 68ae ae40 50d7 a140 ea8a 23c0
00000310: 8eab 07c0 2661 d9bf 8bbb 2f40 c912 8940
00000320: b945 7540 0372 9abf 0e8f 74c0 986e 0fc0
00000330: 1399 44c0 d83e 18c0 a943 2ac0 01a6 1a40
00000340: 4617 c63f 1617 b63f 79e0 5340 dcfa 5f40
00000350: 9c54 0e40 4d22 8e3f 7764 51bd 5934 3e40
00000360: 0758 703e c873 913d 3b7d 1fbe f495 c7bd
00000370: 8162 66bd d073 acbd a808 b43c 0d45 903b
00000380: 4ca6 ca3d 0c4f 27be 25ca 11bd e078 d3be
00000390: 6121 c2be a29d 14bf 8a86 45bf bfa0 e7be
000003a0: cc91 bebd 961a bfbe 3583 0a3e dc61 5ebe
000003b0: 21e1 38bb fbe0 603e a2ff 0e3e 9bac d63e
000003c0: 02ad 9440 6c93 9640 400a 3c40 3c06 02c0
000003d0: c708 aebf a54c ddbf 8f71 bc3f e8c6 6a3f
000003e0: 2423 5440 a826 f93e 3c25 95c0 9cef 96c0
000003f0: c206 6bbf e5be a4bf 3ac9 ddbf 9faa d03f
6.989606 4.644461 2.734887 -2.9572182 -1.1737524 -0.7977675 3.7752588 0.7571391
1.2489271 -4.4368052 -1.9334748 -4.2268395 -2.8797004 -1.4774041 -0.402306 1.0229344
0.31839776 1.2294998 4.8316946 3.6040094 2.5463042 3.495333 2.7670221 2.6146293
7.6237545 2.9207926 5.9748554 -2.2836845 -1.7256389 -1.3208003 4.6661334 1.7872553
2.8910608 -4.7843165 -1.8693854 -3.7051795 -1.6437572 -2.4148867 -2.948822 1.8845552
1.3657417 1.811493 3.5029345 4.323688 2.3573618 1.0071672 1.3195214 4.2860165
0.072944656 -0.21828179 -0.09989813 -0.35320833 -0.4029881 -0.35885122 0.2748798 0.44037995
0.30348256 -0.25093704 -0.41001067 -0.053503927 -0.39374566 -0.18378824 -0.2304534 -0.25734833
-0.48417348 -0.27920556 0.19762745 -0.14658397 0.02361226 0.059761487 0.13329327 0.30942976
0.049344774 -0.047542196 -0.07682655 -0.039956138 -0.27043003 -0.24688081 0.27658004 0.044035565
0.22859274 -0.15264641 -0.13675538 -0.38229895 -0.43401575 -0.31103128 -0.35814926 -0.20466787
-0.35454336 -0.58538073 -0.10551318 -0.111577824 -0.30880657 -0.05941005 -0.01327847 0.36721638
8.362436 5.133969 0.9124327 -3.5507853 -0.60594136 -0.13903248 -0.27566856 -1.139486
0.74589694 -3.9935763 -3.9101105 -5.594614 -1.9353964 -2.0815897 -0.073124126 0.9098335
2.9593024 1.0263314 3.5124385 3.088676 2.731384 5.161308 3.2052011 2.5057569
4.3531556 3.045012 3.1639078 -1.8973154 -1.0548143 -2.3534925 1.0796722 -0.41566402
2.7640393 -1.9083486 -1.80035 -2.9797606 -1.6610742 -0.30101886 -1.1952947 2.0280266
0.5968438 -0.03318972 4.0408735 1.9235442 1.7937464 1.3492458 2.4160676 2.7435834
0.5504636 0.3840756 0.093078695 -0.3402688 -0.13013564 -1.0084879 -0.037396844 0.61440223
0.6800537 -0.21304286 -0.23518853 -0.31621706 -0.18689299 -0.08760087 -1.1333861 0.18213752
-0.14108755 -0.4344294 0.42359328 0.06967203 0.2581247 0.57794005 0.32413816 0.5952034
0.18470238 -0.016019242 0.08286815 -0.1157643 -0.18917742 -0.10120838 0.08916505 0.1751021
0.25441238 -0.07340548 -0.085807905 -0.37586722 -0.45367816 -0.52013695 -0.45781556 -0.09112628
-0.36595538 -0.36325604 -0.24668999 -0.06219133 -0.2931349 0.2563626 0.1556798 0.30100602
6.799966 5.45879 5.0575333 -2.5553536 -2.1198459 -1.6982772 2.7458217 4.283543
3.8323805 -1.2066044 -3.8212314 -2.241125 -3.071843 -2.3788357 -2.6603796 2.416382
1.5475852 1.4225795 3.3105757 3.4996862 2.2239141 1.1104218 -0.0511212 2.971945
0.2347108 0.07102162 -0.15575115 -0.09745398 -0.056246284 -0.08420527 0.021976784 0.0044027627
0.09895 -0.16338748 -0.03559317 -0.41303158 -0.3791609 -0.5805303 -0.77158415 -0.45239827
-0.09305152 -0.3732497 0.13526614 -0.21717018 -0.002821036 0.21960823 0.13964704 0.41928563
4.646119 4.705496 2.9381256 -2.0316305 -1.3596429 -1.7289015 1.4722155 0.91709757
3.3146448 0.48662305 -4.660795 -4.716749 -0.91807187 -1.2870756 -1.7327034 1.630207

35 f4 [14]
00000000: 2e38 dcc1 534f e1c1 615f 0740 7eed 2940
00000010: a155 dbc1 a111 98c1 1a8a 2cbf aa39 d83f
00000020: e304 cec1 1860 f03f 34e1 a6c1 4cbf 7840
00000030: 0605 46c1 c03e fe3c
-27.527431 -28.163733 2.1151965 2.6551204 -27.416811 -19.008608 -0.67398226 1.6892598
-25.752386 1.8779325 -20.859962 3.8866758 -12.376226 0.03103578
