model/model_FD002.pth (torch, 9983 bytes, 13 tensors)

cnn_layers.0.weight f4 [8, 1, 4, 21]
0	0xbd45d19e	-0.04829561
1	0xbc1dd09f	-0.009632259
2	0x3cae182c	0.02125176
3	0x3c9872a1	0.018609347
4	0x3ca10a34	0.019658186
5	0xbcded582	-0.027201418
6	0xbd55b348	-0.05217293
7	0x3e03658c	0.12831706
8	0xbc087313	-0.008328217
9	0x3ddc7493	0.10764422
10	0x3d7b3b43	0.061335813
11	0xbda3ac24	-0.079918176
12	0x3cc0df4c	0.023543976
13	0xbef45078	-0.47717643
14	0x3bc0eb79	0.0058874455
15	0x3f11fb5a	0.5702416
16	0x3e0a344e	0.13496515
17	0x3db656a5	0.08903245
18	0x3d776093	0.060394835
19	0xbd001f83	-0.031280052
20	0x3ca8fd5d	0.020628626
21	0xbe507445	-0.20356853
22	0xbdd1577a	-0.10221763
23	0x3ce5fbb6	0.028074127
24	0x3d8f4911	0.06996358
25	0xbd517786	-0.051139377
26	0xbdc532ba	-0.09628816
27	0xbd6ce92c	-0.057839558
28	0x3cf31944	0.029675134
29	0xbe36ac0b	-0.17839067
30	0x3d5c677e	0.053809635
31	0x3e443141	0.19159414
32	0xbdc110e0	-0.09427047
33	0xbde9b5ef	-0.11411654
34	0xbe4fd2ca	-0.20295253
35	0x3e0eb07d	0.13934512
36	0xbd3a2c70	-0.045452535
37	0x3da7b84b	0.08189448
38	0xbdb68e55	-0.089138664
39	0xbdeb1148	-0.114779055
40	0xbe0e9c77	-0.13926874
41	0xbe93b4ec	-0.2884897
42	0xbd4c657f	-0.04990148
43	0xbd62e8ea	-0.055397905
44	0xbd874a16	-0.06605928
45	0x3de71bf9	0.11284632
46	0x3db7740b	0.0895768
47	0x3da1eac6	0.079061076
48	0x3dc30b66	0.095236585
49	0xbd881b3f	-0.06645822
50	0xbd724a7e	-0.059153073
51	0xbd8fc69e	-0.07020305
52	0x3df156a6	0.11784105
53	0x3e3c4c67	0.1838852
54	0xba5e5049	-0.00084805914
55	0xbe656df1	-0.2240522
56	0x3e06e36d	0.13172694
57	0x3e6cb80d	0.23117085
58	0xbc29942b	-0.010350267
59	0xbdec847b	-0.11548706
60	0xbc7aabe8	-0.015299775
61	0x3d694123	0.056946885
62	0x3e4ceeec	0.20013016
63	0x3ce77835	0.028255561
64	0xbd5214a7	-0.051289227
65	0x3d5a1b35	0.053248603
66	0x3e309f57	0.17248283
67	0x3da33058	0.07968205
68	0x3cc9845c	0.024599247
69	0x3dee75df	0.11643576
70	0x3e3cc428	0.18434203
71	0xbd8f01bb	-0.06982752
72	0xbe890bd5	-0.2676684
73	0xbd666b38	-0.056254596
74	0x3d3b4987	0.045724418
75	0x3da6f87e	0.08152865
76	0xbeaf5b07	-0.34249136
77	0x3e1c4c99	0.15263595
78	0xbb50e11b	-0.0031872455
79	0xbe2764c1	-0.16347028
80	0x3e2cc7ef	0.16873144
81	0x3e8c1bbd	0.27364913
82	0x3df4c9ae	0.1195253
83	0x3d03b869	0.03215829
84	0x3ddf4189	0.10901172
85	0xbc232f6c	-0.009960037
86	0x3bdef240	0.006803781
87	0x3d9cb3c6	0.076514766
88	0xbcd6674c	-0.026172303
89	0xbdcf95ad	-0.1013597
90	0x3d4c1883	0.049828064
91	0x3d20b53f	0.03923535
92	0xbdfda7a8	-0.123854935
93	0x3e359596	0.17732844
94	0xbd111c99	-0.035427663
95	0xbdba3e85	-0.09093956
96	0x3e08d44e	0.13362238
97	0xbe73ecf5	-0.2382086
98	0xbd852e77	-0.06503003
99	0x3cd608bb	0.02612721
100	0xbd9cdd5e	-0.0765941
101	0x3d10f197	0.035386648
102	0xbc46a41d	-0.012124089
103	0xbdb245f1	-0.087047465
104	0xbb151657	-0.0022748911
105	0xbcb641fa	-0.022248257
106	0x3d98a59d	0.07453463
107	0xbde466aa	-0.11152394
108	0xbdf9fb37	-0.122061186
109	0x3d92ef5d	0.07174561
110	0xbdb12820	-0.08650231
111	0x3da3a57c	0.07990548
112	0xbda8f14f	-0.08249151
113	0xbd40e768	-0.047095686
114	0x3da90b7b	0.08254143
115	0xbe0cdff1	-0.13757302
116	0x3cef27ac	0.029193722
117	0x3daf44a3	0.08558013
118	0x3d5b9561	0.053609256
119	0xbe0a15d3	-0.13484888
120	0x3b9fd123	0.004877226
121	0xbd8db6f6	-0.06919663
122	0x3d884659	0.06654043
123	0xbcf8fdb4	-0.030394413
124	0x3db0f96e	0.08641325
125	0x3be695b0	0.007036887
126	0x3e98f789	0.29876354
127	0x3e8cafc8	0.2747786
128	0xbdac5178	-0.084139764
129	0xbde5d30e	-0.11221896
130	0x3e3e3985	0.1857663
131	0x3e066cbf	0.13127421
132	0x3dc371b8	0.095431745
133	0x3f0b536a	0.54424155
134	0xbd22e671	-0.039770547
135	0xbe8c4de6	-0.27403182
136	0xbeb235c9	-0.3480666
137	0x3e116c5c	0.14201492
138	0x3e002b69	0.1251656
139	0xbf77da61	-0.96817595
140	0x3e0621ce	0.13098833
141	0xbe30f31b	-0.17280237
142	0x3d6d28a6	0.057900093
143	0x3efe201f	0.4963388
144	0x3e8e193d	0.2775363
145	0x3e82cd86	0.25547427
146	0x3e0ef51b	0.13960688
147	0x3e7419a7	0.2383791
148	0x3bf766bd	0.007550089
149	0xbd59c968	-0.05317059
150	0xbd80ae87	-0.062832884
151	0xbd9e022d	-0.07715259
152	0xbd391be8	-0.04519263
153	0xbc8ebbf1	-0.017423602
154	0x3d9f20b5	0.0776991
155	0xbd51f5e4	-0.05125989
156	0x3e0f99ae	0.14023468
157	0xbd973426	-0.073829934
158	0x3d2536bd	0.040335406
159	0xbe124e17	-0.14287601
160	0xbe0da89e	-0.13833854
161	0xbe937d08	-0.2880633
162	0xbd460ec9	-0.048353944
163	0xbd91bdc3	-0.07116272
164	0x3dcbf066	0.09957962
165	0xbc420a77	-0.011843315
166	0xbdb1439c	-0.086554736
167	0xbd4c4bb0	-0.04987687
168	0x3dbef101	0.093233116
169	0x3daf5d2f	0.08562695
170	0xbe0e4a36	-0.13895497
171	0xbd76efa4	-0.060287133
172	0xbd6d795a	-0.057977058
173	0xbd72f473	-0.059315156
174	0xbd864a7e	-0.06557177
175	0xbacc2631	-0.0015575347
176	0xbcdf297c	-0.027241461
177	0x3e1c848a	0.15284935
178	0xbd2f593d	-0.042809714
179	0x3dc41b70	0.09575546
180	0x3d88ba17	0.06676119
181	0xbe31bd30	-0.17357326
182	0xbe1b0e29	-0.1514212
183	0xbd2b00f3	-0.041748952
184	0x3c7196b5	0.014745404
185	0xbb9580d0	-0.004562475
186	0x3c7fd0be	0.015613733
187	0xbadc9e11	-0.0016831775
188	0xbb6445ad	-0.003483157
189	0x3e310a95	0.17289193
190	0xbd88c4f5	-0.066781916
191	0x3ce4ac36	0.027914148
192	0xbd574afa	-0.052561738
193	0xbc02cc87	-0.007983333
194	0xbdf86515	-0.12128655
195	0xbb81d997	-0.0039627063
196	0x3ced72a1	0.028985323
197	0xbdbfacc7	-0.093591265
198	0x3e337776	0.1752604
199	0xbe3cf247	-0.18451796
200	0x3de339cf	0.110950105
201	0x3baa484d	0.005196607
202	0xbdc4eb6c	-0.09615216
203	0xbe587e2c	-0.21141881
204	0xbdc0d653	-0.09415879
205	0xbca605e3	-0.020266479
206	0x3daadede	0.0834329
207	0xbcf23dc2	-0.029570464
208	0x3cde26c2	0.02711809
209	0xbd9c99d0	-0.07646525
210	0xbdca0576	-0.09864323
211	0x3b36d1bd	0.002789601
212	0xbe1cbcf9	-0.15306462
213	0xbd40a8f9	-0.047036145
214	0xbd9af07c	-0.075654
215	0xbcd035b8	-0.02541624
216	0xbc8256d2	-0.01591054
217	0xbdbbb732	-0.09165801
218	0xbd3a5192	-0.045487948
219	0x3e1ee10f	0.1551554
220	0xbdae9dd0	-0.08526194
221	0x3e121a28	0.1426779
222	0xbd75be6e	-0.05999606
223	0x3dbefd7c	0.09325692
224	0xbea479c1	-0.3212414
225	0x3dd2d94e	0.10295354
226	0xbd4283a4	-0.047488824
227	0xbdc67e42	-0.096920505
228	0xbd8fd94b	-0.07023867
229	0xbcef94b0	-0.029245704
230	0xbd200612	-0.03906829
231	0x3e04bbd7	0.1296228
232	0x3db9d0f6	0.09073059
233	0xbd84817b	-0.06470009
234	0xbe31ab87	-0.17350589
235	0xbd9604b8	-0.07325119
236	0x3c1fb0c5	0.009746735
237	0x3d463e2f	0.048399147
238	0x3de20f52	0.11038078
239	0x3cd81651	0.026377829
240	0x3e357f60	0.17724371
241	0xbd7cadf2	-0.061689325
242	0xbd71cf0c	-0.059035346
243	0x3d27f3ec	0.041004106
244	0xbd217759	-0.03942046
245	0xbdfb96e8	-0.122846425
246	0xbd911459	-0.07083959
247	0xbe4c78b9	-0.19967927
248	0xbc08c011	-0.008346573
249	0xbd669eac	-0.056303665
250	0x3dda7de8	0.10668546
251	0xbd246731	-0.040137473
252	0x3cefa263	0.029252237
253	0xbdf401cb	-0.119144045
254	0x3c64c324	0.013962541
255	0xbdd03b8b	-0.10167607

cnn_layers.0.bias f4 [8]
0	0x3c9b747e	0.018976446
1	0x3ef9c45d	0.48782626
2	0x3e8b7dd6	0.27244443
3	0x3d84507a	0.06460662
4	0xbe42873a	-0.18996897
5	0xbe59943d	-0.21247955
6	0x3dc92ebd	0.09823368
7	0xbd905670	-0.07047737

cnn_layers.1.weight f4 [8]
0	0x3ef2fb73	0.47457466
1	0x3f483800	0.7821045
2	0x3f7a15fd	0.976898
3	0x3f416032	0.7553741
4	0x3f2407b6	0.64074266
5	0x3f5a34c0	0.8523674
6	0x3f4c65cc	0.7984283
7	0x3f1b0078	0.6054759

cnn_layers.1.bias f4 [8]
0	0xbf08a070	-0.5336981
1	0xbe900393	-0.28127727
2	0x3f7ec30b	0.9951636
3	0xbf0273fd	-0.50958234
4	0xbe8e87ec	-0.27838075
5	0xbf1df71c	-0.61705184
6	0x3f3d3691	0.73911387
7	0xbea41109	-0.32044247

cnn_layers.1.running_mean f4 [8]
0	0x3c10b986	0.008833295
1	0x3ef91b08	0.48653436
2	0x3e90481b	0.28180012
3	0x3dd29183	0.102816604
4	0xbe369dd3	-0.17833643
5	0xbe5a48be	-0.21316811
6	0x3dd99a05	0.1062508
7	0xbc9dc31a	-0.01925807

cnn_layers.1.running_var f4 [8]
0	0x40193207	2.3936784
1	0x3f9a0218	1.2031889
2	0x3d9759e4	0.07390192
3	0x4145386a	12.326273
4	0x412a8acb	10.658885
5	0x3d6f0b25	0.058360238
6	0x3e08b58a	0.13350502
7	0x411bc093	9.734515

cnn_layers.4.weight f4 [14, 8, 3, 1]
0	0xbdecc062	-0.115601316
1	0x3e07e948	0.13272583
2	0x3e3c408b	0.18383996
3	0xbdea830d	-0.11450777
4	0xbc4c42db	-0.012467111
5	0x3f06b341	0.5261727
6	0x3ba3f42e	0.0050034737
7	0xbecebd7c	-0.4037894
8	0x3ee1c9c2	0.44099241
9	0x3d5e2dbd	0.05424284
10	0x3d0a41b1	0.033754054
11	0x3ea7f43d	0.32803527
12	0xbe60df55	-0.21960194
13	0xbe69e8aa	-0.2284266
14	0xbe4981c7	-0.19678412
15	0x3e6a57c7	0.22885047
16	0x3e89c117	0.26905128
17	0xbf257b64	-0.64641404
18	0x3d7b1110	0.06129557
19	0xbe95d7ae	-0.29266113
20	0x3e81ad15	0.25327364
21	0x3db3bdb7	0.087764196
22	0x3c30f06f	0.010799511
23	0x3e1be9a6	0.15225849
24	0x3ed6b30a	0.4193347
25	0x3e2b079f	0.16702126
26	0x3e8b8ec9	0.27257374
27	0x3e08392c	0.1330306
28	0x3e6c2fd8	0.23065126
29	0x3f14fa5a	0.58194506
30	0x3e977011	0.29577687
31	0x3f01bdd1	0.5068026
32	0x3ea8c8e0	0.32965755
33	0x3e68d6cc	0.22738189
34	0x3e8a863d	0.2705554
35	0x3e8d8293	0.27638683
36	0x3e121d6a	0.14269033
37	0xbd4f5735	-0.050620276
38	0xbd1f05e5	-0.03882398
39	0x3e0d5e64	0.13805538
40	0xbf662270	-0.898963
41	0xbfd19fe3	-1.6376919
42	0x3e0b1b86	0.13584718
43	0x3e406d72	0.1879175
44	0x3e80e936	0.25177926
45	0x3e2a688d	0.16641445
46	0x3d83215f	0.064028494
47	0x3d4a074d	0.04932337
48	0x3ea8b6cc	0.32951963
49	0x3e4f2fba	0.2023305
50	0x3d281cf6	0.041043244
51	0x3e975c6f	0.2956271
52	0x3e8d3b7f	0.27584454
53	0x3e43d536	0.19124302
54	0x3ef1b3bc	0.4720744
55	0x3ebdf408	0.37100244
56	0x3d5ce512	0.053929396
57	0x3e947bbd	0.29000655
58	0x3eba5a5d	0.36397067
59	0x3e91508f	0.28381774
60	0x3e7c0ec4	0.24615008
61	0x3e111742	0.14169028
62	0x3dc12de1	0.09432579
63	0xbf165758	-0.58727026
64	0xbf77f06b	-0.96851224
65	0xbfd2f0a4	-1.6479688
66	0x3ed2cfaa	0.4117406
67	0x3e5d1c8c	0.21592921
68	0x3da8ce99	0.082425304
69	0x3dff386c	0.124619335
70	0xbd24656f	-0.040135797
71	0x3b5a91db	0.0033351097
72	0x3e762a56	0.24039587
73	0x3e011245	0.12604626
74	0x3de8acb4	0.113610655
75	0x3d12d150	0.035844147
76	0x3e724ff2	0.23663309
77	0x3efd2e75	0.49449506
78	0x3ebf5c8c	0.37375295
79	0x3f0d03bd	0.5508383
80	0x3dd8c2da	0.1058404
81	0x3e7be929	0.24600662
82	0x3ec1d912	0.37860924
83	0x3eaf8713	0.3428274
84	0x3e6d142d	0.23152228
85	0x3e405fc6	0.18786535
86	0x3d4e1d59	0.050320957
87	0xbe971800	-0.29510498
88	0xbf264d98	-0.6496215
89	0xbf9f9733	-1.2468017
90	0x3e83567d	0.25651923
91	0x3ead270d	0.33818856
92	0x3e6b9c8d	0.23008938
93	0x3d2f6984	0.042825237
94	0x3d06c0db	0.032898765
95	0x3cfa7568	0.030573562
96	0x3e47de4a	0.1951839
97	0xbd556f16	-0.052107893
98	0x3e49f3ca	0.19721904
99	0x3d039837	0.032127585
100	0x3f21f8a6	0.6327003
101	0x3edb3ae5	0.4281837
102	0x3f0a4ebf	0.54026407
103	0x3edd334a	0.43203193
104	0xbe4e5f01	-0.20153429
105	0x3e579ef2	0.21056727
106	0x3e58bff4	0.21166974
107	0x3e43a507	0.19105922
108	0x3dc6381e	0.09678672
109	0x3ea3b335	0.31972662
110	0xbe0f84a1	-0.14015438
111	0xbddf29a4	-0.10896614
112	0xbeab9807	-0.33514425
113	0xbf5529fd	-0.83267194
114	0x3e03e88f	0.12881683
115	0x3f031e29	0.51217896
116	0xbe319c21	-0.17344715
117	0xbd79d3f9	-0.06099317
118	0x3ca91a87	0.020642532
119	0xbc1aa13b	-0.009437854
120	0x3eb43ee7	0.3520424
121	0x3cf99288	0.03046538
122	0x3e10b0f8	0.14130008
123	0x3e971972	0.295116
124	0x3ed6b280	0.4193306
125	0x3ec5eb8a	0.38656265
126	0x3eabae4e	0.3353142
127	0x3efe6978	0.4968984
128	0xbce91c06	-0.028455745
129	0x3e9d6034	0.3073746
130	0x3e746621	0.23867084
131	0x3df76c0a	0.12081154
132	0x3e033fc1	0.12817289
133	0xbd9ade25	-0.07561902
134	0xbcecda4f	-0.028912691
135	0xbed708e4	-0.4199897
136	0xbf5c32bf	-0.8601493
137	0xbfacc321	-1.3497049
138	0x3e927131	0.28601983
139	0x3e750b78	0.23930156
140	0x3dc93e5e	0.09826349
141	0x3c1f9df8	0.0097422525
142	0x3d1cb79b	0.038261037
143	0x3ba0b5d8	0.00490449
144	0x3eb8e2b7	0.3611047
145	0x3e52889c	0.20559925
146	0x3e78fac9	0.24314417
147	0x3f0a443b	0.5401036
148	0x3e19002d	0.14941473
149	0x3f01d75f	0.50719255
150	0xbe8f3dd5	-0.27976862
151	0x3ecb7a39	0.39741686
152	0x3e8201c9	0.25391987
153	0x3e43b971	0.19113709
154	0x3e2ede77	0.17077051
155	0x3e173479	0.1476611
156	0xbdf09eb3	-0.117490195
157	0xbc895c8c	-0.016767763
158	0xbd155863	-0.036461245
159	0x3f0db964	0.5536101
160	0xbeb5ebb5	-0.35531393
161	0xbee697c3	-0.4503766
162	0x3e292c1c	0.16520733
163	0x3dfac16e	0.12243925
164	0x3e8683eb	0.2627252
165	0x3e9028d7	0.28156158
166	0xbd41a234	-0.04727383
167	0x3d94f218	0.07272738
168	0x3d1dcc1f	0.038524743
169	0x3dc107dd	0.09425328
170	0x3e3bd1b7	0.18341719
171	0xbe258d05	-0.16167076
172	0xbd61517d	-0.055009354
173	0x3ed38dd3	0.4131914
174	0xbd433583	-0.047658455
175	0xbe9fda92	-0.31221443
176	0x3f0ca6c9	0.54941994
177	0x3d06d0f1	0.032914106
178	0x3c0ca07f	0.008583187
179	0x3ea24f28	0.31701016
180	0xbe65e1f3	-0.22449474
181	0xbe0f7eb1	-0.14013173
182	0xbe326fe5	-0.17425497
183	0x3e9e865a	0.30961877
184	0x3ed0ca37	0.40779278
185	0xbf47a4d8	-0.77985907
186	0x3d305f51	0.04305965
187	0xbe60afa6	-0.21942005
188	0x3e958713	0.29204616
189	0x3dac90ab	0.08426031
190	0x3dd35625	0.10319165
191	0x3e0302db	0.12794058
192	0x3e8250ac	0.25452173
193	0x3e3d52a4	0.18488556
194	0x3dce9bba	0.10088296
195	0xbe611834	-0.21981889
196	0xbe0faaf8	-0.14030063
197	0x3e8ec480	0.27884293
198	0xbeb125ad	-0.34599057
199	0x3dd2ed35	0.1029915
200	0x3f23f42b	0.64044446
201	0x3e040249	0.12891497
202	0x3e0baa0d	0.13639088
203	0x3e601bb0	0.21885562
204	0xbe22ddb8	-0.15904891
205	0x3cbfab67	0.02339716
206	0xbdec9508	-0.11551863
207	0x3cf1725c	0.029473476
208	0x3ee5c948	0.44880128
209	0xbf034feb	-0.5129382
210	0xbe8bfc31	-0.27340844
211	0xbe0a52a8	-0.13508093
212	0x3e859754	0.26092017
213	0x3db2ac18	0.087242305
214	0x3e3a9d00	0.18223953
215	0x3dd796df	0.10526823
216	0x3e9f902c	0.31164682
217	0x3e3a49c3	0.181922
218	0x3e553e8f	0.20824645
219	0x3ed1cbd0	0.4097581
220	0x3da5493c	0.08070609
221	0x3f007e47	0.50192684
222	0xbe4bef20	-0.19915438
223	0x3eacd534	0.3375641
224	0x3e8f231a	0.27956468
225	0x3de59a95	0.11211125
226	0x3e0d691f	0.13809632
227	0x3e09547d	0.13411136
228	0xbe26fc2b	-0.16307132
229	0xbd88d021	-0.066803224
230	0xbdaa8c5b	-0.08327552
231	0x3f8b7adc	1.0896869
232	0xbe8c231f	-0.27370545
233	0xbf7cec00	-0.9879761
234	0x3bf0ad3d	0.0073448704
235	0x3e133b1f	0.14378022
236	0x3ea6fc9c	0.326146
237	0x3ebe96a2	0.372243
238	0xbdaaf9ef	-0.08348452
239	0x3c4c9b94	0.012488265
240	0x3e96897a	0.2940176
241	0x3e2f6af4	0.17130643
242	0x3e5dfd48	0.2167865
243	0x3e22f0cf	0.15912174
244	0x3e93b513	0.28849086
245	0x3ed52800	0.4163208
246	0x3df0a6ac	0.1175054
247	0x3ed7b4fd	0.4213027
248	0x3e28df3e	0.1649141
249	0x3e43aa32	0.19107893
250	0x3e3875af	0.18013643
251	0x3e36d6c0	0.17855358
252	0xbcff86a0	-0.031192124
253	0xbc02a373	-0.00797354
254	0xbe35c300	-0.17750168
255	0xbe2aab90	-0.16667008

cnn_layers.4.bias f4 [14]
0	0xbd0e9845	-0.034813184
1	0xbe7a262a	-0.24428621
2	0xbd8816c4	-0.06644967
3	0x3d0c53ec	0.03425972
4	0x3d985a1e	0.074390635
5	0x3f53935e	0.8264674
6	0x3e963e3b	0.29344353
7	0x3ea7998b	0.3273433
8	0xbeb72c42	-0.35775954
9	0xbd87759f	-0.06614231
10	0xbea2c13b	-0.31788048
11	0x3c9130d6	0.017723482
12	0x3f5cb34e	0.862111
13	0xbcc20034	-0.023681737

cnn_layers.5.weight f4 [14]
0	0x4020a279	2.5099165
1	0x4015cce6	2.340631
2	0x4012b136	2.292066
3	0x4012412c	2.2852278
4	0x4013d20b	2.309695
5	0x40139f13	2.3065841
6	0x401ea6b5	2.478925
7	0x4023bb8a	2.5583215
8	0x40206dba	2.5066972
9	0x401602ad	2.3439133
10	0x401777b4	2.366681
11	0x40236b64	2.5534296
12	0x401da4df	2.463188
13	0x40234d9f	2.5516126

cnn_layers.5.bias f4 [14]
0	0x3fde1497	1.7350034
1	0x3fcc91d5	1.5982004
2	0x3fc525f4	1.5402207
3	0x3fc16013	1.5107445
4	0x3fc75dc9	1.5575496
5	0x3fc84cf3	1.5648483
6	0x3fded188	1.7407694
7	0x3fe30448	1.7735682
8	0x3fdf456f	1.7443064
9	0x3fcd02ad	1.6016442
10	0x3fd0316c	1.6265082
11	0x3fe455c0	1.7838669
12	0x3fdb8234	1.714911
13	0x3fe37068	1.7768679

cnn_layers.5.running_mean f4 [14]
0	0x3d81b635	0.06333581
1	0x3fc0a69c	1.5050845
2	0x3fb64973	1.4241165
3	0x3ff2dc7a	1.8973534
4	0x3fc214b7	1.5162572
5	0x400d4eae	2.2079272
6	0x3fbb1b3c	1.4617686
7	0x3f26a50f	0.6509561
8	0x3bea3f6d	0.007148674
9	0x3f8137d3	1.0095161
10	0x3f31c854	0.694463
11	0x3c3511a5	0.01105157
12	0x3f84f88d	1.0388352
13	0x3eecd796	0.4625823

cnn_layers.5.running_var f4 [14]
0	0x3cb14675	0.021640042
1	0x3faca751	1.3488561
2	0x3fe312c6	1.7740104
3	0x3f9e9418	1.2388945
4	0x3f173689	0.5906759
5	0x3fa519fb	1.2898554
6	0x3e95ea0d	0.2928013
7	0x3cfbd7ba	0.030742515
8	0x3d8d925a	0.0691268
9	0x3e5ea290	0.217417
10	0x3f3c77a0	0.73620033
11	0x3d1638fe	0.036675446
12	0x3d27ed02	0.040997513
13	0x3d1f88c2	0.03894878

linear_layers.0.weight f4 [1, 28]
0	0x3fb74570	1.4318066
1	0x3fd6e167	1.6787537
2	0x3fc0bda0	1.5057869
3	0x3fc98758	1.5744429
4	0x3fc23c7c	1.5174708
5	0x3fc61bd9	1.5477248
6	0x3fc21008	1.5161142
7	0x3fc4c42a	1.5372365
8	0x3fce8570	1.6134472
9	0x3fc0955f	1.5045584
10	0x3fc95acc	1.5730834
11	0x3fbd79dd	1.4802815
12	0x3fd7b0e2	1.6850855
13	0x3faf2800	1.3684082
14	0x3fb6b0ac	1.4272666
15	0x3fc8850a	1.56656
16	0x3fcfbd0c	1.6229568
17	0x3fb91bb7	1.4461583
18	0x3fcb6cbb	1.5892557
19	0x3fbe6063	1.4873165
20	0x3fbfbcfb	1.4979547
21	0x3fc4f9a4	1.5388684
22	0x3fac87b2	1.3478911
23	0x3fd76ee8	1.6830721
24	0x3fcd803d	1.605476
25	0x3fc8bef2	1.5683272
26	0x3fbe7c08	1.4881601
27	0x3fbfd8d2	1.4988043
