model/model_FD002.pth (torch, 9983 bytes, 13 tensors)

cnn_layers.0.weight f4 [8, 1, 4, 21]
0.06400124 0.091805436 -0.19745421 -0.041086994 -0.007736965 -0.031413477 -0.059478138 0.16262399
0.070905685 0.10102721 -0.08727614 0.0006639067 0.3245533 -0.17547137 -0.2537123 -0.05426357
-0.16667396 0.20141864 0.29401076 -0.04633548 0.100471124 0.20839745 0.0802365 -0.012031818
-0.14435545 -0.02979865 -0.074023135 -0.031638037 0.020189837 0.021563284 0.1459686 -0.31561515
0.06352621 0.022963535 -0.08059609 -0.32843763 -0.045146346 -0.0023897707 -0.00588478 -0.08354547
-0.029780515 -0.08575868 0.10357496 0.17417365 -0.027622333 -0.11749316 0.039975613 -0.086831205
0.008757954 -0.052085783 -0.012696592 0.09486237 -0.17478043 -0.019613037 0.0460844 -0.061216827
-0.21156262 -0.01813368 -0.15167524 -0.024315031 -0.0025806143 0.0022430138 0.043021988 0.23347142
-0.060504977 -0.15166575 -0.25227842 0.0054325745 0.010288418 0.03113479 0.15691406 0.016102444
0.11831271 -0.18568757 -0.0029372482 -0.08322267 -0.068390094 -0.24958476 -0.04983601 -0.08433089
0.11698765 0.03617118 0.09305014 -0.05417447 0.1399178 -0.08656462 -0.22215234 -0.16481918
0.011978874 -0.0375582 0.14435557 -0.10071264 -0.19145748 0.13318321 -0.06659823 -0.04472385
-0.048784006 -0.32881403 -0.039474197 0.18305048 -0.14058027 0.06583336 -0.14622518 0.06744991
0.12965065 -0.19702949 -0.006177415 -0.10504666 -0.032901805 -0.028838135 -0.109018154 0.11287002
0.14247803 -0.20073158 0.12507756 0.026346903 0.12597387 0.49948156 -0.22706938 -0.33766043
0.118479885 -0.16737433 0.059378996 0.494397 -0.049124464 -0.080861144 0.12039967 -0.12696269
-0.008914012 0.045820184 -0.068358205 -0.06397318 -0.05026714 0.26798314 -0.18191396 0.09046173
-0.2043137 -0.14163242 0.36797702 0.034101725 -0.25304672 0.07093838 -0.1641238 0.30369636
0.2728488 -0.05411508 -0.14385098 0.08166167 0.04817628 -0.14094342 -0.10617727 -0.10211653
-0.11230898 0.07103771 0.16101424 0.11778696 0.28442934 -0.21044034 -0.054806173 0.035173375
-0.05438951 -0.20048848 0.12647578 -0.041449264 0.1297369 0.09597734 0.0430323 0.06738628
-0.18609042 -0.010798149 0.018546231 0.11222733 0.018234719 0.017828254 0.066745855 -0.093800396
-0.033661194 -0.02613873 0.14007439 -0.058616806 -0.031003803 0.021002647 0.2239391 -0.023738632
0.08724857 -0.035342906 0.100845836 -0.004402928 0.11239101 -0.13083524 -0.18229432 0.092807785
0.16115125 0.09749339 -0.06977226 0.053712156 -0.0560174 0.026689352 -0.0063584587 0.2198016
-0.12902643 0.010426803 -0.033280395 0.19316648 0.026455883 0.017576821 0.018624233 -0.01701554
-0.021442255 0.06175188 -0.13620195 -0.22746214 0.17708863 0.21584006 0.072623886 0.05191141
0.06963833 -0.16949369 -0.14310376 -0.020923825 0.29081425 0.0021942917 0.22263104 -0.17553048
0.22733171 0.013571945 0.03999381 -0.089429796 0.11061853 -0.043070793 0.023059016 -0.18549034
-0.10400934 0.088524535 0.21075755 0.06888225 -0.04495968 0.07874713 -0.1573178 -0.18686135
-0.014118277 0.28551552 -0.009470764 0.11527272 -0.08212751 0.303071 0.021734344 0.2174561
-0.16874687 0.15312202 0.062436868 -0.04090597 -0.33986408 -0.07820786 0.18038677 0.21000728
00000000: 1513 833d 7d04 bc3d 7031 4abe d64a 28bd
00000010: 5e86 fdbb 6bab 00bd 599f 73bd e786 263e
00000020: 0037 913d 5be7 ce3d d5bd b2bd 060a 2e3a
00000030: da2b a63e c4ae 33be 94e6 81be 7a43 5ebd
00000040: 94ac 2abe b040 4e3e 9488 963e 46ca 3dbd
00000050: cec3 cd3d 2466 553e 0953 a43d 1a21 45bc
00000060: ead1 13be 4c1c f4bc 7199 97bd e396 01bd
00000070: 2865 a53c 7ca5 b03c cb78 153e 4f98 a1be
00000080: 081a 823d 061e bc3c 900f a5bd fa28 a8be
00000090: 60eb 38bd b39d 1cbb 1dd5 c0bb e319 abbd
000000a0: 44f6 f3bc 3fa2 afbd 1c1f d43d 945a 323e
000000b0: 3b48 e2bc 41a0 f0bd 78bd 233d 8fd4 b1bd
000000c0: 867d 0f3c e757 55bd 5e05 50bc 3447 c23d
000000d0: a4f9 32be 85ab a0bc ffc2 3c3d 7fbe 7abd
000000e0: dfa3 58be 158d 94bc c150 1bbe 5130 c7bc
000000f0: 861f 29bb 87ff 123b d337 303d 2213 6f3e
00000100: 11d4 77bd 444e 1bbe a32a 81be bd03 b23b
00000110: c190 283c 630e ff3c 14ae 203e 46e9 833c
00000120: ef4d f23d e224 3ebe d97e 40bb a670 aabd
00000130: 1b10 8cbd 2693 7fbe d820 4cbd acb5 acbd
00000140: 3997 ef3d 3b28 143d 1291 be3d 0de6 5dbd
00000150: 9d46 0f3e cb48 b1bd e77b 63be 5cc6 28be
00000160: 0a43 443c a1d6 19bd f2d1 133e 6e42 cebd
00000170: 6e0d 44be 2e61 083e a764 88bd 5b30 37bd
00000180: bdd1 47bd 505a a8be b2af 21bd 9671 3b3e
00000190: 46f4 0fbe a4d3 863d 0ebc 15be 2e23 8a3d
000001a0: 24c3 043e 19c2 49be ea6b cabb b422 d7bd
000001b0: 0bc4 06bd f43d ecbc e944 dfbd 6628 e73d
000001c0: c3e5 113e 948c 4dbe 5514 003e 76d5 d73c
000001d0: 4bff 003e 0cbc ff3e e084 68be d4e1 acbe
000001e0: 95a5 f23d 2d64 2bbe 6437 733d 9b21 fd3e
000001f0: bc36 49bd 879a a5bd 1a94 f63d 8202 02be
00000200: 140c 12bc f2ad 3b3d 63ff 8bbd 5f04 83bd
00000210: ebe4 4dbd 1635 893e a747 3abe 0044 b93d
00000220: 9c37 51be 1708 11be 7c67 bc3e 40ae 0b3d
00000230: 578f 81be 2448 913d 1210 28be 177e 9b3e
00000240: d7b2 8b3e c6a7 5dbd ac4d 13be 3c3e a73d
00000250: 7e54 453d 7953 10be 7873 d9bd 7922 d1bd
00000260: 4002 e6bd 387c 913d ebe0 243e 4a3a f13d
00000270: b9a0 913e ac7d 57be 707c 60bd f511 103d
00000280: 89c7 5ebd da4c 4dbe de82 013e b4c6 29bd
00000290: c0d9 043e c58f c43d a342 303d d101 8a3d
000002a0: 7d8e 3ebe b8ea 30bc 44ee 973c 71d7 e53d
000002b0: fa60 953c 8f0c 923c 0db2 883d 6c1a c0bd
000002c0: 52e0 09bd e420 d6bc a96f 0f3e 2d18 70bd
000002d0: b0fb fdbc be0d ac3c 4b50 653e 8577 c2bc
000002e0: 61af b23d b9c3 10bd 4388 ce3d 7046 90bb
000002f0: 422d e63d acf9 05be 5dab 3abe 0212 be3d
00000300: d504 253e 9daa c73d c2e4 8ebd 4701 5c3d
00000310: 8072 65bd a1a3 da3c 9e5a d0bb ac13 613e
00000320: 811f 04be 2ed5 2a3c 0651 08bd 6fcd 453e
00000330: 02ba d83c 44fd 8f3c d991 983c 2c64 8bbc
00000340: aba7 afbc 8aef 7c3d 8678 0bbe d6eb 68be
00000350: b956 353e 2d05 5d3e d5bb 943d 0fa1 543d
00000360: 8a9e 8e3d c18f 2dbe cb89 12be 7168 abbc
00000370: 9be5 943e 1bce 0f3b 64f9 633e 43be 33be
00000380: a5c9 683e dd5c 5e3c 8dd0 233d f826 b7bd
00000390: f88b e23d 006b 30bd 43e6 bc3c 2ef1 3dbe
000003a0: d902 d5bd 5a4c b53d d4d0 573e 2312 8d3d
000003b0: a427 38bd 2d46 a13d eb17 21be 9558 3fbe
000003c0: 5850 67bc 172f 923e 432b 1bbc 1b14 ec3d
000003d0: 7832 a8bd 1f2c 9b3e 390c b23c d0ac 5e3e
000003e0: fbcb 2cbe 05cc 1c3e cdbd 7f3d 058d 27bd
000003f0: aa02 aebe 712b a0bd 4fb7 383e 260c 573e

cnn_layers.0.bias f4 [8]
0.101384565 0.09995838 -0.02042481 0.04216767 -0.060746327 0.6050968 0.27903542 0.062251072
00000000: b6a2 cf3d fbb6 cc3d ee51 a7bc 02b8 2c3d
00000010: 24d1 78bd a0e7 1a3f bbdd 8e3e fbfa 7e3d

cnn_layers.1.weight f4 [8]
1.2754556 0.837497 1.0290364 0.7656055 0.82937235 0.7511787 0.82158756 0.92198414
00000000: 2142 a33f 3466 563f 77b7 833f b9fe 433f
00000010: bf51 543f 3f4d 403f 9053 523f 2707 6c3f

cnn_layers.1.bias f4 [8]
0.4713653 -0.5153108 -0.8310224 -0.121344194 -0.2640245 -0.45311582 -0.10883634 -0.25096413
00000000: cb56 f13e 69eb 03bf e2bd 54bf 4e83 f8bd
00000010: 382e 87be ccfe e7be 96e5 debd 5f7e 80be

cnn_layers.1.running_mean f4 [8]
0.11105305 0.109776616 -0.022167822 0.015812967 -0.052782267 0.6087304 0.28761858 0.06863488
00000000: c86f e33d 90d2 e03d 4b99 b5bc 328a 813c
00000010: 3832 58bd c1d5 1b3f be42 933e 7290 8c3d

cnn_layers.1.running_var f4 [8]
0.6991785 3.2373683 0.022697324 1.5183203 7.1902585 17.94538 11.669061 0.8616773
00000000: 5dfd 323f 0b31 4f40 bdef b93c 5258 c23f
00000010: 9916 e640 2390 8f41 79b4 3a41 e296 5c3f

cnn_layers.4.weight f4 [14, 8, 3, 1]
0.113277145 0.23089662 0.3854465 -0.20789841 0.2710092 0.1647219 -0.3268997 -0.46721363
-0.53117144 -0.13137044 -0.18631813 -0.31150597 0.051605638 0.092750825 0.11912494 0.0798869
0.2774464 0.3541768 -0.20625572 0.03826587 0.012789863 0.006535266 0.114447795 0.16898486
0.10681775 0.087364554 0.5553044 0.1023967 0.2207289 0.23467243 -0.5674039 -0.1984059
-0.78182435 -0.13857453 -0.057644602 -0.29484203 0.0039481316 0.05948742 0.021993464 0.15579882
0.2622987 0.38859844 0.00072874146 -0.1527254 0.045508318 -0.00066747033 0.040048245 0.19901378
0.07663435 0.25648224 0.6295958 0.37187934 0.016011845 0.16372292 0.3659131 -0.13639441
-0.57798743 -0.033957046 -0.0575722 -0.30002907 0.022016913 0.14070448 0.07013327 0.10376626
0.2295373 0.3393329 -0.11805076 0.12366171 0.3651858 0.07911003 0.09499196 0.28755254
0.1322077 0.23094535 0.5867137 0.12079756 0.28517014 0.55340636 0.00406358 -0.06739966
-0.29436564 -0.102098376 -0.09704305 -0.28100356 0.11429318 -0.052471574 0.14176625 0.020846402
0.20143455 0.3383514 -0.008165175 0.0071167434 0.051580288 0.11431993 0.13702665 0.21220486
-0.20538722 0.08814131 0.47883603 -0.3548436 -0.28310284 0.70831996 0.14841807 -0.1547492
-0.32199106 0.094832286 -0.014114021 -0.25753492 0.051520266 0.0690029 0.061480172 -0.030477507
0.21489166 0.37321427 0.038044125 0.13592413 0.53513753 0.0052481415 0.101677656 0.21206507
-0.037195932 0.015031354 0.52817863 -0.14343384 -0.07310145 0.15969275 -0.41371307 -0.04300809
-0.56837255 -0.08713935 -0.00032354004 -0.14176697 0.031816874 0.042863786 0.030740308 0.08654871
0.19368093 0.44134918 -0.16662373 -0.012603776 0.46798205 -0.050643303 0.025480384 0.23610148
-0.06181743 -0.042257305 0.61256534 0.12885709 0.024087612 0.3094074 -0.12317591 -0.012055137
-0.62780696 -0.11550804 -0.11647009 -0.31161183 0.039929666 -0.03952629 0.05646642 0.07018583
0.21225755 0.46773908 -0.010361756 -0.064583436 0.28401715 -0.0036950838 0.045420673 0.20180473
-0.23654597 -0.06880467 0.25018555 -0.21099141 0.043172162 0.6919925 0.0434553 0.28159246
-0.36966112 0.024219315 -0.029113181 -0.56361777 0.037726905 0.112751506 0.1731593 -0.06325112
-0.064088866 0.58433247 0.0014107446 -0.1256092 0.22426905 -0.11551089 -0.07678262 -0.04134287
-0.05444139 -0.0558874 0.5122418 -0.13595434 0.43794182 0.12566641 -0.18758832 0.46950856
-0.7236081 0.025435138 0.020968888 -0.23016286 0.024008818 0.04677913 0.02262746 0.113642804
0.11321777 0.44264877 0.0708434 0.09743019 0.3412635 0.025042385 0.0862339 0.18927635
-0.19533893 -0.12518695 0.55444586 0.9320456 -0.13315076 0.112235636 0.14723416 0.4429319
-0.75459373 0.01070399 -0.049072307 -0.24980944 -0.024120789 0.11533072 0.042438984 -0.057318546
0.12043994 0.34617803 -0.2536953 -0.042771272 0.3149461 0.008145929 0.050395656 0.09649118
-0.23391798 -0.07004939 0.62586373 -0.09418496 0.03279116 0.25851738 0.5005076 0.08641921
-0.7102773 0.046426907 -0.07632308 -0.31239086 0.048665643 0.12827657 0.14489569 -0.25666964
00000000: d9fd e73d 2a70 6c3e 3e59 c53e 52e3 54be
00000010: b8c1 8a3e dcac 283e 665f a7be a036 efbe
00000020: dafa 07bf f985 06be 2eca 3ebe b67d 9fbe
00000030: 6f60 533d 25f4 bd3d c7f7 f33d be9b a33d
00000040: 740d 8e3e a956 b53e b334 53be acbc 1c3d
00000050: 938c 513c c925 d63b 9b63 ea3d 5e0a 2d3e
00000060: 44c3 da3d 30ec b23d 6e28 0e3f 5cb5 d13d
00000070: c206 623e f84d 703e 6241 11bf eb2a 4bbe
00000080: a425 48bf 7be6 0dbe bf1c 6cbd 89f5 96be
00000090: 545f 813b 15a9 733d a32b b43c ba89 1f3e
000000a0: 044c 863e 60f6 c63e 0309 3f3a 0c64 1cbe
000000b0: ee66 3a3d 2df9 2eba a109 243d 45ca 4b3e
000000c0: 78f2 9c3d a451 833e 312d 213f f866 be3e
000000d0: 462b 833c fba6 273e f658 bb3e faaa 0bbe
000000e0: fcf6 13bf 8b16 0bbd d4d0 6bbd 699d 99be
000000f0: d05c b43c d614 103e 08a2 8f3d 6883 d43d
00000100: d30b 6b3e 0bbd ad3e 99c4 f1bd 5a42 fd3d
00000110: a2f9 ba3e 7004 a23d 258b c23d 163a 933e
00000120: 7561 073e f07c 6c3e de32 163f b664 f73d
00000130: d201 923e 0aac 0d3f c827 853b d508 8abd
00000140: 18b7 96be f418 d1bd 82be c6bd b3df 8fbe
00000150: 8b12 ea3d 6fec 56bd 2c2b 113e 13c6 aa3c
00000160: dc44 4e3e 653c ad3e 3ac7 05bc 9233 e93b
00000170: da45 533d 9120 ea3d b750 0c3e 3b4c 593e
00000180: 0751 52be 6e83 b43d ff29 f53e 0fae b5be
00000190: dbf2 90be 7554 353f e8fa 173e 9376 1ebe
000001a0: 03dc a4be 6e37 c23d 7f3e 67bc 9edb 83be
000001b0: ea06 533d 6451 8d3d a2d2 7b3d f7ab f9bc
000001c0: 8f0c 5c3e f115 bf3e 28d4 1b3d b22f 0b3e
000001d0: c6fe 083f 9af8 ab3b 603c d03d 9627 593e
000001e0: c35a 18bd 1146 763c b736 073f 52e0 12be
000001f0: 37b6 95bd 7f86 233e 33d2 d3be 4029 30bd
00000200: dd80 11bf 1e76 b2bd cfa0 a9b9 5c2b 11be
00000210: 6952 023d f091 2f3d 19d3 fb3c 7340 b13d
00000220: 4b54 463e 85f8 e13e 699f 2abe 1180 4ebc
00000230: 589b ef3e 5a6f 4fbd 3dbc d03c 96c4 713e
00000240: 4634 7dbd ff15 2dbd 15d1 1c3f 1df3 033e
00000250: 6253 c53c a66a 9e3e a743 fcbd e982 45bc
00000260: f5b7 20bf 7b8f ecbd df87 eebd 968b 9fbe
00000270: 4a8d 233d 52e6 21bd 5549 673d 97bd 8f3d
00000280: 0b5a 593e 7f7b ef3e 5bc4 29bc 5244 84bd
00000290: b26a 913e 3829 72bb 070b 3a3d e6a5 4e3e
000002a0: 1b39 72be 76e9 8cbd 5218 803e 220e 58be
000002b0: 4bd5 303d 6c26 313f 2ffe 313d e32c 903e
000002c0: 3944 bdbe 9667 c63c c47e eebc 4149 10bf
000002d0: 8787 1a3d 43ea e63d ac50 313e ce89 81bd
000002e0: 0641 83bd d096 153f bce8 b83a b39f 00be
000002f0: c9a6 653e f990 ecbd 3540 9dbd 2457 29bd
00000300: effd 5ebd 30ea 64bd 4722 033f 9d37 0bbe
00000310: e939 e03e b2ae 003e 2717 40be 6d63 f03e
00000320: 613e 39bf 5a5d d03c f2c6 ab3c d0af 6bbe
00000330: 24ae c43c 799b 3f3d 395d b93c 8fbd e83d
00000340: b8de e73d dca2 e23e 5816 913d 7b89 c73d
00000350: 17ba ae3e b025 cd3c 669b b03d a9d1 413e
00000360: ee06 48be 0231 00be 2af0 0d3f 8a9a 6e3f
00000370: ac58 08be ccdb e53d 8dc4 163e f8c7 e23e
00000380: 0e2d 41bf ca5f 2f3c 0b00 49bd 0cce 7fbe
00000390: f698 c5bc 8332 ec3d 80d4 2d3d dac6 6abd
000003a0: 37a9 f63d 3f3e b13e 5ae4 81be ee30 2fbd
000003b0: 9d40 a13e 8176 053c ad6b 4e3d 2b9d c53d
000003c0: 3288 6fbe 0e76 8fbd 9b38 203f 0be4 c0bd
000003d0: 0650 063d 645c 843e 4421 003f 8efc b03d
000003e0: bcd4 35bf 242a 3e3d 464f 9cbd b2f1 9fbe
000003f0: a055 473d ef5a 033e 895f 143e 346a 83be

cnn_layers.4.bias f4 [14]
0.1488986 0.006513552 0.013744458 -0.09261182 0.07035969 -0.17670979 -0.21026035 -0.73939645
0.062037453 -0.7631099 -0.08612383 -0.0311372 -0.6939343 -0.14843541
00000000: e078 183e a26f d53b 6f30 613c 44ab bdbd
00000010: be18 903d 69f3 34be 7d4e 57be 1649 3dbf
00000020: fc1a 7e3d 2c5b 43bf b161 b0bd 7113 ffbc
00000030: aea5 31bf 74ff 17be

cnn_layers.5.weight f4 [14]
2.5478501 2.5095425 2.4883134 2.3236823 2.3991756 2.5253694 2.5338824 2.5381403
2.5146613 2.502322 2.4586637 2.5175252 2.4514155 2.521501
00000000: fa0f 2340 589c 2040 8740 1f40 36b7 1440
00000010: 188c 1940 a79f 2140 212b 2240 e470 2240
00000020: 36f0 2040 0b26 2040 bf5a 1d40 221f 2140
00000030: fee3 1c40 4660 2140

cnn_layers.5.bias f4 [14]
1.7062764 1.6752086 1.6533084 1.4476253 1.5696543 1.709672 1.6981931 1.7320573
1.6866502 1.6869228 1.6447581 1.6827912 1.6431156 1.7061771
00000000: 4467 da3f 3c6d d63f 9c9f d33f c94b b93f
00000010: 6fea c83f 88d6 da3f 645e d93f 0eb4 dd3f
00000020: 27e4 d73f 16ed d73f 6f87 d23f b465 d73f
00000030: 9d51 d23f 0364 da3f

cnn_layers.5.running_mean f4 [14]
0.59639174 0.48390818 1.0516785 0.86482656 0.65300804 0.2650274 0.20416917 -0.8224495
0.6415237 -0.46002224 0.26319662 0.26521528 -0.39886788 0.07304509
00000000: 21ad 183f d0c2 f73e 679d 863f 4665 5d3f
00000010: 892b 273f acb1 873e b911 513e 0d8c 52bf
00000020: e63a 243f 0988 ebbe b5c1 863e 4cca 873e
00000030: 6938 ccbe aa98 953d

cnn_layers.5.running_var f4 [14]
0.34145245 0.4252312 0.123004556 0.10775993 0.099166386 0.20895717 0.1421425 0.07457042
0.09199696 0.05780788 0.032026555 0.06002701 0.04294622 0.037022695
00000000: dbd2 ae3e e7b7 d93e d0e9 fb3d 3db1 dc3d
00000010: bf17 cb3d def8 553e ce8d 113e 60b8 983d
00000020: e768 bc3d f5c7 6c3d 472e 033d e2de 753d
00000030: 60e8 2f3d 1ca5 173d

linear_layers.0.weight f4 [1, 28]
1.6236497 1.3482277 1.6030909 1.4811541 1.5753742 1.3747636 1.451633 1.5196161
1.4113895 1.5698544 1.5787119 1.4419638 1.4561795 1.5806046 1.376026 1.6393827
1.5472012 1.5089401 1.5762969 1.4863502 1.4236097 1.5289496 1.4335282 1.6483611
1.5873154 1.6174698 1.4880145 1.533518
00000000: c1d3 cf3f ba92 ac3f 1532 cd3f 7596 bd3f
00000010: dda5 c93f 41f8 af3f 1ccf b93f c882 c23f
00000020: 69a8 b43f fdf0 c83f 3b13 ca3f 4592 b83f
00000030: 1764 ba3f 4051 ca3f 9f21 b03f 4bd7 d13f
00000040: b00a c63f f324 c13f 19c4 c93f b940 be3f
00000050: d838 b63f 9fb4 c33f da7d b73f 7ffd d23f
00000060: 272d cb3f 4009 cf3f 4277 be3f 514a c43f
