model/model_FD003.onnx (onnx, 4588 bytes, 5 tensors)

linear_layers.0.weight f4 [1, 28]
0	0x3fc8bb86	1.5682228
1	0x3fb3de4e	1.4052217
2	0x3fc3c63b	1.529487
3	0x3fb56b60	1.4173393
4	0x3fc9716a	1.5737736
5	0x3fc60f9b	1.5473512
6	0x3fc380e5	1.527371
7	0x3fc75378	1.5572348
8	0x3fb53a8b	1.4158491
9	0x3fcfd11d	1.6235691
10	0x3fc18644	1.51191
11	0x3fc48c72	1.535536
12	0x3fce0778	1.6096029
13	0x3fcb829c	1.5899234
14	0x3fbc59d5	1.4714915
15	0x3fd4f23d	1.6636425
16	0x3fce448b	1.6114668
17	0x3fa5117f	1.2895964
18	0x3fc50ebf	1.5395125
19	0x3fcaef94	1.5854363
20	0x3fd36421	1.6514932
21	0x3fc2bf0b	1.5214552
22	0x3fc507bd	1.5392987
23	0x3fc2e166	1.5225036
24	0x3fc82b62	1.5638239
25	0x3fcc83ad	1.5977684
26	0x3fc07092	1.5034354
27	0x3fbc485c	1.4709582

31 f4 [8, 1, 4, 15]
0	0x3ce9eee2	0.028556291
1	0x3c89de47	0.016829623
2	0xbca2ad19	-0.01985793
3	0xbd1e9a74	-0.038721517
4	0xbd91f6a7	-0.07127123
5	0xbce0bcde	-0.027433809
6	0x3cbc64e6	0.02299733
7	0xbc2fe8a0	-0.0107366145
8	0xbd5da29b	-0.05411015
9	0xbce9cc6c	-0.028539859
10	0xbc5e5ebe	-0.013572393
11	0x3c030812	0.00799753
12	0x3ba9786f	0.0051718275
13	0xbd03727c	-0.032091603
14	0xbd18f418	-0.03734216
15	0xbc5f25eb	-0.01361988
16	0xbcdbb1e7	-0.026818229
17	0xbc82872f	-0.015933601
18	0xbd53ad48	-0.051678926
19	0xbc124036	-0.008926442
20	0x3c7f9b09	0.015600928
21	0x3d105781	0.0352397
22	0xbd397210	-0.045274794
23	0xbcc7fc88	-0.024412408
24	0xbd3c230b	-0.045931857
25	0x3bf200c1	0.007385344
26	0x3cfbbf8f	0.03073099
27	0xbc87d294	-0.016579904
28	0x3a5b2acf	0.0008360566
29	0xbbcc32bd	-0.0062316344
30	0x3bc124c6	0.0058942763
31	0x3c8b56eb	0.01700922
32	0x3b4b54bc	0.0031025847
33	0xbd0f4ca5	-0.034985203
34	0x3c75d69f	0.015004783
35	0x3d72dd2e	0.059292965
36	0x3ca42410	0.020036727
37	0xbc802bff	-0.015645979
38	0xbaace849	-0.0013191785
39	0x3dcbc81e	0.09950279
40	0x3d6dd411	0.05806357
41	0x3ce2e34e	0.027696278
42	0xbc954bca	-0.018224616
43	0xbd0bd2ee	-0.034136705
44	0xbca7a167	-0.020462705
45	0x3d55e07a	0.05221603
46	0x3d691d80	0.0569129
47	0x3d9daf9f	0.07699513
48	0xbd1d3661	-0.038381938
49	0x3d282485	0.041050453
50	0x3e94d34b	0.29067454
51	0x3dbff011	0.09371961
52	0x3db8081b	0.08985921
53	0x3d38fa26	0.045160435
54	0x3eb748b6	0.35797662
55	0x3dbdcb64	0.09267309
56	0x3c57565b	0.013143147
57	0x3d876334	0.06610718
58	0xbce2fef5	-0.027709464
59	0xbd1b0b3d	-0.037852515
60	0xbcbe4dcb	-0.023230454
61	0xbc9586d2	-0.018252764
62	0xbcef5230	-0.029213995
63	0x3d024e20	0.031812787
64	0xbcadfe8f	-0.021239547
65	0xbbe7cab0	-0.007073723
66	0xbc64e00e	-0.013969434
67	0xbcc3bc0d	-0.02389338
68	0xbcdca9b5	-0.026936391
69	0xbce0bd44	-0.027433999
70	0xbc30c9c8	-0.010790296
71	0x3ca212af	0.0197843
72	0xbcd9bb70	-0.026578635
73	0xbba9ce6a	-0.005182077
74	0x3b7182ad	0.003685157
75	0xbc48831b	-0.012238289
76	0xbc84dc5c	-0.016218357
77	0xbd223ae3	-0.03960694
78	0x3d041441	0.032245878
79	0xbba2b8ba	-0.004965869
80	0xbcc4ac11	-0.024007829
81	0xbc33c7e6	-0.0109729525
82	0xbd486b9a	-0.04893074
83	0xbcd36377	-0.025804264
84	0xbc522cd8	-0.012828074
85	0xbcd9533f	-0.026528953
86	0x3c8323f4	0.016008355
87	0xbc74fa6c	-0.014952283
88	0x3b7ab408	0.003825428
89	0x3c0d7e78	0.0086361095
90	0xbca18303	-0.019715792
91	0xbcab8025	-0.020935128
92	0xbd0da398	-0.034579843
93	0x3d4991fc	0.049211487
94	0xbcabe3dc	-0.020982675
95	0xbc6ed8ab	-0.014578025
96	0xbcd5506b	-0.026039323
97	0xbd236f30	-0.03990096
98	0xbca7fccf	-0.02050629
99	0x3be6bed7	0.007041793
100	0xbc003cd7	-0.007827005
101	0x3b94a3e5	0.0045361393
102	0xbc7ed014	-0.015552539
103	0x3c6b1ae5	0.014349674
104	0xbad815dd	-0.0016486008
105	0xbd2fbc54	-0.042904213
106	0xbd3211ea	-0.043474115
107	0xbd3add96	-0.045621477
108	0x3d4842ad	0.048891712
109	0xbcbc10c8	-0.02295722
110	0xbc58fe84	-0.013244275
111	0xbd48f226	-0.049059056
112	0xbd84334b	-0.06455096
113	0xbd0b3a04	-0.033990875
114	0xbc7e3274	-0.015514959
115	0xbc517d66	-0.012786245
116	0x3b855108	0.0040684976
117	0xbcba3c9a	-0.022733975
118	0x3c6439a5	0.013929759
119	0x3c515b88	0.01277817
120	0xbc8196e5	-0.015819022
121	0xbc60eb0c	-0.013727915
122	0xbcb696bb	-0.02228867
123	0x3c8ca2d8	0.017167494
124	0x39be7852	0.0003632927
125	0x387e12a0	6.0575665e-05
126	0xbc3ea7a8	-0.011636652
127	0xbcbab57a	-0.022791613
128	0x3ae733d6	0.001763935
129	0x3b617847	0.0034403966
130	0xbbcca3a0	-0.0062450916
131	0xbc4e7538	-0.012601189
132	0xbc5bf1f8	-0.013424389
133	0x3c65f974	0.014036525
134	0x3c842bc5	0.016134152
135	0xbcc3a4ab	-0.02388223
136	0xbc8b7c3b	-0.017027011
137	0xbccd73ee	-0.025079694
138	0x3bb3fdfa	0.005492923
139	0xb94cfd7b	-0.00019549385
140	0xbb3991ee	-0.002831574
141	0xbc9d8f5e	-0.019233402
142	0xbd1378bf	-0.036003824
143	0xbbefc8d3	-0.0073176413
144	0xbabfc3b4	-0.0014630468
145	0xbcb26950	-0.021778733
146	0xbaaf3772	-0.0013367964
147	0xbc944394	-0.01809863
148	0x3b5b3da3	0.0033453486
149	0x3bcbc12f	0.0062180976
150	0xbcf3b0fb	-0.029747477
151	0xbc92e065	-0.017929265
152	0xbce0712f	-0.02739772
153	0x3bf8f063	0.0075970157
154	0xbc8d382d	-0.0172387
155	0x3c09995c	0.00839838
156	0xbccf86a1	-0.02533275
157	0xbd460ab3	-0.048350047
158	0x393f153b	0.00018223088
159	0xbc0a6651	-0.008447246
160	0xbcd659f5	-0.026165942
161	0xbc2b8da5	-0.010470782
162	0xbcbd1892	-0.023083005
163	0x3bdbaad1	0.0067037125
164	0x3a0d6b6d	0.0005394731
165	0xbce1431d	-0.027497822
166	0xbce926f2	-0.028460953
167	0xbd36a699	-0.044592474
168	0x3b8d667c	0.0043151956
169	0xbbe806eb	-0.007080903
170	0xbbebdb1b	-0.0071977503
171	0xbcdc01fb	-0.026856413
172	0xbd69b747	-0.057059553
173	0xbce2733d	-0.02764284
174	0xbc5596bd	-0.013036427
175	0xbd02fde3	-0.031980406
176	0x3b5bef0f	0.0033559238
177	0xbcffc495	-0.031221667
178	0x3ace9246	0.0015760146
179	0x3c05a443	0.008156839
180	0xbd0ac981	-0.033883575
181	0x3beb1535	0.007174159
182	0xbd595bd9	-0.05306611
183	0x3c5aed25	0.013362204
184	0xbd32272a	-0.04349438
185	0xbcd045be	-0.02542388
186	0xbd7bfe22	-0.061521657
187	0xbd8d4be8	-0.068992436
188	0xbd271143	-0.040787946
189	0x3bf026bb	0.007328836
190	0xbd687042	-0.056747682
191	0xbc14356d	-0.009045941
192	0xbc90eda0	-0.017691433
193	0x3c8ef0de	0.017448839
194	0x3c2c16e4	0.010503504
195	0xbd30db25	-0.043177743
196	0x3c42c165	0.011886929
197	0xbd815e54	-0.0631682
198	0x3d1fd7bf	0.03902411
199	0xbceef85e	-0.029171165
200	0xbce5dfc6	-0.028060805
201	0xbd018243	-0.031618368
202	0xbd64a0eb	-0.055817526
203	0xbc066161	-0.008201928
204	0xbb8a9999	-0.004229736
205	0xbc9dc9d0	-0.01926127
206	0xbc86317b	-0.016381016
207	0xbc48ef5c	-0.012264099
208	0x3c3358f8	0.010946505
209	0xbb54d2f9	-0.0032474382
210	0xbd7d8203	-0.061891567
211	0xbcc20c33	-0.023687458
212	0xbd4a5868	-0.049400717
213	0x3b73bd71	0.0037191773
214	0x3cb25ef9	0.021773802
215	0xbc5364b7	-0.01290243
216	0xbcfab012	-0.030601535
217	0xbd838d28	-0.06423408
218	0xbbfabf8e	-0.0076522296
219	0x3c0d3143	0.008617702
220	0xbc8674d0	-0.016413122
221	0xbd2f5535	-0.04280587
222	0xbca57009	-0.020195024
223	0x3cabef28	0.020988062
224	0x3d186c81	0.037212852
225	0xbd88ec48	-0.06685692
226	0xbd886366	-0.06659584
227	0xbd88e79c	-0.06684801
228	0x3d268d4c	0.040662095
229	0x3cf7a46a	0.030229766
230	0xbbf04837	-0.0073328274
231	0xbc0ccb9d	-0.008593467
232	0xbd99c784	-0.07508758
233	0x3cc1a9ba	0.023640502
234	0xb9f3340d	-0.00046387353
235	0xbb2de223	-0.0026532493
236	0xbb9fac5f	-0.004872843
237	0xbd4a7fa6	-0.04943814
238	0x3d151a9b	0.036402326
239	0x3cb79671	0.022410603
240	0xbcf5199d	-0.02991944
241	0xbcf26a14	-0.029591598
242	0xbd324dc4	-0.043531194
243	0x3d77f5dc	0.060537204
244	0xbce6d68d	-0.028178478
245	0xbcb32a08	-0.021870628
246	0xbcc7879c	-0.024356656
247	0xbd3321bc	-0.043733343
248	0xbd04cdf8	-0.03242299
249	0xbaddfc6b	-0.0016936188
250	0xbc6d4b5c	-0.014483299
251	0x3c313f85	0.010818367
252	0xbcbb4281	-0.02285886
253	0x3c240be5	0.0100126015
254	0xbc87357c	-0.016504996
255	0xbc9407dc	-0.018070154

32 f4 [8]
0	0x3ed2096a	0.41022807
1	0x3f9ab662	1.2086909
2	0x3f7e756d	0.9939793
3	0x3f3c8415	0.7363904
4	0x3f765bec	0.9623401
5	0x3fbdb932	1.4822142
6	0x3f8ea367	1.1143616
7	0x3f7568cf	0.9586305

34 f4 [14, 8, 3, 1]
0	0x3efe2656	0.49638623
1	0x3f2018ca	0.62537825
2	0xc0bb6b69	-5.8568616
3	0xc0342f42	-2.8153844
4	0xc01fd1c6	-2.4971786
5	0xbec9288f	-0.39288756
6	0x402f13ee	2.7355914
7	0x4028fe86	2.6405349
8	0x404eccb6	3.2312446
9	0xc0806b7b	-4.01312
10	0xc086ae5c	-4.208784
11	0xc0897409	-4.2954144
12	0x3f5f92de	0.87333477
13	0x3fe29ba4	1.7703748
14	0x401ed3b9	2.4816725
15	0xc0c0b829	-6.0224805
16	0xc06608c5	-3.5942852
17	0xbf66d397	-0.9016661
18	0xbf85f140	-1.0464249
19	0xbf728f50	-0.9474993
20	0x3f2276cd	0.63462526
21	0x4060fec7	3.5155504
22	0x408a9e3d	4.331816
23	0x405c015b	3.4375827
24	0x3f3f124f	0.7463731
25	0xbfb74944	-1.4319234
26	0xbfcfc96b	-1.6233343
27	0xbf440d06	-0.7658237
28	0xbf6008b7	-0.875133
29	0xbf91586c	-1.1355109
30	0x3faf9acd	1.3719116
31	0x3fc44130	1.5332394
32	0x3f9d194c	1.2273345
33	0xbfff6140	-1.9951553
34	0xc0138e95	-2.3055775
35	0xbfa682bc	-1.3008647
36	0x3ecd8e61	0.4014769
37	0x3f267989	0.650292
38	0x3f4214a3	0.7581274
39	0xbf239b87	-0.6390919
40	0xbf84e3ea	-1.0382054
41	0xbece503b	-0.40295586
42	0xbe13acb8	-0.14421356
43	0x3ef89dea	0.4855798
44	0xbf1b6c7b	-0.60712403
45	0x4004de41	2.0760653
46	0x40134c4a	2.3015313
47	0x401c313e	2.4405055
48	0xbd6f7f0b	-0.058470767
49	0xbdbd7c80	-0.09252262
50	0xbf5733c5	-0.8406337
51	0x3f2eadd7	0.6823401
52	0x3ee5a8bb	0.44855294
53	0x3f853d38	1.0409307
54	0x3f09ef3b	0.5388066
55	0x3e517227	0.20453702
56	0x3dcfd39c	0.10147783
57	0xbeb5a194	-0.35474837
58	0xbdb1a1cf	-0.08673441
59	0xbe0ba96f	-0.13638853
60	0xbf5c09d4	-0.85952497
61	0xbf2a2ae4	-0.66471696
62	0xbf04db07	-0.5189671
63	0x3f6d0905	0.9259189
64	0x3fb8bc95	1.4432551
65	0x3f91c081	1.1386873
66	0xbea69f7a	-0.32543546
67	0xbdf2cb23	-0.118551515
68	0xbf04af1d	-0.518297
69	0xbed92e3f	-0.42418095
70	0xbeacd159	-0.3375347
71	0x3db51984	0.08842757
72	0x403b4319	2.9259703
73	0x3f75532b	0.9583003
74	0xc117b73c	-9.482235
75	0xc03f78ad	-2.9917405
76	0xc0416aa1	-3.022133
77	0xbe874529	-0.26419953
78	0x3fe0ccd0	1.7562504
79	0x40a342c1	5.1018987
80	0x400056e9	2.0053046
81	0xc09892f8	-4.7679405
82	0xc1035f30	-8.210739
83	0xc1262203	-10.383304
84	0x3f4ddbca	0.80413496
85	0x4062394e	3.5347476
86	0xbf9d8edc	-1.2309222
87	0xc0078306	-2.117372
88	0xc09c832e	-4.891013
89	0xbef4bab0	-0.4779868
90	0xc09b407e	-4.8516226
91	0xc00285aa	-2.0394082
92	0xc011cb3a	-2.278029
93	0x40ac2739	5.379788
94	0x41412227	12.070838
95	0x413101cc	11.062939
96	0x40324a00	2.7857666
97	0x3e4c39e8	0.19943964
98	0xc09af054	-4.841837
99	0x4090c055	4.523478
100	0x40ae8b6d	5.4545197
101	0x4105b019	8.355493
102	0xbfb96ad9	-1.4485732
103	0xc080bf5d	-4.02336
104	0xc0921ff6	-4.5664015
105	0x3ccdfba1	0.0251444
106	0x3f9bece0	1.2181664
107	0xc0120ecd	-2.2821534
108	0xc0b0fa0a	-5.5305223
109	0xc0a54c22	-5.1655436
110	0xc0c7e4e7	-6.246692
111	0x40245201	2.5675051
112	0x404c2cb7	3.1902292
113	0x40a44a78	5.1340904
114	0xc0ad478e	-5.4149847
115	0xc04f968f	-3.2435644
116	0xbe9b3b38	-0.30318618
117	0x3faed952	1.3660071
118	0xc035c763	-2.8402946
119	0x3fb6bd76	1.4276569
120	0x4088a661	4.27031
121	0x3f7098f1	0.9398337
122	0xc0ee78c3	-7.4522414
123	0xc016ebf8	-2.3581524
124	0x3da519e2	0.080615774
125	0xbf81aece	-1.0131471
126	0x405d8d1c	3.4617376
127	0x3f804e15	1.0023829
128	0x4065a771	3.5883448
129	0xc0841c6a	-4.1284685
130	0xc0e495ac	-7.1432705
131	0xc0ca4b70	-6.3217087
132	0x3ed788a2	0.4209643
133	0xc0221e38	-2.5330944
134	0xc0102e67	-2.2528322
135	0xbff9d50d	-1.9518143
136	0x402f5f41	2.7401888
137	0x400beb4a	2.186236
138	0xc00656b6	-2.0990424
139	0xc07f6bc1	-3.9909518
140	0xc092f3b1	-4.5922475
141	0x40dc893c	6.8917522
142	0x410692fe	8.410887
143	0x40d3029d	6.594069
144	0x3fb8c8d8	1.4436293
145	0x3fcf8888	1.6213541
146	0xc07239b9	-3.784773
147	0xbfad0b21	-1.3519021
148	0x3eb9ce55	0.3629023
149	0x3ebc9278	0.36830497
150	0x40547b34	3.3200197
151	0x403f121a	2.9854798
152	0x40969c39	4.70657
153	0xc0957a88	-4.6712074
154	0xc05c6687	-3.4437578
155	0xc05f4bf9	-3.489012
156	0x3e8efde8	0.2792809
157	0x3d5603e3	0.0522498
158	0xc002cf89	-2.043917
159	0xbf728ed1	-0.9474917
160	0x3e0935cd	0.1339943
161	0x3f7b0515	0.9805463
162	0xbfaf4377	-1.3692464
163	0xbfb2047c	-1.3907619
164	0xc08b304e	-4.3496466
165	0x4092d6bb	4.588712
166	0x40a375df	5.1081386
167	0x4054e8be	3.3267055
168	0x3fd0873b	1.6291269
169	0xbfad2ef1	-1.352995
170	0xc00a088b	-2.1567714
171	0x402d3c52	2.7068067
172	0x4041e91a	3.0298524
173	0x4069bd0b	3.6521633
174	0xbeb89a8e	-0.36055416
175	0xc0375620	-2.8646317
176	0xbec80709	-0.39067867
177	0xbbfa6930	-0.007641934
178	0xbf13a773	-0.5767738
179	0x3f39be88	0.7255635
180	0xc03ab7b9	-2.9174635
181	0xc036d0fd	-2.8565056
182	0xbfdc06b4	-1.7189546
183	0x404da030	3.212902
184	0x402b47af	2.6762502
185	0x402bba17	2.683233
186	0xc072a448	-3.791277
187	0xbf825cf2	-1.0184615
188	0xbf98c5cc	-1.1935363
189	0xbe9ba84c	-0.30401838
190	0xbf2f663a	-0.6851536
191	0xbfba4fae	-1.4555566
192	0x3f9f3e9f	1.2440985
193	0x3e50192f	0.20322107
194	0xc00aa2fd	-2.166198
195	0xbf125307	-0.5715794
196	0x3f75cf84	0.9601977
197	0xbf665168	-0.89967966
198	0x3fa81c92	1.3133719
199	0x4016b3c0	2.354721
200	0x402d44a4	2.7073145
201	0xc02c82bd	-2.6954796
202	0xc034a527	-2.82258
203	0xc03b548b	-2.927035
204	0x3bb334d8	0.005468946
205	0x3ea2c6ec	0.3179239
206	0xbf98055f	-1.1876639
207	0xbeb9b846	-0.36273402
208	0xbdfeb2e8	-0.124364674
209	0x3f19c385	0.60063964
210	0xbfc4f60f	-1.5387591
211	0xbfa1c077	-1.2636861
212	0xbfbbe233	-1.4678406
213	0x40845361	4.135178
214	0x4020fde5	2.5154965
215	0x4080e6d8	4.028179
216	0xbef5d68a	-0.48015243
217	0x3e612e07	0.21990214
218	0xbf8ce3f5	-1.1007067
219	0x3f316b36	0.69304216
220	0x3f289668	0.658545
221	0x3fe49049	1.7856532
222	0xbe33a218	-0.17542303
223	0xbf2ed39f	-0.6829166
224	0x3e034a33	0.12821274
225	0xbda8401e	-0.082153544
226	0xbb4202da	-0.002960375
227	0xbee14864	-0.44000542
228	0xbf9382fe	-1.1524351
229	0xbed66df9	-0.41880777
230	0xbfa2e93c	-1.2727427
231	0x3fa3154e	1.2740877
232	0x40078796	2.1176505
233	0x40008801	2.008301
234	0xbf35dc9c	-0.7103975
235	0xbf6828d1	-0.9068728
236	0xbf2cc771	-0.67491823
237	0xbe8647be	-0.2622661
238	0xbe8b9533	-0.27262267
239	0xbe5c5556	-0.21516928
240	0xbe66953c	-0.22517866
241	0x3e4c34a4	0.19941956
242	0xbf93243d	-1.1495434
243	0x40047a80	2.0699768
244	0x400ca1e7	2.1973817
245	0x4002f4c1	2.0461886
246	0xbe856ff0	-0.26061964
247	0xbf83bdfc	-1.0292354
248	0xbdf20964	-0.11818197
249	0xbf0085b2	-0.50204
250	0xbe09f37d	-0.1347179
251	0x3f001d80	0.50045013
252	0xbf94490c	-1.1584792
253	0xbf1c11fe	-0.60964954
254	0xbfdceee2	-1.7260401
255	0x40058a23	2.0865562

35 f4 [14]
0	0x41665314	14.395283
1	0x3fad6b02	1.3548281
2	0xc0208f50	-2.508747
3	0x415263ab	13.149333
4	0x40295a82	2.6461492
5	0x404f3ab6	3.2379584
6	0xc0116b8a	-2.2721887
7	0xbfa6e12d	-1.3037468
8	0xbffb44d7	-1.9630383
9	0xc00cd4b4	-2.2004824
10	0xc0291573	-2.6419342
11	0xc0361280	-2.8448792
12	0xbfd83b35	-1.6893069
13	0x3e926738	0.28594375
